linearcode/quants/alexnet.pth (torch, 243903 bytes, 24 tensors)

features.0.weight_fake_quant.scale f4 [64]
0	0x3b930242	0.004486353
1	0x3ac52d2f	0.0015043373
2	0x3b875d14	0.004130969
3	0x3b7bb7c5	0.0038409096
4	0x3b3e09cd	0.002899754
5	0x3abe7a58	0.0014532311
6	0x3b13d389	0.0022556505
7	0x3b2109e2	0.002457254
8	0x3b078ef9	0.0020684584
9	0x3b8974c8	0.0041948296
10	0x3b59bc38	0.003322376
11	0x3b47025d	0.00303664
12	0x3b957188	0.004560653
13	0x3b7850df	0.003789
14	0x3b4123e0	0.0029470846
15	0x3ad61307	0.0016332575
16	0x3ba5649e	0.005047395
17	0x3adc5e59	0.0016812786
18	0x3ba4ee6f	0.0050333063
19	0x3b12640d	0.0022337467
20	0x3b594c34	0.0033156993
21	0x3bb5831e	0.005539312
22	0x3b672ac1	0.0035273286
23	0x3adca653	0.0016834236
24	0x3b9a498c	0.0047084745
25	0x3bb29af2	0.0054506
26	0x3b417faa	0.0029525557
27	0x3b5faca2	0.0034129997
28	0x3b79b0c7	0.0038099752
29	0x3b2eeadc	0.002669028
30	0x3b4c239f	0.0031149162
31	0x3bf066fe	0.0073364964
32	0x3b2a3862	0.0025973548
33	0x3bb1417d	0.005409418
34	0x3b640961	0.003479563
35	0x3ac4ec27	0.0015023992
36	0x3aa9f188	0.0012965659
37	0x3baa4097	0.005195688
38	0x3b2a9266	0.0026027202
39	0x3bc8f491	0.00613267
40	0x3ac7d246	0.0015245161
41	0x3bb22f25	0.005437749
42	0x3b4ad507	0.0030949728
43	0x3ab7a061	0.0014009589
44	0x3b2e5c36	0.0026605255
45	0x3ba2ab23	0.0049642487
46	0x3b3100dc	0.002700857
47	0x3ab08083	0.0013466034
48	0x3b86e366	0.0041164635
49	0x3ba0bbad	0.004905185
50	0x3b211594	0.0024579512
51	0x3a9d247b	0.0011989021
52	0x3b08ab48	0.0020854045
53	0x3a8ca5d2	0.0010730571
54	0x3b9416dd	0.004519327
55	0x3b81e582	0.003964127
56	0x3b01440c	0.0019724397
57	0x3b6cf2be	0.0036155428
58	0x3afed5f3	0.0019442424
59	0x3b28d4ae	0.0025761533
60	0x3b5458aa	0.003240148
61	0x3b18d3f0	0.0023319684
62	0x3ada6707	0.0016662785
63	0x3bd2d64c	0.0064342376

features.0.weight_fake_quant.activation_post_process.min_vals f4 [64]
0	0xbe7a0484	-0.24415785
1	0xbe446802	-0.19180301
2	0xbea534e2	-0.3226691
3	0xbef1a81d	-0.47198573
4	0xbeaa077b	-0.33208832
5	0xbe2b2469	-0.16713108
6	0xbe933fb5	-0.28759542
7	0xbea068d8	-0.3132999
8	0xbe82d68f	-0.2555432
9	0xbf08eb53	-0.53484076
10	0xbed8e27c	-0.42360294
11	0xbe50cb34	-0.20390016
12	0xbea1fca4	-0.31638062
13	0xbeb355f3	-0.35026512
14	0xbec062bc	-0.37575328
15	0xbe553cf4	-0.20824033
16	0xbf24bf39	-0.6435428
17	0xbe53b7e3	-0.20675616
18	0xbefafc26	-0.490205
19	0xbe91d1a9	-0.2848027
20	0xbed5af86	-0.41735476
21	0xbf34cd9b	-0.7062623
22	0xbe82d06b	-0.25549635
23	0xbe461b69	-0.19346394
24	0xbf19af42	-0.6003305
25	0xbf31e857	-0.6949515
26	0xbe776af5	-0.24161895
27	0xbed961da	-0.42457467
28	0xbef8b716	-0.48577183
29	0xbeac735c	-0.33681762
30	0xbe95aafd	-0.29232016
31	0xbe383989	-0.17990698
32	0xbea98e2a	-0.33116275
33	0xbf1c9da5	-0.61178046
34	0xbee32558	-0.4436443
35	0xbe44273b	-0.1915559
36	0xbe294796	-0.16531214
37	0xbef89932	-0.4855438
38	0xbe758ba1	-0.23979045
39	0xbf482b9c	-0.7819154
40	0xbe431842	-0.19052222
41	0xbf194efc	-0.59886146
42	0xbe916239	-0.2839525
43	0xbe36e8c1	-0.17862226
44	0xbea02455	-0.3127772
45	0xbe38012b	-0.17969196
46	0xbeb04fdb	-0.34435925
47	0xbe2fd002	-0.17169192
48	0xbf065c83	-0.5248491
49	0xbf1d7d09	-0.61518914
50	0xbea0747e	-0.31338876
51	0xbe1c8757	-0.15286003
52	0xbe88229d	-0.26588908
53	0xbe0c192c	-0.13681477
54	0xbefe5f04	-0.49681866
55	0xbf01639c	-0.50542617
56	0xbe80c2c8	-0.25148606
57	0xbe694155	-0.22778828
58	0xbe2a4bd5	-0.1663049
59	0xbea82bd9	-0.32845953
60	0xbecb31b5	-0.3968636
61	0xbe983b1c	-0.29732597
62	0xbe598ca0	-0.2124505
63	0xbf304c46	-0.68866384

features.0.weight_fake_quant.activation_post_process.max_vals f4 [64]
0	0x3f126f40	0.57201004
1	0x3dddfbf9	0.108390756
2	0x3f06d5b7	0.5266985
3	0x3efabc0d	0.48971596
4	0x3ebd4bc3	0.36971864
5	0x3e3dbbde	0.18528697
6	0x3e3dc99f	0.18533944
7	0x3e63b4c0	0.2223692
8	0x3e87076a	0.26372844
9	0x3ed061f0	0.4069972
10	0x3e48d0a6	0.19610843
11	0x3ec63b5b	0.3871716
12	0x3f14dc16	0.58148324
13	0x3ef7588e	0.4830975
14	0x3e3a114e	0.18170664
15	0x3e386c7d	0.18010135
16	0x3f0d3a3e	0.55166996
17	0x3e5b81fb	0.21436302
18	0x3f244981	0.6417466
19	0x3e47c47a	0.19508544
20	0x3ed872e8	0.42275167
21	0x3f03918e	0.51393974
22	0x3ee64396	0.4497344
23	0x3e5bc9ad	0.21463652
24	0x3eb16444	0.3464681
25	0x3f2b4477	0.66901344
26	0x3ec0be2a	0.37645084
27	0x3edeccf5	0.43515745
28	0x3ea1dbbd	0.3161296
29	0x3eae3bf1	0.34030107
30	0x3ecb577b	0.3971518
31	0x3f6f7697	0.9354033
32	0x3e4c08d5	0.19925244
33	0x3f30903c	0.68970084
34	0x3eb8ed27	0.36118433
35	0x3e1772e5	0.14789923
36	0x3deb8a87	0.11501031
37	0x3f299656	0.6624502
38	0x3ea9e7d4	0.33184683
39	0x3e122283	0.14270978
40	0x3e470a74	0.19437581
41	0x3f317cf6	0.693313
42	0x3eca0a32	0.39460903
43	0x3e2500db	0.16113608
44	0x3eadadda	0.339217
45	0x3f220878	0.6329417
46	0x3de5ee96	0.11227147
47	0x3e2e4652	0.17019013
48	0x3e9cde99	0.3063858
49	0x3f201af1	0.6254111
50	0x3e5724e6	0.2101017
51	0x3e18b474	0.14912587
52	0x3e77e51d	0.24208494
53	0x3e0afb81	0.13572504
54	0x3f1382c6	0.5762142
55	0x3eb168eb	0.3465036
56	0x3e6cc012	0.23120144
57	0x3eec05cb	0.4609817
58	0x3e7dd71d	0.2478909
59	0x3e9dfcda	0.30856973
60	0x3ed38451	0.41311887
61	0x3e86c413	0.26321468
62	0x3e276b18	0.16349447
63	0x3f520376	0.8203653

features.3.weight_fake_quant.scale f4 [192]
0	0x3b45241e	0.0030081342
1	0x3b87f404	0.004148962
2	0x3b2b92e3	0.002618008
3	0x3b310270	0.002700951
4	0x3af02f34	0.0018324615
5	0x3b2d490c	0.0026441244
6	0x3b8ab0e2	0.004232512
7	0x3ae64e9b	0.0017571034
8	0x3b1b0d1b	0.0023658935
9	0x3bbc0a86	0.005738559
10	0x3ac43bb1	0.0014971403
11	0x3c8f15d2	0.01746646
12	0x3b27ca67	0.002560282
13	0x3b19d125	0.0023470607
14	0x3b352f84	0.002764673
15	0x3b0cd77a	0.0021490739
16	0x3ac2d882	0.001486555
17	0x3b026c43	0.0019900955
18	0x3a702305	0.0009160492
19	0x3b4d5415	0.0031330634
20	0x3ac17230	0.0014758762
21	0x3b2e1b2a	0.0026566484
22	0x3bdaac7f	0.006673395
23	0x3b32c66a	0.0027278909
24	0x3abb4cdc	0.0014289874
25	0x3b0fc329	0.0021936393
26	0x3b0a3044	0.0021085897
27	0x3b2707c2	0.0025486802
28	0x3a982b94	0.0011609667
29	0x3b38aff9	0.002818106
30	0x3b1ee7c8	0.002424704
31	0x3b0d79ad	0.0021587417
32	0x3ad49577	0.001621886
33	0x3b0ccf16	0.0021485738
34	0x3b22c8fb	0.0024839032
35	0x3b3b9e11	0.002862815
36	0x3ab5167d	0.0013815906
37	0x3b5d74cb	0.0033791538
38	0x3a9724b9	0.001153133
39	0x3ac4959e	0.0014998203
40	0x3bb8d440	0.0056405365
41	0x3b2a2d7c	0.0025967052
42	0x3b52bc96	0.0032155863
43	0x3b5fde1c	0.0034159487
44	0x3aecac55	0.001805673
45	0x3aa4d9d5	0.0012577126
46	0x3b655058	0.0034990516
47	0x3b2235da	0.0024751336
48	0x3b8e5d48	0.004344616
49	0x3b4c8d7d	0.0031212263
50	0x3b251b8c	0.0025193421
51	0x3ace4585	0.0015737271
52	0x3b6e1e19	0.0036333858
53	0x3aa7c8a2	0.0012800882
54	0x3b75119f	0.0037394536
55	0x3b0a5099	0.002110517
56	0x3b2bb0bb	0.002619787
57	0x3a7fcc2c	0.0009757902
58	0x3b466b39	0.0030276312
59	0x3ac4d6fd	0.0015017685
60	0x3b9373fd	0.004499911
61	0x3b47357f	0.0030396876
62	0x3b017c7b	0.0019758034
63	0x3a973ce9	0.0011538538
64	0x3b1f007d	0.0024261766
65	0x3b66f678	0.0035242122
66	0x3b4260a7	0.002965966
67	0x3b3668d3	0.0027833476
68	0x3b2c27fd	0.0026268952
69	0x3b78a37d	0.0037939243
70	0x3b50d97a	0.0031867907
71	0x3b320cb1	0.002716821
72	0x3b028875	0.001991776
73	0x3ac8a8d4	0.0015309104
74	0x3b082bbe	0.0020778026
75	0x3ad53bac	0.0016268394
76	0x3bbf3036	0.0058346046
77	0x3aff94c8	0.0019499296
78	0x3ab00327	0.0013428674
79	0x3aa5990a	0.001263411
80	0x3af2e8f4	0.001853256
81	0x3b27cefb	0.0025605548
82	0x3ae37e69	0.0017356399
83	0x3bd662d9	0.0065425453
84	0x3aed3ebf	0.0018100365
85	0x3b32296b	0.0027185332
86	0x3b87fa78	0.0041497312
87	0x3ac6acc2	0.0015157687
88	0x3b105a81	0.00220266
89	0x3aac0251	0.0013123249
90	0x3b21c1cf	0.002468217
91	0x3b726e18	0.003699189
92	0x3b4c1532	0.0031140563
93	0x3b336cf9	0.0027378185
94	0x3bafccbc	0.0053649824
95	0x3b54edec	0.0032490445
96	0x3b1b316f	0.0023680588
97	0x3ade6c3c	0.0016969512
98	0x3b778271	0.0037766958
99	0x3ad74f02	0.0016426744
100	0x3b23e727	0.0025009604
101	0x3b4af5c9	0.0030969253
102	0x3b36429f	0.0027810705
103	0x3adb98b6	0.0016753885
104	0x3b6edca7	0.0036447437
105	0x3acad52f	0.0015474911
106	0x3b381f02	0.0028094654
107	0x3bb85afb	0.00562608
108	0x3b76220a	0.003755691
109	0x3aab921a	0.0013089806
110	0x3b1f9605	0.0024350893
111	0x3b061012	0.0020456356
112	0x3b8b13ed	0.0042443187
113	0x3b20aafb	0.0024515975
114	0x3b76f085	0.0037679982
115	0x3b04f4bf	0.0020287482
116	0x3b57070a	0.0032810592
117	0x3b12ef4b	0.0022420462
118	0x3adc1ac6	0.0016792647
119	0x3b44d24d	0.0030032576
120	0x3b38dd90	0.0028208233
121	0x3aaaab2b	0.0013020983
122	0x3b63962b	0.0034726958
123	0x3aea28a1	0.0017864892
124	0x3abc6236	0.0014372531
125	0x3b2adc62	0.00260713
126	0x3aa1d947	0.0012348079
127	0x3b3c4750	0.002872903
128	0x3b063020	0.0020475462
129	0x3af43c60	0.0018633716
130	0x3b00af5a	0.0019635768
131	0x3b13a0bf	0.0022526232
132	0x3a93abcd	0.0011266411
133	0x3add653a	0.001689113
134	0x3b251267	0.002518797
135	0x3b756efc	0.0037450185
136	0x3b698f3f	0.003563836
137	0x3b0b1d52	0.0021227193
138	0x3b3888f4	0.0028157802
139	0x3a9717b3	0.0011527449
140	0x3b338f4b	0.0027398642
141	0x3b80e523	0.003933565
142	0x3ac90874	0.0015337602
143	0x3acdac0e	0.0015691535
144	0x3aa5bd5a	0.0012644932
145	0x3ac81266	0.0015264272
146	0x3b6f9faa	0.0036563673
147	0x3b36a16e	0.0027867216
148	0x3afa7b26	0.0019110187
149	0x3af9d0f4	0.0019059465
150	0x3b1c76ed	0.0023874596
151	0x3ac083e9	0.001468775
152	0x3b0f9003	0.0021905906
153	0x3b50c865	0.0031857726
154	0x3b699428	0.0035641287
155	0x3b4a31ea	0.0030852505
156	0x3ae5ddb8	0.0017537391
157	0x3b26f5df	0.002547614
158	0x3b86b596	0.004111002
159	0x3b7079f5	0.0036693786
160	0x3ae85463	0.0017725345
161	0x3b5d64de	0.0033782045
162	0x3b0b3fd7	0.0021247768
163	0x3b429163	0.0029688708
164	0x3aded8a1	0.0017001816
165	0x3a6de0a4	0.00090743066
166	0x3b026224	0.0019894922
167	0x3b44393c	0.002994134
168	0x3b476dc2	0.003043041
169	0x3b67372b	0.0035280685
170	0x3b429986	0.0029693558
171	0x3ace2873	0.0015728608
172	0x3b03f1b6	0.0020133085
173	0x3a8b35eb	0.0010620927
174	0x3a98437f	0.0011616795
175	0x3b094e22	0.0020951112
176	0x3b21d1ad	0.0024691627
177	0x3af10219	0.0018387466
178	0x3ad03fd2	0.001588816
179	0x3abf987b	0.0014617586
180	0x3c813a40	0.015774846
181	0x3a7dc010	0.00096798036
182	0x3b338d7f	0.002739757
183	0x3ad3eda0	0.001616884
184	0x3b1524f7	0.0022757628
185	0x3a9934ca	0.0011688706
186	0x3b2e25a4	0.0026572729
187	0x3acb1c29	0.0015496063
188	0x3b614045	0.0034370583
189	0x3b085ea3	0.002080836
190	0x3b12cfc8	0.002240168
191	0x3b0eb525	0.002177545

features.3.weight_fake_quant.activation_post_process.min_vals f4 [192]
0	0xbe8c0b47	-0.27352354
1	0xbee1ba0b	-0.44087252
2	0xbe2e75c9	-0.17037119
3	0xbeb0516e	-0.34437126
4	0xbe6f3f05	-0.23363884
5	0xbeac9bc3	-0.33712587
6	0xbe5bfb6a	-0.21482626
7	0xbe331f2b	-0.17492358
8	0xbe9a720e	-0.30165142
9	0xbf3b4e7b	-0.73166627
10	0xbe437775	-0.19088538
11	0xbedc849e	-0.4306993
12	0xbe8aee73	-0.27135047
13	0xbe993754	-0.29925025
14	0xbeb47a54	-0.3524958
15	0xbe8c4aa3	-0.27400693
16	0xbe32d375	-0.17463477
17	0xbe81e9d7	-0.25373718
18	0xbdef32e2	-0.11679627
19	0xbecc86c1	-0.3994656
20	0xbe1c1ef1	-0.15246178
21	0xbe89255c	-0.26786315
22	0xbe97308f	-0.29529235
23	0xbeb213a4	-0.3478061
24	0xbe1a42de	-0.1506457
25	0xbe8f3366	-0.279689
26	0xbdfaec6a	-0.12252124
27	0xbea660ba	-0.32495672
28	0xbdeaa7ba	-0.114577726
29	0xbe7eaeae	-0.24871323
30	0xbe96cb5e	-0.29452032
31	0xbe8cec33	-0.27523956
32	0xbe1cb105	-0.15301903
33	0xbe8c4247	-0.27394316
34	0xbea22632	-0.31669766
35	0xbe7b8618	-0.24562871
36	0xbe346167	-0.17615281
37	0xbea1c967	-0.3159897
38	0xbe168d94	-0.14702445
39	0xbe43d108	-0.19122708
40	0xbee87f7a	-0.45409757
41	0xbea93be9	-0.3305352
42	0xbe95363f	-0.2914295
43	0xbeb9a9cd	-0.3626236
44	0xbe6bbfa9	-0.23022331
45	0xbe2434fb	-0.16035835
46	0xbee46b08	-0.44612908
47	0xbea193a4	-0.31557953
48	0xbe31c18e	-0.17358992
49	0xbeac1136	-0.3360688
50	0xbea47670	-0.3212161
51	0xbe4d773f	-0.2006502
52	0xbe6a9e76	-0.2291201
53	0xbe2720d9	-0.16321124
54	0xbe986625	-0.2976543
55	0xbe89c648	-0.2690909
56	0xbeab050a	-0.33402282
57	0xbdfecc60	-0.12441325
58	0xbeb361b5	-0.35035482
59	0xbe2ed6ce	-0.17074129
60	0xbf12e089	-0.57373863
61	0xbec66e4a	-0.3875602
62	0xbe80faff	-0.25191495
63	0xbe16a5ac	-0.14711636
64	0xbe9e617d	-0.30933753
65	0xbed9089d	-0.42389384
66	0xbe6d1435	-0.2315224
67	0xbeb5b26a	-0.35487682
68	0xbeab7bd5	-0.33492914
69	0xbeaab3a4	-0.3334018
70	0xbeca1d66	-0.39475554
71	0xbe9189d5	-0.2842547
72	0xbe54ebc5	-0.20793064
73	0xbe47e02b	-0.19519107
74	0xbe52bbfd	-0.20579524
75	0xbe546670	-0.20742202
76	0xbf3e7106	-0.7439121
77	0xbe7e9533	-0.24861602
78	0xbe25f522	-0.16206792
79	0xbe24f371	-0.1610849
80	0xbe4a69e8	-0.19766963
81	0xbea7272c	-0.32647073
82	0xbe629aeb	-0.22129409
83	0xbf558c76	-0.8341745
84	0xbe6c5180	-0.23077965
85	0xbeac8087	-0.3369181
86	0xbf07727e	-0.52909076
87	0xbe20ce3f	-0.15703677
88	0xbe8cc279	-0.2749212
89	0xbe17553a	-0.14778605
90	0xbea1200d	-0.31469765
91	0xbe7fc771	-0.24978425
92	0xbecb491d	-0.39704219
93	0xbe53c21a	-0.20679513
94	0xbeccc9ca	-0.39997703
95	0xbed418fe	-0.41425318
96	0xbe983655	-0.29728952
97	0xbe5d8dd0	-0.21636128
98	0xbe93ad7c	-0.28843296
99	0xbe351fb6	-0.17687878
100	0xbe814c87	-0.25253698
101	0xbeca2ad3	-0.39485797
102	0xbe35b61d	-0.17745252
103	0xbe5abd1d	-0.21361203
104	0xbeededca	-0.4647048
105	0xbe4a0a5a	-0.19730511
106	0xbeb766e3	-0.35820684
107	0xbf0ac933	-0.54213256
108	0xbef52be8	-0.4788506
109	0xbe2ae688	-0.16689503
110	0xbe17d0de	-0.1482577
111	0xbe6c772e	-0.23092338
112	0xbe2ff472	-0.17183092
113	0xbea00a50	-0.31257868
114	0xbeb2fdaa	-0.34959155
115	0xbe846fca	-0.25866538
116	0xbec5a1bc	-0.38599956
117	0xbe925c5c	-0.2858609
118	0xbe1b4c17	-0.15165745
119	0xbe8770b9	-0.26453188
120	0xbe68710f	-0.22699378
121	0xbdffd5cb	-0.1249195
122	0xbee2b295	-0.44276872
123	0xbe693e78	-0.22777736
124	0xbe3ba5d4	-0.18324977
125	0xbeaa3186	-0.33240908
126	0xbe21376e	-0.15743801
127	0xbe661915	-0.22470506
128	0xbe85a9f0	-0.26106215
129	0xbe734824	-0.23757988
130	0xbe802eab	-0.25035605
131	0xbe930d1e	-0.28720945
132	0xbe131821	-0.14364673
133	0xbe4e57aa	-0.20150629
134	0xbea46d55	-0.32114664
135	0xbea1c708	-0.3159716
136	0xbe9dbee9	-0.30809715
137	0xbe8a9235	-0.27064672
138	0xbeb7d06b	-0.35901198
139	0xbdf8b23d	-0.12143371
140	0xbea47b26	-0.32125205
141	0xbed89b6e	-0.42306083
142	0xbe483f6c	-0.19555444
143	0xbe11e570	-0.1424768
144	0xbe25179d	-0.16122289
145	0xbe474a54	-0.19461948
146	0xbe75cabf	-0.24003123
147	0xbeb5eacd	-0.355307
148	0xbe7980ab	-0.24365489
149	0xbe34cf2c	-0.17657155
150	0xbe905443	-0.28189287
151	0xbe3fc365	-0.18726881
152	0xbe8f0073	-0.2793003
153	0xbebc7c6d	-0.3681368
154	0xbee8aa94	-0.4544264
155	0xbe8cec39	-0.27523974
156	0xbe64f7da	-0.22360173
157	0xbe74478c	-0.23855418
158	0xbea8020f	-0.3281407
159	0xbea48e03	-0.32139596
160	0xbe676c0f	-0.22599815
161	0xbedc8779	-0.43072107
162	0xbe8ab497	-0.27090904
163	0xbec1ced2	-0.37853104
164	0xbe4d9ce3	-0.20079379
165	0xbddbaed4	-0.10726705
166	0xbe81dfc2	-0.25366026
167	0xbec37503	-0.3817521
168	0xbeb1eb29	-0.34749725
169	0xbe5d19b5	-0.21591838
170	0xbec1d6ec	-0.37859285
171	0xbe1808c5	-0.14847095
172	0xbe51aad1	-0.20475318
173	0xbe0aaab5	-0.13541682
174	0xbda76a51	-0.08174575
175	0xbe88c4d4	-0.26712668
176	0xbea12fdb	-0.31481823
177	0xbe701117	-0.2344402
178	0xbe2fd5d2	-0.1717141
179	0xbe3ed8e3	-0.18637423
180	0xbf3d68f6	-0.7398828
181	0xbdfcc250	-0.1234175
182	0xbeb2d9f2	-0.34931904
183	0xbe18b814	-0.1491397
184	0xbe8bd645	-0.27311912
185	0xbe189b95	-0.149031
186	0xbead777e	-0.33880228
187	0xbe4a510d	-0.19757481
188	0xbee05f05	-0.43822494
189	0xbe3bc9a0	-0.18338633
190	0xbe923cf8	-0.2856214
191	0xbe661a2a	-0.22470918

features.3.weight_fake_quant.activation_post_process.max_vals f4 [192]
0	0x3ec45efa	0.3835371
1	0x3f076c10	0.52899265
2	0x3eaae750	0.33379602
3	0x3e1c3fad	0.15258665
4	0x3e06a556	0.13149008
5	0x3e569c6e	0.2095811
6	0x3f0a2631	0.53964525
7	0x3e65684c	0.22403067
8	0x3e95c830	0.29254293
9	0x3eb79429	0.35855225
10	0x3e2c4125	0.16821726
11	0x400e86bc	2.2269735
12	0x3ea7229d	0.32643595
13	0x3e4bff95	0.19921716
14	0x3e0db15e	0.13837191
15	0x3e6d1cb0	0.23155475
16	0x3e4215a9	0.18953575
17	0x3e127ebf	0.14306162
18	0x3de8ee06	0.11373524
19	0x3e977326	0.2958004
20	0x3e40b0be	0.18817422
21	0x3ead6d0f	0.33872268
22	0x3f59d1d3	0.8508579
23	0x3e927fbb	0.28613076
24	0x3e3a918f	0.18219589
25	0x3e7bd040	0.2459116
26	0x3e89a614	0.2688452
27	0x3e922188	0.28541207
28	0x3e179368	0.14802325
29	0x3eb7f749	0.3593085
30	0x3e9e48e0	0.30914974
31	0x3e89fcd1	0.26950696
32	0x3e53c0e2	0.20679048
33	0x3e8652e5	0.26235119
34	0x3e5aca8f	0.21366332
35	0x3ebae273	0.36500892
36	0x3e186d06	0.14885339
37	0x3edc9756	0.4308421
38	0x3e03c72c	0.12868947
39	0x3de1f5f8	0.11033243
40	0x3f381b6c	0.7191684
41	0x3ea9834f	0.33107993
42	0x3ed1e9d9	0.40998724
43	0x3edefe3e	0.43553346
44	0x3e442ea2	0.19158414
45	0x3dd5dfa8	0.1044305
46	0x3e8b22c2	0.27174956
47	0x3e734652	0.23757294
48	0x3f0dceeb	0.55393857
49	0x3ecbc0f0	0.39795637
50	0x3e75dfda	0.24011174
51	0x3e2a144f	0.1660931
52	0x3eed2ffb	0.4632567
53	0x3de9c2d5	0.114141144
54	0x3ef41c8d	0.47678033
55	0x3de8c929	0.11366493
56	0x3e0b52ae	0.13605759
57	0x3debe4f0	0.11518276
58	0x3ec5a4ce	0.38602298
59	0x3e441226	0.19147548
60	0x3ee69dd7	0.45042297
61	0x3e19e25a	0.15027753
62	0x3e20a308	0.15687191
63	0x3dd423a4	0.103583604
64	0x3e0bea0c	0.136635
65	0x3ee60f82	0.44933707
66	0x3ec19e46	0.37816066
67	0x3e440761	0.1914344
68	0x3e749336	0.23884282
69	0x3ef7aada	0.48372537
70	0x3ed008a1	0.40631583
71	0x3eb15aa4	0.34639466
72	0x3e8205ed	0.25395146
73	0x3e00e7b7	0.12588392
74	0x3e87a392	0.26491982
75	0x3e48e7bc	0.1961965
76	0x3e77f81c	0.2421574
77	0x3e718b48	0.23588288
78	0x3e2f5324	0.1712156
79	0x3e212efb	0.15740578
80	0x3e71f60b	0.23629014
81	0x3e63cede	0.22246882
82	0x3e238445	0.15968426
83	0x3e87b7f8	0.26507545
84	0x3e683ecc	0.22680205
85	0x3eb17742	0.346613
86	0x3e175b16	0.1478084
87	0x3e45e615	0.1932605
88	0x3e8fca26	0.28083915
89	0x3e2b564f	0.16732143
90	0x3e91d15e	0.28480047
91	0x3ef17baa	0.4716466
92	0x3e43cb32	0.19120482
93	0x3eb2b98c	0.34907186
94	0x3f2f1cef	0.68403524
95	0x3e57c0fe	0.21069714
96	0x3e9a963e	0.3019275
97	0x3e129cd0	0.14317632
98	0x3ef68aef	0.48152873
99	0x3e5677b3	0.20944099
100	0x3ea34340	0.31887245
101	0x3e949feb	0.29028258
102	0x3eb58c5c	0.35458648
103	0x3e1413f7	0.14460741
104	0x3ea02f77	0.31286213
105	0x3e023d44	0.12718683
106	0x3e748337	0.2387818
107	0x3f37a2a0	0.7173252
108	0x3e2ab880	0.16671944
109	0x3dd087a2	0.1018212
110	0x3e9ef66f	0.3104739
111	0x3e858a02	0.26081854
112	0x3f0a88d9	0.5411506
113	0x3e803082	0.2503701
114	0x3ef5f994	0.48041975
115	0x3e08a48e	0.13344023
116	0x3ed63003	0.41833505
117	0x3e8d6f91	0.2762418
118	0x3e5b3eab	0.21410625
119	0x3ec40d7b	0.38291535
120	0x3eb824b2	0.35965496
121	0x3e2a0080	0.16601753
122	0x3e22fcb2	0.15916708
123	0x3e117a03	0.142067
124	0x3e2882bc	0.16456121
125	0x3e83155b	0.2560223
126	0x3e0f9b67	0.14024125
127	0x3ebb8b09	0.36629513
128	0x3e0d471b	0.13796656
129	0x3e2f8f8e	0.17144606
130	0x3e260bde	0.16215464
131	0x3e852457	0.26004288
132	0x3de4093a	0.11134572
133	0x3e5c87d5	0.21536191
134	0x3e53ca0e	0.20682546
135	0x3ef4798d	0.47748986
136	0x3ee8a5b0	0.4543891
137	0x3e481d65	0.19542463
138	0x3e2ed8ed	0.17074938
139	0x3e16809b	0.14697497
140	0x3eb2dbbc	0.3493327
141	0x3f00643e	0.5015296
142	0x3e2f8f27	0.17144452
143	0x3e4cde62	0.20006707
144	0x3e246b7b	0.16056626
145	0x3e2968f0	0.16543937
146	0x3eeeb00a	0.46618682
147	0x3e7b9e36	0.24572071
148	0x3e196af1	0.14982201
149	0x3e78d723	0.24300818
150	0x3e9bda76	0.3044011
151	0x3e12ebb5	0.14347728
152	0x3e64abab	0.22331111
153	0x3ecff79d	0.406186
154	0x3eb6cbf8	0.3570249
155	0x3ec967b8	0.39336944
156	0x3e15530b	0.1458246
157	0x3ea64ee9	0.3248208
158	0x3f062ee0	0.52415276
159	0x3eef897b	0.46784577
160	0x3e2d4d71	0.16924073
161	0x3eb48ceb	0.35263762
162	0x3e42f897	0.19040142
163	0x3e978af8	0.29598212
164	0x3e5df9c8	0.21677315
165	0x3decf2c3	0.115697406
166	0x3e4210ba	0.18951693
167	0x3eb7d1d8	0.35902286
168	0x3ec6a654	0.38798773
169	0x3ee64ff4	0.44982874
170	0x3e727291	0.23676516
171	0x3e4d5a4b	0.20053975
172	0x3e836dc4	0.25669682
173	0x3dc43e4e	0.09582196
174	0x3e17ab3c	0.14811414
175	0x3e1de557	0.15419517
176	0x3e880f1e	0.26574033
177	0x3e58699f	0.21134041
178	0x3e4f6f92	0.20257404
179	0x3e016645	0.12636669
180	0x4000b906	2.011293
181	0x3dfba562	0.12287404
182	0x3eb0ae2b	0.3450788
183	0x3e5319b2	0.2061527
184	0x3e948fd2	0.29015976
185	0x3e0f141b	0.13972513
186	0x3e484ded	0.19560976
187	0x3dfa03a6	0.12207727
188	0x3e813b28	0.25240445
189	0x3e87d644	0.2653066
190	0x3e591bfa	0.21202078
191	0x3e8e2670	0.277637

features.6.weight_fake_quant.scale f4 [384]
0	0x3a8f0b3e	0.0010913385
1	0x3b04cf7d	0.0020265274
2	0x3ae553ff	0.0017496346
3	0x3aae3228	0.0013290094
4	0x3a9da140	0.0012026206
5	0x3abe3560	0.0014511757
6	0x3affef92	0.0019526354
7	0x3b0ac307	0.0021173374
8	0x3b23d3e0	0.0024998114
9	0x3b20c2d4	0.002453019
10	0x3a97f377	0.0011592944
11	0x3aae8076	0.0013313431
12	0x3abaed11	0.0014261325
13	0x3aa439b7	0.0012529407
14	0x3ae79943	0.0017669577
15	0x3af5b6de	0.0018746515
16	0x3b16564e	0.0022939625
17	0x3ac2beaa	0.0014857848
18	0x3b3ad84e	0.0028510275
19	0x3a49fd83	0.00077053177
20	0x3ad55a0b	0.0016277445
21	0x3a9a2811	0.0011761208
22	0x3aea9017	0.0017895725
23	0x3ae6da53	0.0017612673
24	0x3a90cf31	0.0011048076
25	0x3ad8437f	0.0016499608
26	0x3aba6cb6	0.0014223072
27	0x3ae0fdd8	0.0017165495
28	0x3a8ce49e	0.0010749286
29	0x3a9db1d9	0.0012031152
30	0x3aaa8f18	0.0013012616
31	0x3acbd069	0.0015549782
32	0x3a7f89ff	0.0009748041
33	0x3ad19e01	0.0015992523
34	0x3aeb39f7	0.0017946352
35	0x3ac0976d	0.0014693566
36	0x3ad6da3b	0.0016391942
37	0x3b0d6ed5	0.0021580954
38	0x3b9cd267	0.004785824
39	0x3aa8edf3	0.0012888297
40	0x3a680913	0.000885145
41	0x3ae84979	0.0017722092
42	0x3aabba0e	0.0013101713
43	0x3a9c94d3	0.0011946209
44	0x3b0c8c64	0.0021445984
45	0x3aa96895	0.0012924845
46	0x3a92c956	0.0011198919
47	0x3a912807	0.0011074551
48	0x3ac7a51b	0.00152317
49	0x3af44a21	0.0018637815
50	0x3bdbe5cc	0.0067107435
51	0x3b30d542	0.002698258
52	0x3ad05e8c	0.0015897318
53	0x3aa76699	0.0012771665
54	0x3ac4002b	0.0014953663
55	0x3a848a82	0.0010112079
56	0x3bac7d04	0.0052639265
57	0x3b0bc2bf	0.0021325795
58	0x3ab93914	0.001413139
59	0x3ab2fd02	0.0013655724
60	0x3a9d01a3	0.0011978637
61	0x3b0d3d5c	0.0021551466
62	0x3a81d5d5	0.0009905646
63	0x3af71b41	0.0018852727
64	0x3afbbbdd	0.0019205768
65	0x3ad89794	0.0016524666
66	0x3a820b07	0.0009921499
67	0x3b0e8f91	0.0021753053
68	0x3b892881	0.0041857366
69	0x3ae24806	0.0017263896
70	0x3b19b263	0.0023452274
71	0x3a5edba3	0.00085013564
72	0x3aaed8bf	0.0013339742
73	0x3ac8fceb	0.0015334164
74	0x3adfcb9e	0.0017074232
75	0x3adbb177	0.0016761263
76	0x3a93596c	0.001124186
77	0x3aee6af5	0.0018189835
78	0x3afdc57c	0.0019361223
79	0x3a837c0e	0.0010031478
80	0x3af1dead	0.0018453203
81	0x3a6a62b5	0.00089411
82	0x3a9f3810	0.0012147445
83	0x3acea3b9	0.0015765346
84	0x3a8b3566	0.0010620772
85	0x3ab8de46	0.0014104329
86	0x3a88984c	0.0010421365
87	0x3aa94e07	0.0012916931
88	0x3b09d4e4	0.0021031434
89	0x3ac59625	0.0015074654
90	0x3ac526f8	0.0015041521
91	0x3af09af1	0.0018356723
92	0x3ada3c0c	0.0016649975
93	0x3b1220a2	0.0022297283
94	0x3a89e099	0.0010519206
95	0x3b024b01	0.0019881132
96	0x3a939950	0.0011260901
97	0x3ad00fd7	0.0015873861
98	0x3a7964f9	0.0009513642
99	0x3a9b333e	0.0011840833
100	0x3afc54a9	0.0019251305
101	0x3ae05890	0.0017116237
102	0x3ad59689	0.0016295473
103	0x3a8ea5fd	0.0010883209
104	0x3a87fcfb	0.0010375077
105	0x3a9d2ba5	0.0011991156
106	0x3abf9b43	0.0014618415
107	0x3aa1067e	0.001228526
108	0x3ae54c34	0.0017494024
109	0x3aaeb52d	0.0013329141
110	0x3a71e0bd	0.0009226909
111	0x3a96220d	0.001145424
112	0x3b099a4a	0.0020996504
113	0x3abb495a	0.0014288828
114	0x3af0ffc9	0.0018386777
115	0x3ab9d684	0.001417831
116	0x3adc17ef	0.0016791801
117	0x3aaad902	0.0013034644
118	0x3aff9acc	0.0019501089
119	0x3ada8b9e	0.0016673689
120	0x3ab30fa9	0.0013661283
121	0x3a96b934	0.0011499287
122	0x3a8e7672	0.001086904
123	0x3ab35482	0.0013681802
124	0x3afe525e	0.001940321
125	0x3ac106e7	0.0014726789
126	0x3a90482a	0.0011007835
127	0x3ae8a7e2	0.0017750228
128	0x3a93f750	0.0011288915
129	0x3aab3a6b	0.0013063675
130	0x3af350c8	0.0018563503
131	0x3b123bab	0.0022313397
132	0x3a994176	0.0011692483
133	0x3ac58a05	0.001507104
134	0x3aa22a53	0.0012372233
135	0x3af91f6b	0.0019006556
136	0x3b169891	0.002297912
137	0x3b1791a5	0.0023127582
138	0x3add8aed	0.0016902365
139	0x3ab10a60	0.001350712
140	0x3ad8c8ed	0.0016539373
141	0x3aa90a38	0.0012896722
142	0x3b0111e6	0.0019694506
143	0x3b52ae92	0.003214751
144	0x3b8cc154	0.0042955074
145	0x3a959754	0.0011412897
146	0x3a89ae64	0.0010504243
147	0x3aa5bf72	0.0012645556
148	0x3b24883f	0.0025105623
149	0x3b6cf569	0.0036157018
150	0x3acce790	0.0015632976
151	0x3a978018	0.0011558561
152	0x3b0c38e8	0.0021396223
153	0x3a928337	0.0011178021
154	0x3b8f6613	0.004376182
155	0x3a85badc	0.0010202783
156	0x3af25f82	0.0018491598
157	0x3aa59331	0.0012632367
158	0x3a9909f8	0.0011675945
159	0x3b04407c	0.0020180037
160	0x3acb2b5a	0.0015500591
161	0x3ab28393	0.0013619534
162	0x3b25d86a	0.0025305995
163	0x3a8f6065	0.0010938762
164	0x3aa1c857	0.0012343031
165	0x3aad0a99	0.0013202011
166	0x3a826214	0.0009947442
167	0x3abd8c93	0.001446145
168	0x3ac42946	0.0014965914
169	0x3ac1ceab	0.0014786323
170	0x3aa9f8b8	0.0012967801
171	0x3b1ea467	0.0024206878
172	0x3aa57a20	0.0012624897
173	0x3af02e3b	0.0018324325
174	0x3b6b2f6a	0.0035886415
175	0x3aa94f65	0.0012917338
176	0x3aac977a	0.0013167702
177	0x3af3e131	0.0018606541
178	0x3a85cfbc	0.0010209004
179	0x3ab6a6d5	0.0013935218
180	0x3a8b1fc9	0.0010614331
181	0x3ae9755e	0.0017811467
182	0x3ab56cf8	0.0013841679
183	0x3b305722	0.0026907404
184	0x3b029fdd	0.0019931712
185	0x3abcefa6	0.0014414683
186	0x3b594650	0.0033153482
187	0x3ad9a7ef	0.0016605834
188	0x3ab882a4	0.001407702
189	0x3b142cea	0.0022609779
190	0x3b606a4c	0.0034243045
191	0x3ae01a11	0.0017097612
192	0x3ae9ad44	0.0017828126
193	0x3a9ccaa4	0.0011962247
194	0x3b386c41	0.0028140696
195	0x3b3f0b69	0.0029151088
196	0x3a8d92e2	0.0010801221
197	0x3a88e6b5	0.0010444733
198	0x3b21cf64	0.0024690265
199	0x3ab1fb50	0.0013578925
200	0x3a7c61cb	0.00096276094
201	0x3aa1374b	0.0012299804
202	0x3a9eb8d8	0.0012109531
203	0x3aa19704	0.0012328331
204	0x3b07fbea	0.0020749518
205	0x3a9b5107	0.001184971
206	0x3af6d259	0.0018830999
207	0x3abc3fd7	0.0014362287
208	0x3a9bbbdb	0.0011881547
209	0x3aa715cc	0.0012747585
210	0x3b2a33df	0.002597086
211	0x3ad05836	0.001589543
212	0x3b231473	0.0024884015
213	0x3b84c717	0.0040520537
214	0x3b06aa18	0.002054816
215	0x3ad25ccf	0.0016049388
216	0x3aac2848	0.0013134563
217	0x3ab002a9	0.0013428527
218	0x3b3bd76b	0.0028662335
219	0x3a6f3a22	0.0009125789
220	0x3ab2f16c	0.0013652272
221	0x3ab55c09	0.0013836633
222	0x3a9c7d73	0.0011939242
223	0x3aa4dfda	0.001257892
224	0x3a9a81cc	0.001178795
225	0x3af5cea4	0.00187536
226	0x3ab1f541	0.001357712
227	0x3b1c5278	0.0023852866
228	0x3b1ae546	0.0023635193
229	0x3aa49db2	0.0012559204
230	0x3a987a4b	0.0011633126
231	0x3b14598a	0.0022636377
232	0x3b027109	0.00199038
233	0x3b370092	0.0027923924
234	0x3a9ae0e5	0.0011816291
235	0x3aae2951	0.001328746
236	0x3a8789df	0.0010340771
237	0x3a6c2814	0.00090086577
238	0x3ae3996e	0.0017364451
239	0x3b772f09	0.0037717244
240	0x3abc8166	0.0014381825
241	0x3af24269	0.0018482927
242	0x3af235e9	0.0018479201
243	0x3ad6d37a	0.0016389929
244	0x3b7dd92a	0.0038734176
245	0x3ab41ea6	0.0013742044
246	0x3a942ebc	0.0011305432
247	0x3ae0bd45	0.001714625
248	0x3b2b1fe8	0.0026111547
249	0x3a79dc33	0.00095314084
250	0x3ab7fa9b	0.0014036478
251	0x3a95ab43	0.0011418838
252	0x3ac8ae11	0.0015310665
253	0x3a7cd347	0.000964452
254	0x3a90f2ea	0.0011058722
255	0x3acc8115	0.0015602434

features.6.weight_fake_quant.activation_post_process.min_vals f4 [384]
0	0xbe0e7c33	-0.13914566
1	0xbe207fd8	-0.15673769
2	0xbe646eab	-0.22307841
3	0xbe2d83f6	-0.1694487
4	0xbe1d039f	-0.15333413
5	0xbe2de5a5	-0.16982134
6	0xbe6a884e	-0.22903559
7	0xbe38d4f2	-0.18049982
8	0xbe15b074	-0.14618093
9	0xbe69f923	-0.22848944
10	0xbe02119d	-0.12702031
11	0xbe2dd1f6	-0.16974625
12	0xbde0c113	-0.10974326
13	0xbe23957d	-0.15974994
14	0xbe064035	-0.1311043
15	0xbe0f5991	-0.1399901
16	0xbe95bff8	-0.29248023
17	0xbe3e8d14	-0.18608505
18	0xbe999a43	-0.30000505
19	0xbdc684b9	-0.096932836
20	0xbe5484b1	-0.20753743
21	0xbe198de9	-0.1499554
22	0xbe63c195	-0.22241814
23	0xbe53347c	-0.2062549
24	0xbe103e62	-0.14086297
25	0xbe576b3c	-0.21037
26	0xbe39b249	-0.18134417
27	0xbe5aa07e	-0.21350285
28	0xbe0c57b9	-0.13705339
29	0xbde42d68	-0.11141473
30	0xbe29e489	-0.16591085
31	0xbe4b0499	-0.19825973
32	0xbdd1b6a4	-0.10239914
33	0xbe4e4ea3	-0.20147185
34	0xbe24718b	-0.16058938
35	0xbe1e0f0b	-0.15435426
36	0xbe3edd3f	-0.18639086
37	0xbe8ce166	-0.27515715
38	0xbe9f9ca9	-0.3117421
39	0xbe284505	-0.16432579
40	0xbdc96121	-0.09832979
41	0xbe676130	-0.22595668
42	0xbe2b0e54	-0.16704684
43	0xbe0d128a	-0.13776603
44	0xbe6eae77	-0.2330874
45	0xbde3cf91	-0.111235745
46	0xbe0346d9	-0.12819995
47	0xbe080eb9	-0.13286866
48	0xbe46dd76	-0.19420418
49	0xbe7355d7	-0.23763214
50	0xbf28ae67	-0.65891117
51	0xbe5af1e7	-0.21381341
52	0xbe190e4c	-0.1494686
53	0xbe26bf32	-0.16283873
54	0xbdece688	-0.11567408
55	0xbdf1ee25	-0.118130006
56	0xbf2bd087	-0.6711506
57	0xbe1d00c6	-0.15332326
58	0xbe387fdb	-0.18017523
59	0xbe324a05	-0.17411049
60	0xbe1c64a1	-0.15272762
61	0xbdda3c2d	-0.10656009
62	0xbe0153ff	-0.12629698
63	0xbe0b343c	-0.13594145
64	0xbde59527	-0.11210089
65	0xbdf155c4	-0.117839366
66	0xbdf58369	-0.11987955
67	0xbdf00338	-0.11719364
68	0xbe58df8c	-0.21179026
69	0xbe5ca681	-0.21547891
70	0xbe9918b1	-0.2990165
71	0xbdddfcc7	-0.10839229
72	0xbe196e20	-0.14983416
73	0xbe4002ad	-0.1875102
74	0xbe28979d	-0.16464086
75	0xbe5ad5c6	-0.2137061
76	0xbde89e4e	-0.11358319
77	0xbe317f51	-0.17333724
78	0xbe7cc7b7	-0.2468556
79	0xbdc9d425	-0.098549165
80	0xbe70ecce	-0.23527834
81	0xbde97852	-0.113999024
82	0xbe18a879	-0.14908017
83	0xbe44498c	-0.19168681
84	0xbe01b4dd	-0.1266665
85	0xbe382568	-0.1798302
86	0xbde9631a	-0.11395855
87	0xbe056729	-0.13027634
88	0xbe1a7b5a	-0.15086117
89	0xbe44d08f	-0.19220184
90	0xbe4461d1	-0.19177939
91	0xbe6faa56	-0.23404822
92	0xbe379478	-0.1792773
93	0xbe1548ed	-0.145786
94	0xbdd160bd	-0.102235295
95	0xbe81c8b6	-0.25348443
96	0xbe1305b7	-0.14357649
97	0xbe2227a1	-0.1583543
98	0xbddd0928	-0.10792762
99	0xbdce3e0b	-0.100704275
100	0xbe52ef9c	-0.20599216
101	0xbe5f7837	-0.21823202
102	0xbe54c0f2	-0.20776728
103	0xbe0e1757	-0.13876091
104	0xbde24809	-0.11048896
105	0xbe190a28	-0.1494528
106	0xbe3edba8	-0.1863848
107	0xbe0a7c55	-0.13523991
108	0xbdebdc91	-0.11516679
109	0xbe2aa531	-0.16664578
110	0xbdecb335	-0.115576185
111	0xbe056710	-0.13027596
112	0xbe4da7f3	-0.20083599
113	0xbdf80e41	-0.12112094
114	0xbe700ec9	-0.2344314
115	0xbe17342f	-0.14766
116	0xbe3475f5	-0.17623122
117	0xbe2a2e29	-0.16619171
118	0xbe12e30a	-0.14344421
119	0xbe2e5aa6	-0.17026767
120	0xbe0f785f	-0.14010762
121	0xbe16227b	-0.14661591
122	0xbe0de7fc	-0.13858026
123	0xbe1d8375	-0.15382178
124	0xbe521ffd	-0.20520015
125	0xbe4045e0	-0.18776655
126	0xbe0fb7e2	-0.1403499
127	0xbe67bf3a	-0.22631541
128	0xbe06e4cb	-0.13173215
129	0xbdce0227	-0.10059004
130	0xbe725d77	-0.23668467
131	0xbe91a96f	-0.2844958
132	0xbe18a835	-0.14907916
133	0xbe11861a	-0.14211312
134	0xbe149f1d	-0.14513822
135	0xbe4dc6b1	-0.20095326
136	0xbe8f1bc2	-0.27950865
137	0xbe85ba27	-0.26118585
138	0xbe5cad62	-0.21550515
139	0xbe0574bd	-0.13032813
140	0xbe57f024	-0.210877
141	0xbdf5c150	-0.11999762
142	0xbe8090d4	-0.25110495
143	0xbe091170	-0.13385558
144	0xbf0c3493	-0.5476772
145	0xbdf13022	-0.11776759
146	0xbe0924b6	-0.1339291
147	0xbe1668ce	-0.14688417
148	0xbe5b64ca	-0.21425167
149	0xbea071e0	-0.3133688
150	0xbe2f423f	-0.17115115
151	0xbe0be73b	-0.13662426
152	0xbe2269aa	-0.1586062
153	0xbe11f0b4	-0.14251977
154	0xbe94baa2	-0.2904864
155	0xbe053521	-0.13008548
156	0xbe716d22	-0.23576787
157	0xbe15e464	-0.14637905
158	0xbe1870ee	-0.1488683
159	0xbe83bc3c	-0.2572955
160	0xbe017010	-0.12640405
161	0xbe10da83	-0.14145856
162	0xbea53292	-0.32265145
163	0xbdd666be	-0.10468815
164	0xbe1c44f6	-0.15260682
165	0xbe161a08	-0.14658368
166	0xbdd92591	-0.10602868
167	0xbe3ccf06	-0.18438348
168	0xbe1f3b56	-0.15549979
169	0xbe410cdc	-0.18852562
170	0xbe294ebf	-0.16533946
171	0xbe4ce856	-0.20010504
172	0xbe24d4a6	-0.16096744
173	0xbe6f3e0d	-0.23363514
174	0xbeea443b	-0.4575518
175	0xbdc5d05a	-0.096588805
176	0xbe0764f4	-0.13222104
177	0xbe72ed50	-0.2372334
178	0xbdf9df30	-0.12200773
179	0xbe35f02e	-0.17767403
180	0xbdd5b25e	-0.104344115
181	0xbe58c9de	-0.21170756
182	0xbdf5bf86	-0.11999421
183	0xbe57dd61	-0.21080543
184	0xbe2f2ba4	-0.17106491
185	0xbde7dea0	-0.11321759
186	0xbed86d0a	-0.4227069
187	0xbe58ce47	-0.21172439
188	0xbdec8716	-0.11549203
189	0xbdf5c93b	-0.12001272
190	0xbead40ed	-0.33838597
191	0xbe5f39f7	-0.21799456
192	0xbe68c397	-0.22730862
193	0xbe0fb483	-0.14033704
194	0xbeb7b3d5	-0.35879388
195	0xbebe4c5e	-0.3716764
196	0xbddc88ad	-0.10768256
197	0xbe07f09c	-0.13275379
198	0xbe86baec	-0.26314485
199	0xbe314955	-0.1731313
200	0xbdd6ea5a	-0.10493918
201	0xbe03da53	-0.12876253
202	0xbe047869	-0.12936558
203	0xbe135172	-0.14386538
204	0xbe8773ee	-0.26455635
205	0xbdeb842e	-0.11499821
206	0xbe75db87	-0.24009524
207	0xbe108ee3	-0.14117007
208	0xbe1b201f	-0.15148972
209	0xbe266eb6	-0.1625317
210	0xbe7ddcb2	-0.2479122
211	0xbe1254e5	-0.14290197
212	0xbea2715f	-0.3172712
213	0xbe52c05b	-0.2058119
214	0xbe86236e	-0.26198906
215	0xbe44392d	-0.19162436
216	0xbe2b7c20	-0.16746569
217	0xbe2f52a6	-0.17121372
218	0xbe59ad90	-0.21257615
219	0xbdee4ae8	-0.11635381
220	0xbdfb99a7	-0.12285166
221	0xbe34a6ad	-0.17641707
222	0xbe1be0f6	-0.15222535
223	0xbe0194fa	-0.12654486
224	0xbddc6b84	-0.107626945
225	0xbe6a11a3	-0.2285829
226	0xbe05e420	-0.13075304
227	0xbe87f3b6	-0.26553124
228	0xbe9a4a61	-0.30134872
229	0xbe056237	-0.13025747
230	0xbdf6885a	-0.12037726
231	0xbe8b86ec	-0.27251375
232	0xbe81ee98	-0.25377345
233	0xbe996c41	-0.29965404
234	0xbe1a4604	-0.15065771
235	0xbe2d7b28	-0.16941512
236	0xbddde8fe	-0.10835455
237	0xbddb2219	-0.10699863
238	0xbe62b5d5	-0.22139676
239	0xbe74830f	-0.2387812
240	0xbe35b033	-0.17742996
241	0xbdf35979	-0.118823
242	0xbe3200dd	-0.17383142
243	0xbe55fca7	-0.2089716
244	0xbe9e1c2e	-0.30880874
245	0xbe336a87	-0.17521106
246	0xbe139a8d	-0.14414425
247	0xbe2a742f	-0.16645883
248	0xbeaa74c8	-0.33292222
249	0xbdf8e257	-0.12152546
250	0xbe1680ff	-0.14697646
251	0xbdd959ba	-0.10612817
252	0xbe339ff6	-0.17541489
253	0xbdd0de59	-0.101986594
254	0xbe1061f7	-0.1409987
255	0xbe404b60	-0.18778753

features.6.weight_fake_quant.activation_post_process.max_vals f4 [384]
0	0x3e039832	0.12851027
1	0x3e844aae	0.25838226
2	0x3e5aed6b	0.2137963
3	0x3de452d0	0.11148608
4	0x3e1c86ea	0.1528584
5	0x3e3d772b	0.1850249
6	0x3e7eefa2	0.248961
7	0x3e8a3844	0.26996052
8	0x3ea3300c	0.31872594
9	0x3ea02211	0.3127599
10	0x3e175b84	0.14781004
11	0x3e02e46c	0.12782449
12	0x3e3a3224	0.1818319
13	0x3e127188	0.14301121
14	0x3e66b1aa	0.22528711
15	0x3e74c127	0.23901807
16	0x3e904ef1	0.28185228
17	0x3e41fbeb	0.18943755
18	0x3eba1d76	0.36350602
19	0x3dc93385	0.0982428
20	0x3e483834	0.1955269
21	0x3e0939bd	0.13400932
22	0x3e69a587	0.2281705
23	0x3e65f379	0.22456159
24	0x3df3b4bc	0.11899707
25	0x3de7c150	0.11316168
26	0x3e05dea6	0.13073215
27	0x3e601cda	0.21886006
28	0x3dc61e4a	0.09673746
29	0x3e1d1427	0.15339719
30	0x3e09d50f	0.13460182
31	0x3e134ccd	0.14384766
32	0x3dfe8a75	0.12428752
33	0x3e50cc63	0.20390467
34	0x3e6a4ebd	0.22881599
35	0x3e3fd6d6	0.18734297
36	0x3e560361	0.20899726
37	0x3e254e27	0.16143094
38	0x3f1c3595	0.6101926
39	0x3e27d392	0.16389301
40	0x3de7210a	0.112855986
41	0x3e2c82f2	0.16846827
42	0x3e26b02f	0.16278146
43	0x3e1bf83e	0.15231416
44	0x3e8bffd8	0.2734363
45	0x3e28bf2c	0.16479176
46	0x3e12368d	0.14278622
47	0x3e1096df	0.14120053
48	0x3df42681	0.119214065
49	0x3e309888	0.17245686
50	0x3f5b09e6	0.8556198
51	0x3eb0246d	0.3440279
52	0x3e4f8e2d	0.2026908
53	0x3e13f769	0.14449848
54	0x3e433c2b	0.19065921
55	0x3e0405f7	0.128929
56	0x3f0d7383	0.5525438
57	0x3e8b36fc	0.27190387
58	0x3e28779f	0.16451882
59	0x3df4ccc1	0.11953116
60	0x3e1a9e81	0.15099527
61	0x3e8cb01f	0.2747812
62	0x3df99899	0.12187309
63	0x3e762426	0.24037227
64	0x3e7ac021	0.24487354
65	0x3e57befc	0.21068949
66	0x3e0188fc	0.12649912
67	0x3e8e0101	0.2773514
68	0x3f089f58	0.5336814
69	0x3e6165be	0.22011468
70	0x3e3d3c90	0.18480134
71	0x3ddd2638	0.10798305
72	0x3e2e29e6	0.1700817
73	0x3e4833ee	0.1955106
74	0x3e5eebd2	0.21769646
75	0x3e56ff56	0.2099584
76	0x3e12c613	0.14333372
77	0x3e6d7c8a	0.23192039
78	0x3e15791e	0.14596984
79	0x3e02f892	0.12790135
80	0x3e19996b	0.1499993
81	0x3dd16e58	0.102261245
82	0x3e1e98d8	0.15487993
83	0x3e4dd515	0.20100816
84	0x3e0aaa31	0.13541485
85	0x3e236796	0.15957484
86	0x3e080fb4	0.1328724
87	0x3e28a4b9	0.16469087
88	0x3e894b0f	0.26815078
89	0x3e0e8074	0.13916188
90	0x3df0ea26	0.1176341
91	0x3e42f799	0.19039764
92	0x3e5961d0	0.21228719
93	0x3e918e81	0.28429034
94	0x3e0956b8	0.13411987
95	0x3deab362	0.11459996
96	0x3e11ae33	0.14226608
97	0x3e4f3fc7	0.20239173
98	0x3df86b94	0.12129894
99	0x3e1a980b	0.15097062
100	0x3e7b5854	0.24545413
101	0x3e3ac850	0.18240476
102	0x3e02d006	0.12774667
103	0x3dd5972a	0.10429223
104	0x3e0774fe	0.13228223
105	0x3e1c8e79	0.15288724
106	0x3e3ba6e2	0.1832538
107	0x3e206578	0.15663707
108	0x3e6466e8	0.2230488
109	0x3e2e0678	0.16994655
110	0x3df0eedc	0.11764309
111	0x3e158beb	0.14604156
112	0x3e8910b0	0.26770544
113	0x3e3a8e11	0.18218257
114	0x3e36e2a7	0.17859899
115	0x3e391cad	0.18077345
116	0x3e5b3bd7	0.21409546
117	0x3e260e74	0.16216451
118	0x3e7e9b31	0.24863888
119	0x3e59b112	0.21258953
120	0x3e325c99	0.17418136
121	0x3e066d61	0.13127662
122	0x3de24846	0.11048941
123	0x3e32a12d	0.17444296
124	0x3e7d540c	0.24739093
125	0x3e209c9f	0.15684746
126	0x3e08f25d	0.13373704
127	0x3e074159	0.13208522
128	0x3e136359	0.14393367
129	0x3e2a8f31	0.16656186
130	0x3e2d4ec1	0.16924573
131	0x3e1357bd	0.14388938
132	0x3e03fbc4	0.1288901
133	0x3e44c47b	0.19215576
134	0x3e218829	0.15774597
135	0x3e78264c	0.24233359
136	0x3e9601f8	0.29298377
137	0x3e96fa13	0.29487666
138	0x3e45103e	0.19244477
139	0x3e305956	0.17221579
140	0x3e3900fa	0.18066779
141	0x3e28612e	0.16443321
142	0x3e4f02c8	0.20215905
143	0x3ed1dbe3	0.40988073
144	0x3f0b8036	0.5449251
145	0x3e1501bd	0.14551444
146	0x3df7e7f1	0.12104786
147	0x3e2519b3	0.16123085
148	0x3ea3e3b7	0.3200967
149	0x3eec0874	0.461002
150	0x3e4c1aa8	0.19932044
151	0x3e16e898	0.14737165
152	0x3e8bacaf	0.27280185
153	0x3e09ca24	0.13456017
154	0x3f0ed6ad	0.5579632
155	0x3df74cfb	0.1207523
156	0x3e04b93e	0.1296129
157	0x3e24ed9e	0.16106269
158	0x3dbff1b9	0.09372277
159	0x3e20cb14	0.15702468
160	0x3e4a602f	0.19763254
161	0x3e31d10f	0.17364906
162	0x3e45b52e	0.19307396
163	0x3e0ed105	0.13946922
164	0x3e21268f	0.15737365
165	0x3e2c5d8e	0.16832563
166	0x3e01dfb2	0.12682989
167	0x3e0888a4	0.13333374
168	0x3e43651d	0.1908154
169	0x3e196837	0.14981161
170	0x3df9f392	0.122046605
171	0x3e9e05c3	0.3086377
172	0x3deebd73	0.11657228
173	0x3e4b0430	0.19825816
174	0x3e30343e	0.17207429
175	0x3e28a616	0.16469607
176	0x3e2beae3	0.16788821
177	0x3e40ca1b	0.18827097
178	0x3e0549ec	0.1301648
179	0x3e1c7c16	0.1528171
180	0x3e0a94a9	0.13533272
181	0x3e688be9	0.22709621
182	0x3e34b78b	0.17648141
183	0x3eafa6cb	0.3430694
184	0x3e821d3d	0.25412932
185	0x3e3c32b6	0.1837872
186	0x3eaabac2	0.3334561
187	0x3e2d5198	0.16925657
188	0x3e37ca21	0.179482
189	0x3e9398bd	0.28827468
190	0x3edf89e2	0.43659884
191	0x3e5459d4	0.20737392
192	0x3ddd9682	0.10819723
193	0x3e1c2dd9	0.15251864
194	0x3e83fa9f	0.25777146
195	0x3eba45b9	0.3638132
196	0x3e0d054f	0.13771556
197	0x3e085dce	0.13317034
198	0x3ea12d95	0.3148009
199	0x3de9caf6	0.11415665
200	0x3dfb6569	0.12275202
201	0x3e209614	0.1568225
202	0x3e1e1a1f	0.15439652
203	0x3e20f56d	0.15718623
204	0x3e189dab	0.14903896
205	0x3e1ab5b6	0.1510838
206	0x3e4f6d4c	0.20256537
207	0x3e3b8397	0.18311916
208	0x3e0cdcff	0.13756178
209	0x3e0eae5b	0.13933699
210	0x3ea989ab	0.33112845
211	0x3e4f87de	0.20266673
212	0x3e84ef5e	0.25963873
213	0x3f044250	0.51663685
214	0x3e44bb0d	0.19211979
215	0x3e518a72	0.20462969
216	0x3e1f1d9e	0.15538642
217	0x3e2bee70	0.16790175
218	0x3ebb1b94	0.36544478
219	0x3dd5f8d4	0.10447851
220	0x3e323e7b	0.17406647
221	0x3e19d7ef	0.15023778
222	0x3e028caf	0.12748979
223	0x3e243afa	0.16038123
224	0x3e19e74a	0.15029636
225	0x3e74d8d5	0.2391084
226	0x3e31434c	0.17310828
227	0x3e9bb626	0.30412406
228	0x3e51cd31	0.2048843
229	0x3e23f914	0.16012985
230	0x3e17e1d1	0.14832236
231	0x3e93c530	0.2886138
232	0x3dfa0aa0	0.12209058
233	0x3eb64991	0.35603002
234	0x3e14587c	0.14486879
235	0x3e2b46e8	0.16726267
236	0x3e070255	0.13184483
237	0x3deb3bec	0.114860386
238	0x3e42f1a3	0.1903749
239	0x3ef637da	0.48089486
240	0x3e3bc4e5	0.18336828
241	0x3e715027	0.23565732
242	0x3e7143b3	0.23560981
243	0x3e41db5d	0.18931337
244	0x3efcdb51	0.49386075
245	0x3debe60b	0.115184866
246	0x3e0c8c35	0.1372536
247	0x3e5fdc88	0.2186147
248	0x3df4226f	0.1192063
249	0x3de9fe5e	0.1142547
250	0x3e3742a0	0.17896509
251	0x3e151598	0.14559019
252	0x3e47e563	0.19521098
253	0x3dfbd674	0.12296763
254	0x3e100551	0.14064528
255	0x3e4bb494	0.19893104

features.8.weight_fake_quant.scale f4 [256]
0	0x3a8aa593	0.0010577909
1	0x3a61515e	0.00085951935
2	0x3a829384	0.0009962176
3	0x3a4a2d72	0.00077124604
4	0x3b1483a5	0.0022661474
5	0x3abcf994	0.0014417642
6	0x3ae0f6ca	0.0017163393
7	0x3a7ef107	0.0009725247
8	0x3a7f9d32	0.0009750902
9	0x3a6c2058	0.0009007505
10	0x3a5b25fb	0.00083598465
11	0x3a9d92e9	0.0012021932
12	0x3a8e694c	0.0010865121
13	0x3aa930c2	0.0012908208
14	0x3af10e30	0.0018391069
15	0x3a991f36	0.0011682275
16	0x3abae37c	0.001425847
17	0x3ab2818d	0.0013618931
18	0x3a8916be	0.0010459048
19	0x3b24510b	0.002507272
20	0x3a8ede97	0.0010900077
21	0x3a8d955a	0.0010801957
22	0x3a99657f	0.0011703222
23	0x3aba589b	0.001421708
24	0x3a9577fa	0.0011403554
25	0x3a6c784e	0.00090206123
26	0x3ac6322b	0.0015121152
27	0x3a87ca67	0.0010360003
28	0x3a90978e	0.0011031495
29	0x3a974e25	0.0011543675
30	0x3aadf88d	0.0013272926
31	0x3aa1eebf	0.0012354477
32	0x3a78ffa9	0.00094985456
33	0x3a4fcade	0.0007926653
34	0x3ab304ce	0.0013658048
35	0x3a78abc2	0.0009486043
36	0x3a9ed9d6	0.0012119364
37	0x3a88e02e	0.0010442787
38	0x3a8154f0	0.0009867232
39	0x3a6c05ff	0.0009003579
40	0x3a846efc	0.0010103877
41	0x3ac22292	0.0014811328
42	0x3a94fda1	0.0011367091
43	0x3a794389	0.000950866
44	0x3a73db6e	0.0009302412
45	0x3ab3aa12	0.0013707301
46	0x3ac6fa37	0.0015180771
47	0x3a8145ef	0.0009862761
48	0x3a93b76d	0.0011269875
49	0x3a5ef9ad	0.00085058325
50	0x3ac0cd5b	0.0014709638
51	0x3a86f1bb	0.001029543
52	0x3aad3bbf	0.0013216658
53	0x3acf1a4d	0.0015800685
54	0x3aa3faaa	0.0012510617
55	0x3b081b1e	0.0020768116
56	0x3a5bc877	0.00083840586
57	0x3aa556e2	0.0012614394
58	0x3a9c8cd6	0.0011943828
59	0x3a86a33e	0.0010272039
60	0x3af12fb3	0.0018401056
61	0x3a5c019d	0.00083925744
62	0x3ab39411	0.0013700743
63	0x3acad4e5	0.0015474824
64	0x3a631f0e	0.00086639903
65	0x3a50bee9	0.0007963018
66	0x3a90f8dc	0.0011060494
67	0x3a3e72b8	0.0007265019
68	0x3a6d9fd6	0.000906465
69	0x3a8039c2	0.0009782838
70	0x3a9e4cbc	0.0012077312
71	0x3a7c3761	0.0009621289
72	0x3a741c92	0.00093121186
73	0x3aa455e0	0.00125378
74	0x3a46b717	0.0007580383
75	0x3a8ac679	0.0010587714
76	0x3af71b07	0.0018852659
77	0x3a7aba3d	0.0009564495
78	0x3a83d9af	0.0010059382
79	0x3a3e236f	0.0007253205
80	0x3a827b60	0.0009954982
81	0x3a87b206	0.0010352738
82	0x3a8b339c	0.0010620239
83	0x3a8a9ac2	0.0010574686
84	0x3a888055	0.0010414222
85	0x3a79d081	0.00095296657
86	0x3a9e325c	0.0012069452
87	0x3a8cee8b	0.0010752244
88	0x3a847d22	0.0010108093
89	0x3a70411d	0.0009164976
90	0x3abf9943	0.0014617819
91	0x3a824a2b	0.0009940317
92	0x3a883846	0.0010392747
93	0x3ab3bc5f	0.0013712755
94	0x3a9a96d5	0.0011794219
95	0x3abd0ae7	0.0014422805
96	0x3a47e820	0.0007625837
97	0x3ac7a710	0.0015232284
98	0x3aa80d5a	0.0012821362
99	0x3ac1c69b	0.001478392
100	0x3a9431aa	0.0011306305
101	0x3a74e193	0.00093414745
102	0x3a734e52	0.0009281385
103	0x3a82f37c	0.0009990777
104	0x3aa9a784	0.00129436
105	0x3a88e7dd	0.0010445077
106	0x3a5ff62f	0.0008543459
107	0x3ad693db	0.0016370969
108	0x3a5ef4ad	0.00085050875
109	0x3aafd98d	0.0013416276
110	0x3a5d0328	0.0008430951
111	0x3aa61995	0.0012672419
112	0x3aaa183b	0.0012977192
113	0x3a6a351f	0.0008934307
114	0x3a37cfe5	0.00070118747
115	0x3a435242	0.0007450917
116	0x3a6d1b8e	0.00090449385
117	0x3aa3d142	0.0012498277
118	0x3a770f2f	0.0009424565
119	0x3a676b41	0.0008827933
120	0x3a968cf8	0.0011486104
121	0x3a6a43cf	0.0008936496
122	0x3a558b54	0.00081460667
123	0x3a417a7f	0.0007380619
124	0x3a5261fb	0.00080254645
125	0x3a978de9	0.0011562678
126	0x3a9d5b50	0.0012005363
127	0x3aeac939	0.0017912752
128	0x3a70451f	0.0009165573
129	0x3a73d703	0.00093017536
130	0x3a8bf892	0.0010678938
131	0x3a8a5c7e	0.0010556129
132	0x3ac1cc37	0.0014785592
133	0x3a6a09ab	0.0008927832
134	0x3aae3e0d	0.0013293639
135	0x3a5dd3fc	0.0008462069
136	0x3b0831ef	0.0020781716
137	0x3a977a2f	0.0011556799
138	0x3a918d82	0.0011104795
139	0x3a866d9d	0.0010256056
140	0x3a8bd026	0.0010666891
141	0x3a6baccd	0.0008990288
142	0x3a53484d	0.0008059785
143	0x3ab3a536	0.0013705853
144	0x3aca03f2	0.0015412553
145	0x3afd0495	0.0019303734
146	0x3a6c2271	0.0009007818
147	0x3a88a519	0.001042518
148	0x3a6a2c4a	0.0008932991
149	0x3aa315ce	0.0012442411
150	0x3ab7f1d6	0.0014033865
151	0x3a735734	0.00092827086
152	0x3a982bbb	0.0011609712
153	0x3a58837e	0.000825934
154	0x3aa37e60	0.0012473576
155	0x3aa37f44	0.0012473841
156	0x3ab73a13	0.00139791
157	0x3abc95a2	0.0014387856
158	0x3a609101	0.0008566529
159	0x3a993dcd	0.0011691392
160	0x3a84f812	0.0010144731
161	0x3a5058c8	0.00079478
162	0x3a8267a2	0.0009949098
163	0x3a9989e6	0.001171407
164	0x3a785a27	0.0009473883
165	0x3a620ff8	0.00086235953
166	0x3aa025b9	0.0012218273
167	0x3aa547e0	0.0012609921
168	0x3a85cee8	0.0010208758
169	0x3a99ee41	0.0011743979
170	0x3a581d78	0.0008244137
171	0x3a9e84fc	0.0012094076
172	0x3adc8974	0.0016825632
173	0x3a83f9d4	0.0010068961
174	0x3a90e219	0.001105371
175	0x3a868450	0.0010262821
176	0x3aab6341	0.0013075845
177	0x3a8eda99	0.0010898887
178	0x3adbcb6a	0.0016768996
179	0x3ab7d192	0.0014024249
180	0x3ac00e41	0.0014652685
181	0x3ab0af1e	0.0013479923
182	0x3a753bd4	0.00093549234
183	0x3a610e81	0.000858523
184	0x3a95faa7	0.0011442498
185	0x3ad11c7b	0.0015953922
186	0x3b25529c	0.002522624
187	0x3aba7d13	0.0014227949
188	0x3a6803fe	0.00088506925
189	0x3a6edd97	0.0009111999
190	0x3a8f2f7b	0.0010924184
191	0x3ad5c587	0.0016309478
192	0x3b0084b8	0.0019610357
193	0x3a53a704	0.00080738985
194	0x3a5e08d9	0.00084699463
195	0x3a930e01	0.0011219383
196	0x3a497631	0.00076851534
197	0x3b29ef8a	0.002593013
198	0x3aacba09	0.0013178001
199	0x3ab0d5b7	0.0013491426
200	0x3a693d46	0.0008897375
201	0x3a8d11c6	0.0010762743
202	0x3a8d0ea3	0.0010761808
203	0x3a72f410	0.00092679355
204	0x3a5f5d85	0.00085207104
205	0x3a5c3cb7	0.0008401381
206	0x3a7daf78	0.0009677331
207	0x3a67319d	0.00088193436
208	0x3aa3df89	0.0012502532
209	0x3ac0db4d	0.0014713794
210	0x3aa08b91	0.0012248625
211	0x3b1543b3	0.0022775948
212	0x3a93b9f3	0.0011270627
213	0x3a880e36	0.0010380212
214	0x3b47b0be	0.0030470337
215	0x3aa03f87	0.0012225964
216	0x3a8dbd11	0.0010813792
217	0x3ac9ee6a	0.0015406136
218	0x3b1f9362	0.0024349322
219	0x3a8e1c26	0.0010842129
220	0x3a900604	0.0010988121
221	0x3a80c279	0.0009823582
222	0x3a7e0692	0.000969031
223	0x3aae7055	0.0013308624
224	0x3aceea44	0.0015786369
225	0x3a86355c	0.0010239291
226	0x3a90fc62	0.0011061544
227	0x3a995bd1	0.0011700337
228	0x3ac487a2	0.0014994035
229	0x3aa2d540	0.0012423173
230	0x3a8ddeb5	0.0010823818
231	0x3a66d7ae	0.00088059425
232	0x3a9bd503	0.0011889044
233	0x3a87e423	0.0010367673
234	0x3aeca1d8	0.0018053604
235	0x3a7aa8a7	0.00095618743
236	0x3a8ee67e	0.0010902432
237	0x3a4a75ea	0.0007723259
238	0x3a89d428	0.0010515498
239	0x3a900dc2	0.0010990428
240	0x3a8bde53	0.0010671116
241	0x3a71c887	0.00092233013
242	0x3a81c741	0.0009901301
243	0x3a9af73a	0.0011822947
244	0x3a9452c1	0.0011316166
245	0x3a583cab	0.00082487863
246	0x3a58a9ef	0.0008265068
247	0x3a70263a	0.00091609696
248	0x3ae70f78	0.0017628511
249	0x3a5ddee4	0.0008463694
250	0x3a918388	0.0011101821
251	0x3a6f047a	0.00091177935
252	0x3abd5e8d	0.0014447734
253	0x3a55f8df	0.000816239
254	0x3a7d7e54	0.00096700084
255	0x3ab41488	0.0013739029
