linearcode/quants/googlenet.pth (torch, 586113 bytes, 174 tensors)

conv1.conv.weight_fake_quant.scale f4 [64]
0.008003312 0.0010658043 0.0031710265 0.0036974142 0.005868158 0.004647668 0.008349376 0.008982432
0.0014670973 0.007188902 0.0061912416 0.0039949566 0.0085070385 0.0024378616 0.008000265 0.0014559728
0.006171209 0.0050134556 0.007419103 0.0088257715 0.004238219 0.0043310057 0.0014633876 0.0076433136
0.0043925038 0.004338742 0.009654152 0.0033386925 0.0024735765 0.0047594123 0.007968558 0.0013160502
0.002462189 0.0041902717 0.004802694 0.002297637 0.0012864473 0.0010389903 0.0031179914 0.0033434583
0.0015793201 0.0045168437 0.006453998 0.001550269 0.002754935 0.0058836197 0.004401838 0.0063071037
0.0011937652 0.0017040742 0.0035843423 0.002159074 0.007940635 0.007626886 0.008523561 0.008144907
0.0045806793 0.0020804997 0.008557009 0.0069061243 0.0063071596 0.004361109 0.00592319 0.005419076
00000000: 5320 033c 75b2 8b3a ffd0 4f3b 5150 723b
00000010: ad49 c03b 774b 983b d2cb 083c 0d2b 133c
00000020: 9e4b c03a e190 eb3b e6df ca3b 20e8 823b
00000030: 1b61 0b3c 88c4 1f3b 8b13 033c 57d6 be3a
00000040: da37 ca3b ea47 a43b f21b f33b f899 103c
00000050: c2e0 8a3b 1ceb 8d3b 24cf bf3a c374 fa3b
00000060: feee 8f3b 012c 8e3b 732c 1e3c f7cd 5a3b
00000070: ba1b 223b d8f4 9b3b 8e8e 023c 517f ac3a
00000080: ad5c 213b 8c4e 893b eb5f 9d3b f493 163b
00000090: 029e a83a bb2e 883a 3757 4c3b ec1d 5b3b
000000a0: 3001 cf3a 0802 943b 0f7c d33b 6532 cb3a
000000b0: 248c 343b 61cb c03b 4b3d 903b d2ab ce3b
000000c0: 1d78 9c3a 3e5b df3a 49e7 6a3b 407f 0d3b
000000d0: 7019 023c f5ea f93b 68a6 0b3c 3772 053c
000000e0: 8619 963b fe58 083b b232 0c3c c54c e23b
000000f0: 4aac ce3b a2e7 8e3b 5217 c23b 8192 b13b

conv1.conv.weight_fake_quant.activation_post_process.min_vals f4 [64]
-0.52969706 -0.082681015 -0.3084948 -0.38592926 -0.6120176 -0.5925777 -1.0645454 -1.1452601
-0.1870549 -0.91658497 -0.6919932 -0.509357 -1.0041716 -0.25064233 -0.8034022 -0.18563654
-0.7868291 -0.6392156 -0.9459356 -1.1252859 -0.39059308 -0.55220324 -0.18658192 -0.6901512
-0.5173963 -0.51220286 -1.2309045 -0.40035614 -0.315381 -0.54376996 -0.9388874 -0.120047115
-0.30041358 -0.45392323 -0.6123435 -0.1362668 -0.16402203 -0.1132828 -0.37046674 -0.42629093
-0.19179167 -0.4694722 -0.4934163 -0.08296072 -0.35125422 -0.5565517 -0.48696467 -0.66038513
-0.1437919 -0.21726947 -0.45700365 -0.27528194 -1.012431 -0.9432568 -1.0867541 -1.0384756
-0.5840366 -0.2652637 -1.0910186 -0.88053083 -0.80416286 -0.37841693 -0.57556003 -0.69093215
00000000: 3a9a 07bf aa54 a9bd 08f3 9dbe 8598 c5be
00000010: 2fad 1cbf 2cb3 17bf 0643 88bf e297 92bf
00000020: 528b 3fbe 50a5 6abf 7726 31bf 3865 02bf
00000030: b288 80bf 3154 80be c4ab 4dbf 8117 3ebe
00000040: a26d 49bf a2a3 23bf d628 72bf 5e09 90bf
00000050: d1fb c7be 315d 0dbf 550f 3fbe c0ad 30bf
00000060: 1574 04bf ba1f 03bf 478e 9dbf 7bfb ccbe
00000070: 9e79 a1be 8234 0bbf ed5a 70bf 43db f5bd
00000080: cfcf 99be a068 e8be 8bc2 1cbf 8689 0bbe
00000090: 64f5 27be d000 e8bd d1ad bdbe ce42 dabe
000000a0: 0965 44be a95e f0be 10a1 fcbe 4fe7 a9bd
000000b0: 98d7 b3be 2c7a 0ebf 6f53 f9be 000f 29bf
000000c0: 2f3e 13be e37b 5ebe 62fc e9be c1f1 8cbe
000000d0: 5797 81bf 4779 71bf c21a 8bbf c5ec 84bf
000000e0: 6c83 15bf a5d0 87be 7fa6 8bbf 786a 61bf
000000f0: 9edd 4dbf ddbf c1be e757 13bf eee0 30bf

conv1.conv.weight_fake_quant.activation_post_process.max_vals f4 [64]
1.0204223 0.13589005 0.40430588 0.47142032 0.7481901 0.5526903 0.7046454 0.8507416
0.15699616 0.6806737 0.7893833 0.4717954 1.0846474 0.31082734 1.0200337 0.09674702
0.5148576 0.3527628 0.68101484 1.0601803 0.5403729 0.35019985 0.11952498 0.9745225
0.5600442 0.5531896 0.95790046 0.4256833 0.2538084 0.60682505 1.0159911 0.1677964
0.31392908 0.5342596 0.46925512 0.29294872 0.113035545 0.13247126 0.3975439 0.36433196
0.20136331 0.5758976 0.82288474 0.1976593 0.24619243 0.7501615 0.56123435 0.8041557
0.15220506 0.1971249 0.44858286 0.25542885 0.75054675 0.97242796 1.0579787 0.86498535
0.47728276 0.17651317 0.8706084 0.87602735 0.36596546 0.55604136 0.75520676 0.514912
00000000: 339d 823f c326 0b3e 2e01 cf3e 015e f13e
00000010: 6389 3f3f 1d7d 0d3f a463 343f 34ca 593f
00000020: 9ac3 203e a240 2e3f 0615 4a3f 2b8f f13e
00000030: bad5 8a3f c324 9f3e 7790 823f 4d23 c63d
00000040: b5cd 033f 539d b43e fd56 2e3f fdb3 873f
00000050: e155 0a3f 654d b33e 83c9 f43d 4e7a 793f
00000060: 0f5f 0f3f d59d 0d3f f738 753f 29f3 d93e
00000070: 2df3 813e e358 1b3f ff0b 823f d2d2 2b3e
00000080: 50bb a03e 3dc5 083f 3542 f03e 60fd 953e
00000090: 2e7f e73d 8ca6 073e e08a cb3e b889 ba3e
000000a0: 2f32 4e3e 066e 133f 93a8 523f 3367 4a3e
000000b0: de19 7c3e 960a 403f 0ead 0f3f 26dd 4d3f
000000c0: a5db 1b3e 1cdb 493e a7ac e53e 92c7 823e
000000d0: d523 403f 0af1 783f d96b 873f ae6f 5d3f
000000e0: 685e f43e debf 343e 31e0 5e3f 5443 603f
000000f0: d35f bb3e ba58 0e3f 3b55 413f 46d1 033f

conv2.conv.weight_fake_quant.scale f4 [64]
0.0051408233 0.008782699 0.00411904 0.006751274 0.0034141757 0.0041656606 0.0063851196 0.0072795274
0.009048919 0.00365721 0.0038762218 0.0041525704 0.0058597964 0.00988262 0.0033064133 0.008962624
0.014064911 0.0110324975 0.005125532 0.005026272 0.007385238 0.007465157 0.0061331824 0.0133420825
0.0056686904 0.0057544247 0.007935741 0.0039862785 0.0059651937 0.0057832454 0.006241572 0.0073926244
0.0054983324 0.009822812 0.009694397 0.008813872 0.0076940297 0.0061611985 0.005323877 0.004917516
0.007471844 0.0073651057 0.008114415 0.0074438164 0.0064044455 0.0041770353 0.006164281 0.003936124
0.0091472315 0.01528498 0.004455859 0.005836351 0.005619944 0.003516451 0.0061292937 0.0076555824
0.0026522372 0.007888028 0.0061797136 0.0071543492 0.004649339 0.0059324168 0.0057433327 0.0067499653
00000000: 5a74 a83b 4fe5 0f3c 03f9 863b cb39 dd3b
00000010: 5dc0 5f3b 1880 883b 443a d13b 1a89 ee3b
00000020: eb41 143c cdad 6f3b 3608 7e3b 4912 883b
00000030: 8903 c03b b6ea 213c 69b0 583b f8d7 123c
00000040: 8370 663c a6c1 343c 14f4 a73b 6db3 a43b
00000050: deff f13b 479e f43b ddf8 c83b c098 5a3c
00000060: 6cc0 b93b 9d8f bc3b e904 023c 549f 823b
00000070: ac77 c33b 6181 bd3b 1a86 cc3b d43d f23b
00000080: 5b2b b43b dcef 203c 40d5 1e3c 0f68 103c
00000090: 331e fc3b e1e3 c93b eb73 ae3b 1d23 a13b
000000a0: 5fd6 f43b fc56 f13b 53f2 043c 42eb f33b
000000b0: 62dc d13b 83df 883b bdfd c93b 9afa 803b
000000c0: 45de 153c da6d 7a3c 7402 923b dc3e bf3b
000000d0: 8227 b83b 4274 663b 3ed8 c83b aedb fa3b
000000e0: 28d1 2d3b ca3c 013c 327f ca3b 086f ea3b
000000f0: 7b59 983b b864 c23b 9132 bc3b d02e dd3b

conv2.conv.weight_fake_quant.activation_post_process.min_vals f4 [64]
-0.5747654 -1.1197941 -0.26826218 -0.86078745 -0.32200223 -0.53112173 -0.81410277 -0.92813975
-1.1537372 -0.26371977 -0.3510992 -0.52945274 -0.747124 -1.260034 -0.34595966 -1.1427345
-1.3950704 -1.4066434 -0.6535053 -0.37772617 -0.94161785 -0.925727 -0.78198075 -1.7011155
-0.72275805 -0.7336891 -0.9395077 -0.50825053 -0.7605622 -0.7373638 -0.79580045 -0.9425596
-0.7010374 -1.2524085 -1.2360357 -1.1237687 -0.9809888 -0.7855528 -0.6787943 -0.6269833
-0.95266014 -0.939051 -1.034588 -0.9490866 -0.8165668 -0.40191507 -0.78594583 -0.5018558
-1.166272 -1.9488349 -0.568122 -0.7441347 -0.71654284 -0.4483475 -0.78148496 -0.97608674
-0.33816025 -1.0057236 -0.12846893 -0.9121795 -0.5927907 -0.7563831 -0.7322749 -0.28914887
00000000: d323 13bf 6a55 8fbf a959 89be 915c 5cbf
00000010: 7add a4be 98f7 07bf 0a69 50bf 919a 6dbf
00000020: a9ad 93bf 4706 87be 46c3 b3be 378a 07bf
00000030: 8543 3fbf cb48 a1bf a021 b1be 2045 92bf
00000040: ab91 b2bf e40c b4bf 204c 27bf 5365 c1be
00000050: de0d 71bf 72fc 6cbf e42f 48bf 27be d9bf
00000060: ac06 39bf 0dd3 3bbf 9483 70bf b51c 02bf
00000070: 34b4 42bf e0c3 3cbf 94b9 4bbf 964b 71bf
00000080: 3077 33bf ec4e a0bf 6b36 9ebf a7d7 8fbf
00000090: 1522 7bbf fd19 49bf 77c5 2dbf fa81 20bf
000000a0: 89e1 73bf a565 70bf 616d 84bf 57f7 72bf
000000b0: 860a 51bf d0c7 cdbe bf33 49bf 9f79 00bf
000000c0: 6748 95bf 6c73 f9bf 7270 11bf 9d7f 3ebf
000000d0: 5a6f 37bf ce8d e5be 660f 48bf d2e0 79bf
000000e0: 5723 adbe 8dbb 80bf 5c8d 03be 9984 69bf
000000f0: 22c1 17bf 53a2 41bf 5e76 3bbf 520b 94be

conv2.conv.weight_fake_quant.activation_post_process.max_vals f4 [64]
0.655455 0.5249922 0.5251776 0.45356596 0.4353074 0.37604943 0.2223795 0.7609181
0.32909283 0.46629426 0.4942183 0.3079818 0.1926463 0.44727656 0.4215677 0.37893805
1.7932761 0.46579936 0.49155742 0.6408497 0.37965047 0.95180756 0.38671976 0.7730477
0.46660194 0.2006139 1.011807 0.31553927 0.1948359 0.47616434 0.43366447 0.4096693
0.48886192 0.4458579 0.46820793 0.30345258 0.4572548 0.51246643 0.4262932 0.22824982
0.5972699 0.44119197 0.31128836 0.25381905 0.15023313 0.532572 0.54653496 0.39305973
0.4816575 0.61648464 0.36105746 0.42528516 0.42537066 0.24373062 0.44320327 0.48368067
0.29367515 0.33384192 0.7879135 0.1541877 0.41369867 0.48088852 0.25139764 0.86062056
00000000: e6cb 273f e465 063f 0a72 063f cc39 e83e
00000010: 9de0 de3e 8d89 c03e 74b7 633e 87cb 423f
00000020: db7e a83e 1fbe ee3e 2e0a fd3e caaf 9d3e
00000030: 1245 453e 6f01 e53e b9d7 d73e 2b04 c23e
00000040: 128a e53f 417d ee3e 6aad fb3e ba0e 243f
00000050: 8c61 c23e a9a9 733f 2200 c63e 74e6 453f
00000060: 73e6 ee3e bb6d 4d3e e482 813f 5d8e a13e
00000070: 1083 473e d0cb f33e 4509 de3e 2dc0 d13e
00000080: 1c4c fa3e 7d47 e43e f3b8 ef3e 235e 9b3e
00000090: 4d1d ea3e 0031 033f 1a43 da3e 52ba 693e
000000a0: aee6 183f eae3 e13e 3061 9f3e 92f4 813e
000000b0: b7d6 193e a356 083f b7e9 0b3f 203f c93e
000000c0: d09b f63e f0d1 1d3f 86dc b83e fabe d93e
000000d0: 2fca d93e 8594 793e 8aeb e23e fea4 f73e
000000e0: 975c 963e 54ed aa3e b3b4 493f 61e3 1d3e
000000f0: 50d0 d33e 0537 f63e 31b7 803e a151 5c3f

conv3.conv.weight_fake_quant.scale f4 [192]
0.0056929756 0.002218806 0.0010759925 0.0025665388 0.004624657 0.0019765955 0.0027705526 0.0021178147
0.002465347 0.0023199122 0.0041809436 0.006093165 0.001955896 0.0022665956 0.0021683031 0.0022171095
0.0049064965 0.0037428066 0.002070996 0.0038081666 0.004514064 0.0018282568 0.0027739115 0.0016053162
0.0023070765 0.00245324 0.00245382 0.009250798 0.0024491202 0.0037545743 0.0020900273 0.0063891066
0.0028153392 0.0023445936 0.0026773373 0.0018206276 0.0020479166 0.0024711932 0.003706439 0.0024060206
0.0024861707 0.002298614 0.0021907913 0.0019167477 0.002820657 0.002304833 0.00143112 0.0050392332
0.0017849731 0.0026210453 0.0016598533 0.003921374 0.004100419 0.0033623958 0.0022437063 0.004138538
0.005979442 0.0033340363 0.0027639936 0.0025531866 0.006922889 0.0030099393 0.0050687925 0.0033363593
0.0022255112 0.0021802823 0.0013426697 0.0027059529 0.002075654 0.0027909717 0.0024253817 0.0021649813
0.004300711 0.0023060725 0.0038729238 0.00202072 0.0032899198 0.0024455793 0.0022684482 0.0022629264
0.0026717961 0.0024637224 0.0019581988 0.002199478 0.0038797332 0.0017174651 0.0030005646 0.0024299272
0.004449978 0.0036584 0.0021890162 0.0037556363 0.003519735 0.009414633 0.0023720197 0.0032843463
0.0057885516 0.0036119167 0.0023532945 0.0034183403 0.0028339028 0.0023905549 0.0029376436 0.0031693454
0.0018311245 0.0024695843 0.0039483733 0.0025031127 0.0031140503 0.0019065556 0.0038776495 0.0023448493
0.0029686473 0.0020537337 0.0015126124 0.002571058 0.0033782327 0.0018527976 0.007855572 0.0024326367
0.001433748 0.0015404135 0.0027970942 0.0028405709 0.0016872442 0.0025577324 0.0031098963 0.0021772697
0.0032504715 0.0023505443 0.0017798534 0.003009876 0.0017694683 0.0044659544 0.0038494405 0.0022256323
0.0023877393 0.0013932504 0.0018241847 0.0025493596 0.004337271 0.0029102894 0.0022501056 0.0028179376
0.002511163 0.003279002 0.002065391 0.002916417 0.005618078 0.0024903507 0.00249844 0.0036506017
0.0019118688 0.0019195958 0.0034655882 0.0021202527 0.0022998021 0.0021661145 0.0032424084 0.0030553895
0.0028695797 0.0033801084 0.0063490174 0.0047505517 0.0020203649 0.0026621122 0.00309949 0.0032877058
0.0028971867 0.0013385423 0.0028059324 0.0020849118 0.0028777553 0.00239162 0.0021655203 0.0033689665
0.003293302 0.0019988352 0.0020305256 0.0034127978 0.0038388453 0.002336161 0.0023207595 0.001348548
0.0033841974 0.004708422 0.0024137462 0.003691878 0.0030092087 0.0015895994 0.0013313822 0.0028516203
00000000: 248c ba3b 6369 113b 5108 8d3a 6033 283b
00000010: 6f8a 973b c589 013b 2992 353b 09cb 0a3b
00000020: a991 213b ab09 183b 4c00 893b 2ca9 c73b
00000030: 7d2e 003b 2a8b 143b 171a 0e3b ed4c 113b
00000040: adc6 a03b e049 753b 8cb9 073b 6f92 793b
00000050: b7ea 933b 1ea2 ef3a 83ca 353b 7969 d23a
00000060: 5232 173b 8ac6 203b 45d0 203b a990 173c
00000070: 6b81 203b 4e0f 763b d7f8 083b b65b d13b
00000080: 8e81 383b c1a7 193b 4476 2f3b 20a2 ee3a
00000090: 5736 063b bef3 213b bae7 723b 54ae 1d3b
000000a0: 06ef 223b 58a4 163b 6193 0f3b 613b fb3a
000000b0: c6da 383b ae0c 173b 6b94 bb3a 2720 a53b
000000c0: c2f5 e93a d8c5 2b3b 6f8f d93a df7e 803b
000000d0: cf5c 863b a45b 5c3b 250b 133b 939c 873b
000000e0: 32ef c33b d97f 5a3b 1e24 353b 5d53 273b
000000f0: 67d9 e23b 6742 453b 1d18 a63b d2a6 5a3b
00000100: e2d9 113b 11e3 0e3b 85fc af3a 5b56 313b
00000110: b207 083b bce8 363b 27f3 1e3b 5ce2 0d3b
00000120: fbec 8c3b 7a21 173b e1d0 7d3b 0e6e 043b
00000130: b29b 573b 0346 203b 3faa 143b 9b4d 143b
00000140: 4d19 2f3b 6776 213b 2055 003b 1e25 103b
00000150: 1f43 7e3b 911c e13a 1fa5 443b 6a3f 1f3b
00000160: 1fd1 913b c4c1 6f3b 9975 0f3b 1f21 763b
00000170: 5bab 663b d53f 1a3c e373 1b3b 303e 573b
00000180: e4ad bd3b e8b5 6c3b bb39 1a3b 3c06 603b
00000190: 00b9 393b dbaa 1c3b 7b85 403b cbb4 4f3b
000001a0: 5802 f03a c0d8 213b 5b61 813b 430b 243b
000001b0: 1815 4c3b 64e5 f93a 2a20 7e3b 0bac 193b
000001c0: a38d 423b ef97 063b da42 c63a 327f 283b
000001d0: 5765 5d3b 92d9 f23a a8b4 003c df6c 1f3b
000001e0: 9aec bb3a b3e7 c93a 744f 373b df28 3a3b
000001f0: 8526 dd3a a19f 273b 67cf 4b3b 86b0 0e3b
00000200: dd05 553b 970b 1a3b f849 e93a 5741 453b
00000210: 81ed e73a 2457 923b e546 7c3b eadb 113b
00000220: 9e7b 1c3b ba9d b63a 7b19 ef3a 2813 273b
00000230: ab1f 8e3b 8eba 3e3b 8276 133b 26ad 383b
00000240: 5392 243b 86e4 563b 835b 073b 5c21 3f3b
00000250: db17 b83b 2735 233b debc 233b ef3e 6f3b
00000260: ac97 fa3a f29a fb3a ec1e 633b f0f3 0a3b
00000270: 47b8 163b 5ff5 0d3b 967e 543b ee3c 483b
00000280: 8f0f 3c3b cf84 5d3b 6b0b d03b 84aa 9b3b
00000290: 1968 043b d576 2e3b d020 4b3b 8d76 573b
000002a0: bade 3d3b 0772 af3a bce3 373b 04a3 083b
000002b0: b998 3c3b babc 1c3b 67eb 0d3b e1c9 5c3b
000002c0: 70d4 573b e4fe 023b 9112 053b 3fa9 5f3b
000002d0: 2395 7b3b 471a 193b e217 183b c3c1 b03a
000002e0: 69c9 5d3b 1b49 9a3b f12f 1e3b 6ff3 713b
000002f0: 2536 453b 1b5a d03a c681 ae3a 40e2 3a3b

conv3.conv.weight_fake_quant.activation_post_process.min_vals f4 [192]
-0.7258544 -0.2742705 -0.13718905 -0.3272337 -0.5896438 -0.24808702 -0.35324547 -0.18418218
-0.2488329 -0.23217943 -0.4783455 -0.77687854 -0.24937673 -0.28899094 -0.27645865 -0.23718642
-0.6155808 -0.47720784 -0.24954902 -0.4569743 -0.57554317 -0.23310274 -0.3536737 -0.20467782
-0.29415226 -0.26686493 -0.22352038 -0.513089 -0.31226283 -0.47870824 -0.26647848 -0.7118134
-0.32552317 -0.29893568 -0.3413605 -0.23213002 -0.26110938 -0.31507713 -0.47257096 -0.2493506
-0.31698677 -0.2930733 -0.2793259 -0.23038988 -0.35963377 -0.2938662 -0.1824678 -0.64250225
-0.19232593 -0.31567222 -0.2116313 -0.41611373 -0.21031702 -0.39736646 -0.28607255 -0.5276636
-0.5504179 -0.42508963 -0.2548557 -0.2927004 -0.8716132 -0.38376728 -0.54782724 -0.4253858
-0.28375268 -0.277986 -0.120624915 -0.33124566 -0.26464587 -0.34888133 -0.30923617 -0.19539806
-0.5483407 -0.29402426 -0.49379778 -0.21095866 -0.33538622 -0.31181136 -0.28922716 -0.2885231
-0.22769679 -0.19864362 -0.18081549 -0.22607051 -0.49466598 -0.2189768 -0.382572 -0.30981573
-0.5673722 -0.42692026 -0.27909955 -0.32988128 -0.37238503 -0.33153793 -0.24437775 -0.41875416
-0.34924355 -0.46051937 -0.30004504 -0.42810652 -0.3613226 -0.30479574 -0.2667313 -0.29676503
-0.23346838 -0.25277838 -0.5034176 -0.31914687 -0.34457636 -0.24308585 -0.49440032 -0.24987058
-0.37850252 -0.26185104 -0.18924567 -0.3278099 -0.29404324 -0.23623168 -0.80614996 -0.31016117
-0.10348651 -0.11234158 -0.35662952 -0.36217278 -0.21512362 -0.26115203 -0.32133755 -0.27760187
-0.41443512 -0.2996944 -0.2269313 -0.3837592 -0.15567526 -0.5694092 -0.36889228 -0.23756449
-0.22570783 -0.17763942 -0.23258355 -0.32504335 -0.55300206 -0.3710619 -0.28688845 -0.35928705
-0.3201733 -0.37687293 -0.26333734 -0.3718432 -0.71630496 -0.31751972 -0.3185511 -0.27550644
-0.24376327 -0.24474846 -0.25497818 -0.22505896 -0.29322478 -0.2761796 -0.3977039 -0.38140973
-0.30271703 -0.33317497 -0.80949974 -0.6056953 -0.25759652 -0.3394193 -0.28798395 -0.41918248
-0.3693913 -0.10227412 -0.22064868 -0.26582626 -0.3669138 -0.24871871 -0.27610385 -0.33654854
-0.31196094 -0.21082316 -0.1643793 -0.3121414 -0.48945278 -0.29786053 -0.29589683 -0.17039584
-0.43148518 -0.6003238 -0.22204323 -0.34593982 -0.38367411 -0.15527907 -0.14409773 -0.3088812
00000000: 98d1 39bf 2f6d 8cbe 497b 0cbe 2d8b a7be
00000010: e5f2 16bf 860a 7ebe 97dc b4be 419a 3cbe
00000020: 0dce 7ebe 72c0 6dbe b4e9 f4be 83e1 46bf
00000030: 9d5c 7fbe 9ff6 93be fd8b 8dbe ffe0 72be
00000040: b496 1dbf 9654 f4be c789 7fbe 89f8 e9be
00000050: cc56 13bf 7cb2 6ebe b814 b5be 1097 51be
00000060: 209b 96be 85a2 88be 87e2 64be cd59 03bf
00000070: eae0 9fbe 3f19 f5be de6f 88be 6739 36bf
00000080: f9aa a6be 190e 99be cec6 aebe 7eb3 6dbe
00000090: 21b0 85be ca51 a1be d2f4 f1be c455 7fbe
000000a0: 174c a2be b40d 96be ce03 8fbe 53eb 6bbe
000000b0: eb21 b8be a175 96be d7d8 3abe 077b 24bf
000000c0: 17f1 44be ca9f a1be e0b5 58be dc0c d5be
000000d0: 585d 57be 9e73 cbbe 1a78 92be f614 07bf
000000e0: 30e8 0cbf 59a5 d9be 727c 82be d4dc 95be
000000f0: 0b22 5fbf 257d c4be 683e 0cbf 2bcc d9be
00000100: 0848 91be 2e54 8ebe 320a f7bd 0899 a9be
00000110: aa7f 87be 93a0 b2be 3454 9ebe 6e16 48be
00000120: 0e60 0cbf 598a 96be 10d3 fcbe 8c05 58be
00000130: beb7 abbe bda5 9fbe 9515 94be 4db9 93be
00000140: 5929 69be 3c69 4bbe b227 39be 077f 67be
00000150: dc44 fdbe 743b 60be 7ae0 c3be 2ba0 9ebe
00000160: 4e3f 11bf 4b95 dabe 23e6 8ebe 33e6 a8be
00000170: 40a9 bebe 57bf a9be 293e 7abe f266 d6be
00000180: 0dd0 b2be 32c9 ebbe 819f 99be c730 dbbe
00000190: 47ff b8be 300e 9cbe 0191 88be 96f1 97be
000001a0: 5612 6fbe 2b6c 81be fadf 00bf 3867 a3be
000001b0: 506c b0be 7feb 78be 0a22 fdbe 13de 7fbe
000001c0: 15cb c1be 5711 86be 9ec9 41be b3d6 a7be
000001d0: d68c 96be b8e6 71be d85f 4ebf 72cd 9ebe
000001e0: bcf0 d3bd 5813 e6bd 2598 b6be b66e b9be
000001f0: 5e49 5cbe b8b5 85be 5b86 a4be d521 8ebe
00000200: d730 d4be 8b71 99be ae60 68be 167c c4be
00000210: 5669 1fbe cdc4 11bf 73df bcbe 1b44 73be
00000220: f41f 67be 1ce7 35be 622a 6ebe 156c a6be
00000230: 8b91 0dbf d3fb bdbe 0be3 92be 79f4 b7be
00000240: c1ed a3be 7df5 c0be 27d4 86be 3b62 bebe
00000250: c35f 37bf f291 a2be 2119 a3be 2e0f 8dbe
00000260: 149d 79be 579f 7abe 808c 82be db75 66be
00000270: 8f21 96be 6a67 8dbe d89f cbbe 2348 c3be
00000280: bafd 9abe e995 aabe 603b 4fbf d90e 1bbf
00000290: b1e3 83be 5ec8 adbe a272 93be 169f d6be
000002a0: db20 bdbe 1875 d1bd baf1 61be 611a 88be
000002b0: 20dc bbbe 1eb0 7ebe 7c5d 8dbe 1750 acbe
000002c0: 58b9 9fbe 07e2 57be 0c53 28be ffd0 9fbe
000002d0: 8e99 fabe 2d81 98be ca7f 97be 3f7c 2ebe
000002e0: a0eb dcbe d2ae 19bf 4d5f 63be 061f b1be
000002f0: ef70 c4be 7a01 1fbe 5b8e 13be ad25 9ebe

conv3.conv.weight_fake_quant.activation_post_process.max_vals f4 [192]
0.5167006 0.28289777 0.12038073 0.24797651 0.4719013 0.25201592 0.35182947 0.27002138
0.31433174 0.2957888 0.5330703 0.43465513 0.19460236 0.17983875 0.22740445 0.28268147
0.6255783 0.42152485 0.26405197 0.48554125 0.31098685 0.21446481 0.29910856 0.19841026
0.22262229 0.3127881 0.31286207 1.1794767 0.28062722 0.29137814 0.2436538 0.8146111
0.35895574 0.2558076 0.2353611 0.19383657 0.2578983 0.243385 0.1912793 0.30676764
0.14673837 0.25972837 0.26496947 0.24438533 0.3125395 0.28651986 0.14153871 0.3337965
0.22758406 0.33418328 0.20334703 0.49997523 0.5228034 0.42870545 0.23934194 0.22852504
0.7623789 0.35882983 0.35240918 0.3255313 0.8826684 0.31595317 0.64627105 0.42307383
0.25326863 0.2736324 0.17119038 0.345009 0.19903176 0.35584888 0.25818074 0.27603513
0.52595955 0.2921039 0.44542235 0.2576418 0.41946477 0.24016163 0.26120088 0.25405014
0.34065402 0.3141246 0.24967036 0.28043345 0.23704886 0.15895599 0.3438747 0.28949776
0.5150058 0.46644598 0.22808285 0.47884363 0.44876623 1.2003657 0.3024325 0.27755544
0.7380403 0.43205416 0.1644401 0.4358384 0.27969685 0.15754238 0.37454957 0.40409154
0.19164011 0.314872 0.42065093 0.27349347 0.3970414 0.16601738 0.34234157 0.2989683
0.3608615 0.23115413 0.19285809 0.31268874 0.43072468 0.14464688 1.0015854 0.29093426
0.18280287 0.19640271 0.1641272 0.34967893 0.16033027 0.32611087 0.3965118 0.2638127
0.25727418 0.21995173 0.16189565 0.32288265 0.2256072 0.51249176 0.49080366 0.28376812
0.30443674 0.16163509 0.2303923 0.23800842 0.45471683 0.34903884 0.21752243 0.29869106
0.2281491 0.41807273 0.22916143 0.33793992 0.26553628 0.25862983 0.30689007 0.46545172
0.18786816 0.23874205 0.4418625 0.27033222 0.21317162 0.26744238 0.41340706 0.38956216
0.3658714 0.4309638 0.79759514 0.42588568 0.14840366 0.2928869 0.39518496 0.38085353
0.33414224 0.17066415 0.35775638 0.17947584 0.35001493 0.30493155 0.25129932 0.42954323
0.419896 0.2548515 0.258892 0.43513173 0.29642543 0.26755157 0.21736677 0.17193986
0.36798948 0.48768654 0.30775264 0.47071445 0.2675888 0.20267393 0.16975123 0.3635816
00000000: 7e46 043f fad7 903e 2c8a f63d 8eed 7d3e
00000010: 0c9d f13e 3b08 813e fe22 b43e 3e40 8a3e
00000020: 17f0 a03e a171 973e 4c77 083f 1e8b de3e
00000030: d745 473e a627 383e b6dc 683e a0bb 903e
00000040: e625 203f 1bd2 d73e d231 873e dd98 f83e
00000050: ab39 9f3e aa9c 5b3e c224 993e 0f2c 4b3e
00000060: 19f7 633e c325 a03e 752f a03e 18f9 963f
00000070: 5fae 8f3e 842f 953e 6280 793e 5a8a 503f
00000080: 0cc9 b73e 37f9 823e 8002 713e 187d 463e
00000090: 3f0b 843e eb39 793e b9de 433e a610 9d3e
000000a0: 9542 163e 1efb 843e 14aa 873e 2640 7a3e
000000b0: 2d05 a03e bbb2 923e 86ef 103e 60e7 aa3e
000000c0: cc0b 693e 121a ab3e 343a 503e c1fc ff3e
000000d0: 72d6 053f 487f db3e 0e16 753e 7802 6a3e
000000e0: 432b 433f 8bb8 b73e fa6e b43e 0aac a63e
000000f0: 8ef6 613f 9dc4 a13e 0572 253f 229d d83e
00000100: 6dac 813e 8c19 8c3e 884c 2f3e 05a5 b03e
00000110: fbce 4b3e d331 b63e 4430 843e 7a54 8d3e
00000120: 49a5 063f a48e 953e 660e e43e a0e9 833e
00000130: 16c4 d63e eeec 753e 1fbc 853e dc12 823e
00000140: 346a ae3e f1d4 a03e 96a9 7f3e f994 8f3e
00000150: f0bc 723e 5cc5 223e 5810 b03e 0d39 943e
00000160: 6cd7 033f 02d2 ee3e 8d8e 693e fe2a f53e
00000170: b0c4 e53e 95a5 993f 6fd8 9a3e bf1b 8e3e
00000180: 36f0 3c3f 3436 dd3e fc62 283e 3626 df3e
00000190: 6d34 8f3e ca52 213e f6c4 bf3e 16e5 ce3e
000001a0: 4e3d 443e e736 a13e 8f5f d73e 5607 8c3e
000001b0: 0349 cb3e 7600 2a3e 6547 af3e 5f12 993e
000001c0: d7c2 b83e abb3 6c3e 977c 453e bd18 a03e
000001d0: f287 dc3e 501e 143e f333 803f 56f5 943e
000001e0: ad30 3b3e cb1d 493e f610 283e 1e09 b33e
000001f0: 9e2d 243e 01f8 a63e 9803 cb3e 7512 873e
00000200: 71b9 833e 073b 613e f9c7 253e e050 a53e
00000210: 9305 673e a932 033f 9e4a fb3e 0e4a 913e
00000220: 22df 9b3e ab83 253e f6eb 6b3e 7bb8 733e
00000230: a5d0 e83e 38b5 b23e 33be 5e3e 09ee 983e
00000240: eb9f 693e a10d d63e 4ba9 6a3e 7606 ad3e
00000250: 5ff4 873e 216b 843e b220 9d3e b04f ee3e
00000260: 8360 403e cc78 743e cd3b e23e fc68 8a3e
00000270: a949 5a3e 35ee 883e 17aa d33e b174 c73e
00000280: 7f53 bb3e 4aa7 dc3e 322f 4c3f b00d da3e
00000290: 21f7 173e 46f5 953e af55 ca3e 3cff c23e
000002a0: b114 ab3e 95c2 2e3e d82b b73e 84c8 373e
000002b0: 2835 b33e fd1f 9c3e 4eaa 803e 17ed db3e
000002c0: 9cfc d63e e57b 823e 7e8d 843e 96c9 de3e
000002d0: 13c5 973e 85fc 883e 6595 5e3e 0111 303e
000002e0: 1e69 bc3e 0db2 f93e c191 9d3e 7c01 f13e
000002f0: 6601 893e c189 4f3e 44d3 2d3e 5e27 ba3e

inception3a.branch1.conv.weight_fake_quant.scale f4 [64]
0.0029357083 0.0032181307 0.0025419618 0.004070775 0.0044461517 0.005734554 0.0034395943 0.0024118172
0.0030632468 0.0064223846 0.002274905 0.0037938552 0.00436185 0.006599123 0.0024941382 0.0055058743
0.005424161 0.0021236679 0.001977627 0.0061698263 0.0019897728 0.0024117613 0.005857774 0.0032627112
0.0047599203 0.004178534 0.002130069 0.0025624735 0.0022609965 0.0025661944 0.002427471 0.0025571552
0.0017961663 0.0019944517 0.003264337 0.006200997 0.0024195472 0.0027921465 0.002630743 0.0035335934
0.0021024235 0.0036401798 0.0028551123 0.0020790088 0.0032673457 0.0036186338 0.003012079 0.0025874686
0.0034479494 0.0037302165 0.0042236093 0.0021571354 0.0025091216 0.0021210245 0.0020177446 0.0047311955
0.0022374592 0.0029474946 0.0026067025 0.0024917035 0.0041160244 0.0073932754 0.0031581337 0.0020909405
00000000: 0365 403b 46e7 523b 0b97 263b 2364 853b
00000010: 06b1 913b ede8 bb3b d16a 613b 940f 1e3b
00000020: c1c0 483b de72 d23b 9316 153b 54a2 783b
00000030: daed 8e3b 753d d83b b274 233b 9f6a b43b
00000040: 29bd b13b 3c2d 0b3b 139b 013b 412c ca3b
00000050: d966 023b a40e 1e3b 92f2 bf3b 36d3 553b
00000060: 1bf9 9b3b 15ec 883b a198 0b3b 2cef 273b
00000070: 3a2d 143b 992d 283b 3516 1f3b f295 273b
00000080: 576d eb3a 59b5 023b 7dee 553b bc31 cb3b
00000090: 4491 1e3b 72fc 363b 8b68 2c3b dc93 673b
000000a0: d0c8 093b 1590 6e3b d61c 3b3b fb3f 083b
000000b0: f720 563b 9a26 6d3b 4d66 453b 8592 293b
000000c0: fef6 613b a676 743b 3466 8a3b ba5e 0d3b
000000d0: 1370 243b e300 0b3b 233c 043b 2508 9b3b
000000e0: 56a2 123b c12a 413b 36d5 2a3b d94b 233b
000000f0: b7df 863b 4a43 f23b b1f8 4e3b 2908 093b

inception3a.branch1.conv.weight_fake_quant.activation_post_process.min_vals f4 [64]
-0.3743028 -0.41031167 -0.32410014 -0.51902384 -0.56688434 -0.51192856 -0.43854827 -0.30750668
-0.39056396 -0.81885403 -0.21892455 -0.48371655 -0.5561359 -0.28260708 -0.30881566 -0.39239523
-0.69158053 -0.27076766 -0.2405789 -0.78665286 -0.17912313 -0.29305825 -0.15383823 -0.4159957
-0.33474523 -0.53276306 -0.20746228 -0.32671538 -0.28827706 -0.19563721 -0.18321908 -0.27409393
-0.22901121 -0.2542926 -0.40719837 -0.510689 -0.30849227 -0.3559987 -0.3354197 -0.44328946
-0.19229163 -0.44592756 -0.27059466 -0.1980143 -0.41658658 -0.4613758 -0.28589964 -0.32990223
-0.43641275 -0.4756026 -0.5385102 -0.27503476 -0.30062327 -0.25780755 -0.25055215 -0.60322744
-0.28527606 -0.29005864 -0.33235458 -0.3176922 -0.5247931 -0.9426426 -0.15478313 -0.20161234
00000000: 9ea4 bfbe 5f14 d2be 74f0 a5be bfde 04bf
00000010: 551f 11bf c00d 03bf 6689 e0be 8471 9dbe
00000020: 00f8 c7be 6ba0 51bf c22d 60be b2a9 f7be
00000030: ec5e 0ebf e0b1 90be 161d 9ebe 07e8 c8be
00000040: 6c0b 31bf 0fa2 8abe 515a 76be 1562 49bf
00000050: 0e6c 37be bb0b 96be c587 1dbe 63fd d4be
00000060: ba63 abbe 2963 08bf fe70 54be 3d47 a7be
00000070: 0d99 93be 1f55 48be c89d 3bbe 0a56 8cbe
00000080: ea81 6abe a432 82be 4e7c d0be 84bc 02bf
00000090: b3f2 9dbe 7645 b6be 22bc abbe d6f6 e2be
000000a0: 19e8 44be 9e50 e4be 628b 8abe 43c4 4abe
000000b0: d64a d5be 7339 ecbe 7061 92be f2e8 a8be
000000c0: 7e71 dfbe 2f82 f3be cedb 09bf 5bd1 8cbe
000000d0: 4beb 99be 5aff 83be 5f48 80be 1d6d 1abf
000000e0: b40f 92be 9182 94be 612a aabe 8da8 a2be
000000f0: d758 06bf 0751 71bf 787f 1ebe 7773 4ebe

inception3a.branch1.conv.weight_fake_quant.activation_post_process.max_vals f4 [64]
0.36547673 0.40589508 0.3052463 0.19282766 0.2676293 0.73115563 0.4011624 0.23800062
0.23323238 0.61997116 0.2900504 0.17014758 0.3726076 0.8413882 0.3180026 0.70199895
0.47748354 0.22641893 0.25214744 0.7859838 0.25369602 0.30749956 0.74686617 0.3772147
0.60688984 0.36375043 0.2715838 0.21932423 0.26298204 0.32718977 0.30950257 0.3260373
0.22519127 0.23349583 0.416203 0.7906271 0.30559278 0.29771265 0.1834582 0.45053315
0.268059 0.46412292 0.3640268 0.26507363 0.31954095 0.22163363 0.3840401 0.28828403
0.43961355 0.33480448 0.4306428 0.27344087 0.319913 0.27043062 0.25726244 0.23429246
0.27462035 0.37580556 0.2979436 0.21806094 0.3589113 0.65439427 0.40266204 0.26659492
00000000: c41f bb3e 7bd1 cf3e 3e49 9c3e 9d74 453e
00000010: b506 893e 042d 3b3f 2865 cd3e 6fb6 733e
00000020: 78d4 6e3e 6eb6 1e3f 7c81 943e 2b3b 2e3e
00000030: 6cc6 be3e 3865 573f 3dd1 a23e 34b6 333f
00000040: b978 f43e 5dda 673e 7819 813e 3c36 493f
00000050: 72e4 813e 9570 9d3e 9f32 3f3f 4922 c13e
00000060: 225d 1b3f 7f3d ba3e 080d 8b3e 8896 603e
00000070: 95a5 863e 6b85 a73e 1f77 9e3e 5cee a63e
00000080: 8a98 663e 8819 6f3e 8f18 d53e 8a66 4a3f
00000090: a876 9c3e cb6d 983e 77dc 3b3e 48ac e63e
000000a0: 073f 893e 85a1 ed3e b961 ba3e bbb7 873e
000000b0: df9a a33e edf3 623e e7a0 c43e f799 933e
000000c0: 0715 e13e 7e6b ab3e 377d dc3e 7100 8c3e
000000d0: a3cb a33e e275 8a3e e7b7 833e 5dea 6f3e
000000e0: 0a9b 8c3e 9669 c03e 108c 983e 5e4b 5f3e
000000f0: 39c3 b73e 6286 273f b829 ce3e 217f 883e

inception3a.branch2.0.conv.weight_fake_quant.scale f4 [96]
0.0029561042 0.001667577 0.004182894 0.004098228 0.002220212 0.0031472929 0.003715978 0.0018985574
0.0018191206 0.002564864 0.0021033697 0.00202378 0.0022381267 0.0044504907 0.0040150792 0.0016993949
0.0037635714 0.0017916292 0.005855726 0.0019388316 0.0022674375 0.0039983983 0.0015543053 0.0024682393
0.0027592846 0.006485415 0.0016966601 0.002197519 0.0022478753 0.0031346106 0.0018499112 0.008032917
0.0023255365 0.0022404087 0.0024186312 0.0022203482 0.002572136 0.0022518265 0.0034001453 0.0021595745
0.0018752048 0.0021437139 0.0028260637 0.0023261455 0.004564266 0.0023224244 0.0021320838 0.0021415367
0.002121115 0.0021536686 0.0021816741 0.004594829 0.0016182765 0.0022882745 0.0017338515 0.0030226274
0.007041263 0.0036523861 0.0020668008 0.0024538732 0.0019804772 0.0022049705 0.003045407 0.0025275485
0.0021278176 0.002529934 0.002131065 0.0016702947 0.0022548563 0.0021385413 0.0027682232 0.0025824783
0.0031992334 0.0032138599 0.0016169423 0.005167456 0.001959596 0.004504337 0.0018674557 0.004494835
0.002299035 0.0025005203 0.0019094389 0.0027087068 0.006110539 0.0019402531 0.002736673 0.0021887226
0.0035096242 0.0022717775 0.002432523 0.0022945807 0.0020822715 0.0031749066 0.0018160488 0.0038918187
00000000: 33bb 413b 9992 da3a a810 893b 6e4a 863b
00000010: fa80 113b d042 4e3b c487 733b 04d9 f83a
00000020: 8f6f ee3a 4717 283b b0d8 093b 65a1 043b
00000030: 89ad 123b 6cd5 913b ed90 833b 3bbe de3a
00000040: 40a6 763b 1ad5 ea3a 64e1 bf3b 6520 fe3a
00000050: 4a99 143b ff04 833b d5b9 cb3a 2fc2 213b
00000060: 1dd5 343b 9b83 d43b 7762 de3a 4004 103b
00000070: 1751 133b 0a6e 4d3b b878 f23a 7f9c 033c
00000080: 0768 183b d2d3 123b e681 1e3b 4383 113b
00000090: 4891 283b 6193 133b f9d4 5e3b a687 0d3b
000000a0: 6fc9 f53a 8d7d 0c3b 7b35 393b 3f72 183b
000000b0: d78f 953b d133 183b 6eba 0b3b 0659 0c3b
000000c0: 6802 0b3b 9024 0d3b 6bfa 0e3b 3890 963b
000000d0: 591c d43a e0f6 153b 6742 e33a 4617 463b
000000e0: 65ba e63b df5c 6f3b 2a73 073b 29d1 203b
000000f0: e5ca 013b 4481 103b 7395 473b 3aa5 253b
00000100: db72 0b3b 40cd 253b 56a9 0b3b caed da3a
00000110: 36c6 133b c526 0c3b 146b 353b cc3e 293b
00000120: 3baa 513b 9f9f 523b 95ef d33a c353 a93b
00000130: 916c 003b 1e99 933b 6ac5 f43a 6949 933b
00000140: 68ab 163b c5df 233b 2346 fa3a 8f84 313b
00000150: eb3a c83b 1750 fe3a c159 333b ac70 0f3b
00000160: b901 663b 1ae2 143b f76a 1f3b ad60 163b
00000170: b876 083b 1812 503b 7c08 ee3a e20d 7f3b

inception3a.branch2.0.conv.weight_fake_quant.activation_post_process.min_vals f4 [96]
-0.32386962 -0.21261606 -0.53331894 -0.5225241 -0.28307703 -0.27863038 -0.43046346 -0.24206607
-0.23193787 -0.15329574 -0.26817963 -0.25803196 -0.28536114 -0.5674376 -0.5119226 -0.2036924
-0.47985536 -0.17009804 -0.671264 -0.24720104 -0.1583507 -0.5097958 -0.19817393 -0.22057515
-0.15937603 -0.8268904 -0.21632417 -0.28018367 -0.17282815 -0.39966285 -0.23586367 -1.024197
-0.18945189 -0.14521283 -0.16132505 -0.2830944 -0.3194525 -0.28710788 -0.43351853 -0.16417941
-0.23908862 -0.2733235 -0.36032313 -0.20522924 -0.5819439 -0.17410116 -0.2718407 -0.27304593
-0.12160705 -0.27459273 -0.27816346 -0.5858407 -0.20633025 -0.291755 -0.22106607 -0.385385
-0.89776105 -0.46567923 -0.24628519 -0.25303712 -0.25251085 -0.25543827 -0.10668926 -0.2400939
-0.27129674 -0.25189385 -0.18261905 -0.14301684 -0.28749418 -0.14191009 -0.20627396 -0.23588431
-0.40790227 -0.2666695 -0.20616014 -0.6588506 -0.19052608 -0.574303 -0.2381006 -0.5730915
-0.22214381 -0.12823793 -0.15923463 -0.3453601 -0.77909374 -0.24738227 -0.3489258 -0.27906212
-0.21377835 -0.24462885 -0.15615113 -0.28838962 -0.19984725 -0.21497945 -0.19248824 -0.49620688
00000000: 3dd2 a5be 06b8 59be 9787 08bf 24c4 05bf
00000010: 79ef 90be a4a8 8ebe b565 dcbe 2be0 77be
00000020: 1f81 6dbe 8ff9 1cbe d74e 89be c41c 84be
00000030: db1a 92be 9743 11bf 5c0d 03bf be94 50be
00000040: 9aaf f5be 2e2e 2ebe f5d7 2bbf 4522 7dbe
00000050: b026 22be fa81 02bf 1bee 4abe 74de 61be
00000060: 7833 23be 17af 53bf 1584 5dbe 3c74 8fbe
00000070: ddf9 30be 9ca0 ccbe 3f86 71be e318 83bf
00000080: adff 41be acb2 14be 6532 25be c0f1 90be
00000090: 478f a3be ceff 92be 24f6 ddbe a61e 28be
000000a0: a6d3 74be 0ff1 8bbe 467c b8be 9d27 52be
000000b0: 47fa 14bf 9347 32be b42e 8bbe adcc 8bbe
000000c0: 1e0d f9bd 6b97 8cbe 716b 8ebe a8f9 15bf
000000d0: 3d48 53be e960 95be 255f 62be 2f51 c5be
000000e0: abd3 65bf 826d eebe 2f32 7cbe 158e 81be
000000f0: 1a49 81be cec8 82be e67f dabd 2ddb 75be
00000100: 68e7 8abe 3bf8 80be 7d00 3bbe 0273 12be
00000110: 7032 93be e150 11be 7b39 53be a88b 71be
00000120: 91d8 d0be e888 88be a51b 53be 6faa 28bf
00000130: 4519 43be 8505 13bf a5d0 73be 20b6 12bf
00000140: ab79 63be ce50 03be 670e 23be 0ad3 b0be
00000150: b072 47bf c751 7dbe 67a6 b2be 3be1 8ebe
00000160: b6e8 5abe fc7f 7abe 15e6 1fbe cea7 93be
00000170: c2a4 4cbe 9323 5cbe a31b 45be d40e febe

inception3a.branch2.0.conv.weight_fake_quant.activation_post_process.max_vals f4 [96]
0.3769033 0.18752179 0.23644961 0.1773547 0.21116991 0.40127984 0.4737872 0.23637694
0.16341202 0.32702017 0.20555976 0.24933788 0.21451283 0.38576525 0.20516798 0.21667285
0.47227255 0.22843273 0.7466051 0.1869799 0.2890983 0.26196042 0.17376868 0.3147005
0.3518088 0.5832185 0.18563253 0.2305691 0.2866041 0.3572025 0.23340677 0.10822961
0.2965059 0.2856521 0.30837548 0.19095604 0.32794735 0.20636119 0.2739985 0.27534574
0.22929876 0.24107982 0.26877603 0.29658356 0.22888084 0.2961091 0.25932488 0.19552483
0.2704422 0.25606152 0.2434092 0.15042672 0.20125619 0.2675028 0.15493824 0.24349378
0.5651048 0.1824866 0.2635171 0.31286883 0.17892891 0.28113374 0.3882894 0.32226244
0.20032582 0.3225666 0.27171078 0.21296257 0.21986592 0.272664 0.35294846 0.32926598
0.17123608 0.40976712 0.19485079 0.33091575 0.2498485 0.3701239 0.2035032 0.16454017
0.29312697 0.31881633 0.24345346 0.32325253 0.45768225 0.19085145 0.1925408 0.18460572
0.44747707 0.28965163 0.3101467 0.29255903 0.2654896 0.4048006 0.23154622 0.17900106
00000000: 78f9 c03e b605 403e d91f 723e 789c 353e
00000010: ed3c 583e 8d74 cd3e 3c94 f23e cc0c 723e
00000020: 7b55 273e 306f a73e 427e 523e 6e52 7f3e
00000030: 40a9 5b3e 0683 c53e 8e17 523e 7ddf 5d3e
00000040: b5cd f13e 45ea 693e 8321 3f3f a977 3f3e
00000050: b104 943e ad1f 863e 6bf0 313e 6d20 a13e
00000060: 4820 b43e cf4d 153f 7416 3e3e 4e1a 6c3e
00000070: c6bd 923e 3fe3 b63e 2f02 6f3e 7ca7 dd3d
00000080: 9fcf 973e fe40 923e 64e3 9d3e fb89 433e
00000090: b7e8 a73e 5950 533e 8849 8c3e 1efa 8c3e
000000a0: 4bcd 6a3e a1dd 763e 039d 893e cdd9 973e
000000b0: bd5f 6a3e 9d9b 973e 3bc6 843e a937 483e
000000c0: 6677 8a3e 7f1a 833e 4340 793e 7609 1a3e
000000d0: 1a16 4e3e 21f6 883e 21a8 1e3e 6f56 793e
000000e0: b5aa 103f c4dd 3a3e b7eb 863e 5830 a03e
000000f0: 2439 373e c3f0 8f3e decd c63e 95ff a43e
00000100: 3622 4d3e 7327 a53e ad1d 8b3e dc12 5a3e
00000110: 8824 613e 9e9a 8b3e a9b5 b43e 8d95 a83e
00000120: 8358 2f3e ffcc d13e f786 473e ca6d a93e
00000130: 49d8 7f3e e180 bd3e 2563 503e 387d 283e
00000140: bd14 963e e53b a33e dd4b 793e 5b81 a53e
00000150: 5455 ea3e 906e 433e 6a29 453e 4809 3d3e
00000160: b71b e53e 384d 943e 8ccb 9e3e 4cca 953e
00000170: 41ee 873e 0642 cf3e 741a 6d3e 0e4c 373e

inception3a.branch2.1.conv.weight_fake_quant.scale f4 [128]
0.0018154274 0.0027499972 0.0020476852 0.0015150867 0.0019207217 0.002268937 0.0030642461 0.0015821187
0.002167753 0.0016581886 0.001549062 0.0016918435 0.004063805 0.005168654 0.0037127035 0.0021866644
0.002694687 0.0013612738 0.001146369 0.0019159326 0.0024650681 0.00177098 0.001816928 0.0034252785
0.002414317 0.0023203848 0.0012210658 0.0011114503 0.0014589354 0.002632425 0.001523365 0.0011478624
0.0023179604 0.0021931757 0.0021933673 0.0021258069 0.0018460654 0.0027182826 0.002009599 0.0018250752
0.001959935 0.0021143802 0.0023134986 0.0014615407 0.0013509886 0.0035093105 0.0017567798 0.0026718604
0.0018913388 0.0022195587 0.0020602688 0.002090501 0.0017174792 0.0020486964 0.0018253028 0.0022301255
0.0031200987 0.0027170873 0.0024041785 0.0023631111 0.0026151254 0.0020343235 0.0037805235 0.001667895
0.0014641046 0.0029118122 0.0015686225 0.0021266781 0.0017671651 0.001629062 0.0015011794 0.0019547709
0.002431981 0.00262184 0.0011637649 0.0016979866 0.0016556368 0.001516712 0.0013518288 0.007393401
0.0029462415 0.0010410579 0.0021423604 0.0018656878 0.0021601073 0.0023073251 0.0021907787 0.0012087912
0.0026718962 0.0029079954 0.00205965 0.0021202085 0.0018873868 0.0011625403 0.0013820933 0.0026424015
0.0031938734 0.0016088602 0.0010267305 0.0019367145 0.0033704496 0.0039918353 0.0012081461 0.0013396274
0.0032465574 0.0036520802 0.0027408416 0.0017468716 0.0022106678 0.0014911797 0.0019000983 0.002116662
0.0025946235 0.0012462775 0.0035071922 0.001462167 0.0027015123 0.0027273672 0.0039072875 0.0021693355
0.0031244503 0.0013024352 0.002143246 0.0034252827 0.0022641534 0.003548306 0.0029281124 0.0018064124
00000000: a3f3 ed3a 4c39 343b 7532 063b e095 c63a
00000010: bac0 fb3a 72b2 143b 85d1 483b 185f cf3a
00000020: dc10 0e3b 9457 d93a e509 cb3a d9c0 dd3a
00000030: ab29 853b d05d a93b d450 733b 244e 0f3b
00000040: 5999 303b c56c b23a c341 963a 0820 fb3a
00000050: fb8c 213b 3a20 e83a fd25 ee3a a37a 603b
00000060: 8539 1e3b 9911 183b 2b0c a03a 15ae 913a
00000070: c039 bf3a c384 2c3b a6ab c73a df73 963a
00000080: ece8 173b 62bb 0f3b 99be 0f3b 1f51 0b3b
00000090: adf7 f13a 3725 323b 7ab3 033b 5d37 ef3a
000000a0: 4172 003b 6a91 0a3b 119e 173b 2b91 bf3a
000000b0: a813 b13a 76fc 653b c043 e63a 611a 2f3b
000000c0: cde6 f73a 0476 113b 9305 073b c900 093b
000000d0: 0a1d e13a 6c43 063b 003f ef3a 4c27 123b
000000e0: 927a 4c3b 2911 323b 6c8f 1d3b 6dde 1a3b
000000f0: 8662 2b3b 4952 053b a9c2 773b 459d da3a
00000100: 33e7 bf3a 1ad4 3e3b 3d9a cd3a bd5f 0b3b
00000110: 39a0 e73a 4086 d53a 39c3 c43a 9d1b 003b
00000120: df61 1f3b 2dd3 2b3b 7889 983a fa8e de3a
00000130: f401 d93a 69cc c63a d92f b13a 5844 f23b
00000140: bb15 413b 1b74 883a d866 0c3b 188a f43a
00000150: 9690 0d3b 7e36 173b 2b93 0f3b 4d70 9e3a
00000160: fb1a 2f3b 1194 3e3b 31fb 063b 32f3 0a3b
00000170: 3162 f73a 6160 983a 5b27 b53a 242c 2d3b
00000180: 4e50 513b 64e0 d23a 5c93 863a 5bd9 fd3a
00000190: c3e2 5c3b f1cd 823b a85a 9e3a 7096 af3a
000001a0: 32c4 543b bd57 6f3b b19f 333b 49f7 e43a
000001b0: dae0 103b b073 c33a b80c f93a b2b7 0a3b
000001c0: 8f0a 2a3b 225a a33a ecd8 653b 2fa6 bf3a
000001d0: db0b 313b a1bd 323b b408 803b 692b 0e3b
000001e0: 94c3 4c3b 79b6 aa3a b375 0c3b b57a 603b
000001f0: 3162 143b b28a 683b 93e5 3f3b 24c5 ec3a

inception3a.branch2.1.conv.weight_fake_quant.activation_post_process.min_vals f4 [128]
-0.14713265 -0.21023041 -0.20535555 -0.19317356 -0.20322827 -0.20241515 -0.39069137 -0.20172013
-0.18347159 -0.17043224 -0.16549528 -0.21571004 -0.30979693 -0.375808 -0.32861817 -0.21491344
-0.14456467 -0.16850333 -0.105931886 -0.24428141 -0.19871096 -0.16555351 -0.19158195 -0.30695802
-0.30782542 -0.29584906 -0.15568589 -0.11030678 -0.13678747 -0.29065967 -0.19422904 -0.12996575
-0.28865308 -0.27962992 -0.13298391 -0.20955737 -0.23537333 -0.34658104 -0.115455285 -0.2326971
-0.24989173 -0.16157854 -0.14991014 -0.13746104 -0.17225105 -0.27923325 -0.1769815 -0.24345538
-0.2411457 -0.2218008 -0.2079873 -0.26653886 -0.16247013 -0.19652186 -0.1543597 -0.16946848
-0.34529167 -0.17201217 -0.23836596 -0.13559501 -0.16045439 -0.25937626 -0.48201674 -0.1913638
-0.1614037 -0.37125605 -0.17081463 -0.27115145 -0.17716599 -0.18704993 -0.15112717 -0.15292364
-0.31007758 -0.16393428 -0.14427142 -0.2164933 -0.07873506 -0.15357322 -0.17235817 -0.28888962
-0.24288653 -0.13273488 -0.27315095 -0.2378752 -0.2587724 -0.18612364 -0.20394999 -0.11876132
-0.1394205 -0.14126657 -0.23024453 -0.27032658 -0.17031503 -0.1295078 -0.16695474 -0.3369062
-0.29694542 -0.19239548 -0.10896653 -0.2469311 -0.42973232 -0.508959 -0.15403862 -0.1094547
-0.41393608 -0.46564022 -0.28847602 -0.17203252 -0.1888954 -0.16185343 -0.14587964 -0.19785002
-0.2019713 -0.10556672 -0.447167 -0.1864263 -0.27058384 -0.2213379 -0.49627367 -0.17362389
-0.1764995 -0.108500876 -0.27326384 -0.27506426 -0.28867957 -0.452409 -0.16767757 -0.23031758
00000000: f1a9 16be a446 57be ba48 52be 4acf 45be
00000010: 121b 50be eb45 4fbe b308 c8be b98f 4ebe
00000020: fadf 3bbe ca85 2ebe 9877 29be 18e3 5cbe
00000030: b49d 9ebe e869 c0be a440 a8be 4512 5cbe
00000040: c308 14be 238c 2cbe d1f2 d8bd e824 7abe
00000050: e37a 4bbe dc86 29be 0f2e 44be 9a29 9dbe
00000060: 4b9b 9dbe 8779 97be 1f6c 1fbe 85e8 e1bd
00000070: 0412 0cbe 58d1 94be fae3 46be be15 05be
00000080: 56ca 93be a72b 8fbe ef2c 08be 3596 56be
00000090: b505 71be 1273 b1be d273 ecbd 2648 6ebe
000000a0: 9ee3 7fbe d874 25be 0b82 19be 96c2 0cbe
000000b0: 9462 30be a9f7 8ebe a33a 35be 5e4c 79be
000000c0: e6ee 76be c01f 63be 9ffa 54be c877 88be
000000d0: 925e 26be 073d 49be 7810 1ebe 2589 2dbe
000000e0: 12ca b0be f523 30be 3516 74be 6bd9 0abe
000000f0: 284e 24be f7cc 84be e6ca f6be dff4 43be
00000100: 0347 25be 4615 bebe 08ea 2ebe 5dd4 8abe
00000110: 006b 35be 048a 3fbe 15c1 1abe 0498 1cbe
00000120: 7dc2 9ebe 63de 27be e3bb 13be 6bb0 5dbe
00000130: d93f a1bd 4c42 1dbe a97e 30be 57e9 93be
00000140: 3fb7 78be a7eb 07be 71da 8bbe 8e95 73be
00000150: d17d 84be 3297 3ebe 44d8 50be 2339 f3bd
00000160: 3fc4 0ebe 2fa8 10be 39c5 6bbe 3f68 8abe
00000170: 1067 2ebe b19d 04be 2ff6 2abe f87e acbe
00000180: 3b09 98be 5203 45be d829 dfbd 82db 7cbe
00000190: e005 dcbe 234b 02bf 4dbc 1dbe c929 e0bd
000001a0: 6eef d3be 6568 eebe 21b3 93be 4b29 30be
000001b0: cc6d 41be e8bc 25be 7961 15be 3299 4abe
000001c0: 91d1 4ebe 5d33 d8bd 13f3 e4be 89e6 3ebe
000001d0: f789 8abe 67a6 62be 9517 febe 76ca 31be
000001e0: 49bc 34be b535 debd 3de9 8bbe 39d5 8cbe
000001f0: cfcd 93be 27a2 e7be abb3 2bbe 5fd8 6bbe

inception3a.branch2.1.conv.weight_fake_quant.activation_post_process.max_vals f4 [128]
0.231467 0.35062465 0.26107988 0.13709164 0.24489202 0.28928947 0.27420434 0.1635724
0.2763885 0.21141905 0.1975054 0.13980894 0.51813513 0.6590034 0.4733697 0.2787997
0.34357262 0.17356241 0.14616205 0.17040476 0.3142962 0.22579995 0.23165832 0.436723
0.2948126 0.23230757 0.15421635 0.14170991 0.18601426 0.33563417 0.1730545 0.14635246
0.29553995 0.21965912 0.27965432 0.27104038 0.22727548 0.3434385 0.2562239 0.20184533
0.17415768 0.2695835 0.29497108 0.18634644 0.12027645 0.4474371 0.22398943 0.3406622
0.20784837 0.28299373 0.26268426 0.21471545 0.2189786 0.2612088 0.23272611 0.284341
0.39781258 0.34642863 0.30653277 0.30129668 0.33342847 0.24339426 0.31549382 0.21265662
0.18667334 0.35579392 0.19999938 0.19871871 0.22531356 0.20770541 0.19140038 0.24923329
0.20223843 0.3342846 0.14838003 0.20933664 0.2110937 0.19338079 0.15805998 0.94265866
0.3756458 0.13136953 0.21173842 0.1645435 0.27541366 0.29418397 0.2793243 0.15412088
0.34066677 0.3707694 0.26260537 0.1667946 0.24064182 0.14822389 0.1762169 0.28596723
0.40721887 0.20512968 0.13090815 0.22049367 0.29927242 0.21925509 0.12887926 0.1708025
0.32900798 0.31277063 0.3494573 0.22272614 0.28186014 0.1901254 0.24226253 0.2698744
0.33081448 0.15890038 0.34557387 0.17021938 0.3444428 0.3477393 0.49817914 0.2765903
0.3983674 0.16606049 0.20182754 0.43672353 0.19146144 0.2595467 0.37333432 0.15726611
00000000: af05 6d3e 1385 b33e 43ac 853e c061 0c3e
00000010: f9c4 7a3e c01d 943e 8364 8c3e 867f 273e
00000020: cb82 8d3e 3c7e 583e db3e 4a3e 132a 0f3e
00000030: 81a4 043f 72b4 283f 835d f23e d6be 8e3e
00000040: c0e8 af3e 58ba 313e 81ab 153e 967e 2e3e
00000050: 6eeb a03e 1a38 673e d737 6d3e 289a df3e
00000060: adf1 963e 09e2 6d3e e4ea 1d3e 671c 113e
00000070: 867a 3e3e 3ed8 ab3e 3335 313e 6bdd 153e
00000080: 0351 973e 52ee 603e da2e 8f3e cec5 8a3e
00000090: e7ba 683e 2cd7 af3e c72f 833e 8bb0 4e3e
000000a0: 6456 323e d906 8a3e 7306 973e 9ad1 3e3e
000000b0: 8053 f63d 7a16 e53e 7c5d 653e 476b ae3e
000000c0: 34d6 543e 8ee4 903e 8d7e 863e 5ede 5b3e
000000d0: ed3b 603e 29bd 853e c14f 6e3e 2595 913e
000000e0: 17ae cb3e 185f b13e ddf1 9c3e 8f43 9a3e
000000f0: 23b7 aa3e 583c 793e 6888 a13e a8c2 593e
00000100: 4c27 3f3e 9f2a b63e a3cc 4c3e eb7c 4b3e
00000110: 99b8 663e bab0 543e 76fe 433e 0337 7f3e
00000120: 9717 4f3e 5a27 ab3e eff0 173e 585c 563e
00000130: f228 583e 9d05 463e 7ada 213e 1452 713f
00000140: a554 c03e bc85 063e f5d1 583e 177e 283e
00000150: 0503 8d3e 489f 963e 9803 8f3e ddd1 1d3e
00000160: e06b ae3e 7dd5 bd3e 3674 863e 34cc 2a3e
00000170: cf6a 763e 01c8 173e 3472 343e 4c6a 923e
00000180: fe7e d03e 840d 523e c90c 063e 18c9 613e
00000190: 3c3a 993e 6884 603e edf8 033e dae6 2e3e
000001a0: bc73 a83e 7923 a03e 11ec b23e 5212 643e
000001b0: f94f 903e 3cb0 423e ab13 783e fa2c 8a3e
000001c0: 8460 a93e c8b6 223e 0fef b03e fd4d 2e3e
000001d0: cf5a b03e e30a b23e 5611 ff3e 3e9d 8d3e
000001e0: d0f6 cb3e c30b 2a3e e1ab 4e3e 3a9a df3e
000001f0: 780e 443e 4ee3 843e ad25 bf3e 5e0a 213e

inception3a.branch3.0.conv.weight_fake_quant.scale f4 [16]
0.0017273827 0.0031497588 0.0024613119 0.0031944923 0.0033130576 0.003127256 0.003091118 0.0032298102
0.0020885132 0.003263498 0.0028137618 0.0035497847 0.003149175 0.0030889243 0.0029982745 0.0019554675
00000000: 5869 e23a 2f6c 4e3b f64d 213b b05a 513b
00000010: e21f 593b a6f2 4c3b 5b94 4a3b 39ab 533b
00000020: 70df 083b 69e0 553b 1767 383b 81a3 683b
00000030: 6462 4e3b 8d6f 4a3b b37e 443b 4d27 003b

inception3a.branch3.0.conv.weight_fake_quant.activation_post_process.min_vals f4 [16]
-0.14635246 -0.29840448 -0.30393508 -0.20523664 -0.42241484 -0.32775244 -0.38726914 -0.4118008
-0.16007206 -0.416096 -0.1959972 -0.45259753 -0.40151983 -0.39383784 -0.13783824 -0.2493221
00000000: 6bdd 15be 79c8 98be 619d 9bbe 8e29 52be
00000010: c246 d8be 2bcf a7be 2448 c6be 8ed7 d2be
00000020: eee9 23be 890a d5be 7db3 48be ddba e7be
00000030: 0294 cdbe 1da5 c9be 7825 0dbe 4b4e 7fbe

inception3a.branch3.0.conv.weight_fake_quant.activation_post_process.max_vals f4 [16]
0.2202413 0.40159425 0.31381726 0.40729776 0.22399111 0.39872512 0.39411756 0.40245783
0.26628545 0.22598852 0.35875463 0.3596899 0.36696815 0.14590302 0.38228 0.13714229
00000000: ef86 613e c39d cd3e a8ac a03e 5589 d03e
00000010: ed5d 653e b325 cc3e c7c9 c93e f40e ce3e
00000020: 9156 883e 8969 673e b0ae b73e 4629 b83e
00000030: 40e3 bb3e 9a67 153e 34ba c33e 076f 0c3e

inception3a.branch3.1.conv.weight_fake_quant.scale f4 [32]
0.002266921 0.005246056 0.0023572252 0.0057487674 0.003043306 0.0027223302 0.0054446845 0.0033434802
0.0027889302 0.0023028017 0.0052625802 0.0031259079 0.000928782 0.0061489022 0.0035880501 0.0023672096
0.0032830138 0.002796046 0.0034456283 0.0015606933 0.0026710744 0.0048556468 0.0023721962 0.0032039406
0.0032496904 0.0029853617 0.002968443 0.007070456 0.0017255935 0.0031842561 0.0011530524 0.0022194588
00000000: a090 143b 1be7 ab3b ad7b 1a3b 2860 bc3b
00000010: 3472 473b 1f69 323b 5369 b23b 4a1e 5b3b
00000020: 7cc6 363b 9aea 163b b971 ac3b 08dc 4c3b
00000030: 8179 733a bb7c c93b 7e25 6b3b 3023 1b3b
00000040: d527 573b de3d 373b 0dd0 613b 2d90 cc3a
00000050: 310d 2f3b 1e1c 9f3b d976 1b3b 34f9 513b
00000060: c2f8 543b 0fa6 433b 368a 423b 49af e73b
00000070: 4f2d e23a f4ae 503b 0522 973a 5774 113b

inception3a.branch3.1.conv.weight_fake_quant.activation_post_process.min_vals f4 [32]
-0.28654075 -0.22440962 -0.1625621 -0.43425184 -0.25791407 -0.14674266 -0.679955 -0.2276796
-0.32286644 -0.11697336 -0.39849102 -0.33686963 -0.10164523 -0.27342927 -0.051664557 -0.30181924
-0.06391295 -0.22630626 -0.4393176 -0.13270153 -0.14843445 -0.38951975 -0.19219746 -0.38366574
-0.061353754 -0.26905087 -0.3784765 -0.3929367 -0.12692605 -0.2116925 -0.057787955 -0.282981
00000000: 78b5 92be a3cb 65be ae76 26be 4256 debe
00000010: 500d 84be b543 16be 8811 2ebf d724 69be
00000020: c04e a5be bb8f efbd 0407 ccbe 2d7a acbe
00000030: 602b d0bd ecfe 8bbe 379e 53bd 0d88 9abe
00000040: cbe4 82bd d4bc 67be 3dee e0be e9e2 07be
00000050: 33ff 17be 226f c7be 69cf 44be d66f c4be
00000060: 134e 7bbd 09c1 89be acc7 c1be 002f c9be
00000070: e7f8 01be ebc5 58be 10b3 6cbd e3e2 90be

inception3a.branch3.1.conv.weight_fake_quant.activation_post_process.max_vals f4 [32]
0.28903243 0.6688721 0.3005462 0.73296785 0.38802153 0.3470971 0.6941973 0.42629373
0.35558861 0.2936072 0.67097896 0.39855325 0.1184197 0.783985 0.4574764 0.2592345
0.41858426 0.35649586 0.35966653 0.1989884 0.340562 0.61909497 0.302455 0.40850243
0.41433552 0.38063362 0.3018256 0.9014832 0.22001317 0.40599266 0.14701419 0.18975618
00000000: 0ffc 933e 343b 2b3f 31e1 993e c8a3 3b3f
00000010: c2aa c63e b6b6 b13e eab6 313f 2c43 da3e
00000020: b60f b63e af53 963e 47c5 2b3f 2c0f cc3e
00000030: 0786 f23d 3eb3 483f 593a ea3e 62ba 843e
00000040: ad50 d63e a086 b63e 3626 b83e 9dc3 4b3e
00000050: 245e ae3e 027d 1e3f 62db 9a3e 3b27 d13e
00000060: c923 d43e 69e2 c23e e388 9a3e 9ac7 663f
00000070: 224b 613e 45de cf3e e38a 163e 724f 423e

inception3a.branch4.1.conv.weight_fake_quant.scale f4 [32]
0.0029732203 0.002567298 0.0024223744 0.0019897718 0.0026183063 0.009028467 0.003492452 0.00471947
0.0040834765 0.00566848 0.008533169 0.0067674723 0.0019163239 0.006446813 0.004818729 0.0026965386
0.0032202143 0.002217409 0.0025243582 0.0068177204 0.003285325 0.0036244625 0.00157716 0.0029392974
0.0050374935 0.00200957 0.009091857 0.002854371 0.0018167802 0.0035957587 0.005288999 0.0014001336
00000000: 5cda 423b 1d40 283b b3c0 1e3b d566 023b
00000010: e497 2b3b 23ec 133c 9fe1 643b c9a5 9a3b
00000020: afce 853b a8be b93b b4ce 0b3c acc1 dd3b
00000030: 292d fb3a c93f d33b 6ee6 9d3b 69b8 303b
00000040: 3b0a 533b f351 113b b46f 253b 2f67 df3b
00000050: 9b4e 573b 6488 6d3b b5b8 ce3a 3aa1 403b
00000060: 8f11 a53b fdb2 033b 03f6 143c 6610 3b3b
00000070: 0721 ee3a d2a6 6b3b 574f ad3b b084 b73a

inception3a.branch4.1.conv.weight_fake_quant.activation_post_process.min_vals f4 [32]
-0.3790856 -0.32315323 -0.30885273 -0.2536959 -0.16475941 -1.1511296 -0.44528762 -0.60173243
-0.52064323 -0.1659457 -1.087979 -0.50714535 -0.2443313 -0.8219686 -0.614388 -0.34380868
-0.41057733 -0.28271964 -0.32185566 -0.08925927 -0.4188789 -0.46211898 -0.20108789 -0.37476042
-0.6422804 -0.25622016 -1.1592118 -0.3639323 -0.18505466 -0.45845923 -0.6743474 -0.17851703
00000000: 8217 c2be 5774 a5be f221 9ebe 6ee4 81be
00000010: b1b6 28be 3758 93bf bdfc e3be 230b 1abf
00000020: e048 05bf abed 29be e542 8bbf 47d4 01bf
00000030: fc31 7abe 896c 52bf 8848 1dbf b107 b0be
00000040: 3137 d2be a1c0 90be 44ca a4be 90cd b6bd
00000050: 4c77 d6be dc9a ecbe fce9 4dbe 99e0 bfbe
00000060: 7d6c 24bf 4a2f 83be 0d61 94bf 5655 babe
00000070: f87e 3dbe 2bbb eabe 08a2 2cbf 2bcd 36be

inception3a.branch4.1.conv.weight_fake_quant.activation_post_process.max_vals f4 [32]
0.21615595 0.3273305 0.18069912 0.20757532 0.33383405 0.2025538 0.29818237 0.27346855
0.1363582 0.7227312 0.6973973 0.8628527 0.19936617 0.25403208 0.18614912 0.1727446
0.16346008 0.27588665 0.18651305 0.86925936 0.22184834 0.27265137 0.15559384 0.20709606
0.07166597 0.16920592 0.47722036 0.3075168 0.23163947 0.42616466 0.24384211 0.12811513
00000000: fc57 5d3e dd97 a73e 3109 393e a08e 543e
00000010: 4cec aa3e 436a 4f3e 5cab 983e 1204 8c3e
00000020: 7ca1 0b3e e904 393f a188 323f eae3 5c3f
00000030: a526 4c3e 7e10 823e e09d 3e3e f6e3 303e
00000040: 1462 273e 0441 8d3e 47fd 3e3e c887 5e3f
00000050: 362c 633e f698 8b3e fe53 1f3e fd10 543e
00000060: 9cc5 923d 5144 2d3e 3a56 f43e d872 9d3e
00000070: e632 6d3e 4132 da3e bfb1 793e 9d30 033e
