linearcode/quants/mobilenet.pth (torch, 604765 bytes, 162 tensors)

features.0.0.weight_fake_quant.scale f4 [16]
000000 5f ae 1c 3c d0 ae 59 3c 77 fc 87 3c 79 75 95 3c
       0.009563058 0.013286307 0.016599877 0.018244492
000010 e9 7d 41 3c 9e 34 5d 3c fa 10 be 3b a6 b9 2e 3c
       0.0118098045 0.013501314 0.0058003636 0.010664379
000020 d0 32 2d 3c 31 58 21 3c 9c 5f 7a 3c 54 a6 25 3d
       0.010571197 0.009847687 0.015281584 0.040441826
000030 2e c6 91 3b 08 24 a5 3b 8d 38 b0 3b 62 74 80 3c
       0.0044486737 0.0050396957 0.005377835 0.015680496

features.0.0.weight_fake_quant.activation_post_process.min_vals f4 [16]
000000 8f 43 80 bf 21 d5 d8 bf 7b 74 07 c0 3b c5 f9 be
       -1.0020617 -1.6940042 -2.1164844 -0.48783287
000010 6f 1d 7e bf 69 57 dc bf e9 52 3d bf ec 0a ae bf
       -0.9926366 -1.7214175 -0.73954636 -1.3597083
000020 9d 85 ac bf 03 29 7e bf 3c 65 f9 bf ae 00 a5 c0
       -1.3478276 -0.9928133 -1.9484019 -5.156333
000030 68 34 11 bf 75 98 64 be d3 2b 47 bd db e7 ff bf
       -0.5672059 -0.22323783 -0.04862578 -1.9992632

features.0.0.weight_fake_quant.activation_post_process.max_vals f4 [16]
000000 b1 11 9c 3f 43 15 d5 3f 70 d6 9d 3f 04 e0 14 40
       1.2192899 1.6647114 1.2331066 2.3261728
000010 6b bc c0 3f 31 7c 9f 3f d4 70 34 3e e5 67 4c 3f
       1.5057501 1.2459775 0.17621166 0.7984603
000020 11 71 a8 3f d9 b6 a0 3f 95 63 9b 3f 74 da 9c 40
       1.3159505 1.2555801 1.2139765 4.9016666
000030 7d 22 04 3e e4 7e 24 3f 54 88 2f 3f f1 8c 57 3e
       0.12903781 0.6425612 0.68567395 0.21049859

features.1.block.0.0.weight_fake_quant.scale f4 [16]
000000 74 85 b0 3c d8 df 1f 3c 78 20 f2 3b d8 7c a2 3b
       0.02154801 0.009757958 0.0073891245 0.00495873
000010 48 61 31 3c 84 70 47 3c fe 1f 05 3d f5 ad b9 3b
       0.010826416 0.012172822 0.032501213 0.0056664892
000020 2f 95 16 3c fa ae a2 3c 4f 8b e2 3b 5f 6c cd 3b
       0.009190842 0.019858826 0.0069135795 0.0062690224
000030 88 f7 d4 3c 04 dd f8 3c 76 e5 01 3d b9 5f cb 3b
       0.025996938 0.030378826 0.03171297 0.0062064794

features.1.block.0.0.weight_fake_quant.activation_post_process.min_vals f4 [16]
000000 ef d4 2f c0 a0 1e 45 bf 58 2e 71 bf bd 72 9c be
       -2.7473714 -0.76999855 -0.9421134 -0.30556288
000010 0b 2b 9a bf 13 a9 c6 bf c8 94 80 c0 47 f4 38 bf
       -1.2044386 -1.5520347 -4.018162 -0.7224774
000020 9a fe 95 bf 17 ce 0c c0 3d 97 6f bd 17 2e 10 3e
       -1.1718323 -2.2000787 -0.05849384 0.14080082
000030 90 22 54 c0 27 e4 77 c0 91 63 81 c0 59 94 4a bf
       -3.3146095 -3.8733003 -4.043404 -0.7913261

features.1.block.0.0.weight_fake_quant.activation_post_process.max_vals f4 [16]
000000 31 7b 23 40 f8 3f 9f 3f 05 ff 55 3d 5b da 21 3f
       2.554394 1.2441397 0.05224516 0.6322381
000010 e7 af b0 3f e0 1b 94 3f de 9a 84 40 2f 7c 10 3f
       1.3803681 1.1571007 4.1439047 0.5643949
000020 8b 27 8f 3f 4b 0c 22 40 c4 a8 61 3f f3 9e 4c 3f
       1.1183943 2.5320003 0.8814814 0.7993004
000030 38 ea 4d 40 db 8f 61 40 e7 20 7b 40 d9 41 73 3e
       3.2174206 3.5244052 3.9238832 0.23755588

features.1.block.1.fc1.weight_fake_quant.scale f4 [8]
000000 00 00 00 34 00 00 00 34 ee 58 ba 37 00 00 00 34
       1.1920929e-07 1.1920929e-07 2.2214339e-05 1.1920929e-07
000010 00 00 00 34 00 00 00 34 00 00 00 34 00 00 00 34
       1.1920929e-07 1.1920929e-07 1.1920929e-07 1.1920929e-07

features.1.block.1.fc1.weight_fake_quant.activation_post_process.min_vals f4 [8]
000000 8d 1b 28 b2 57 d2 eb b1 95 9e 39 bb e8 63 c8 b1
       -9.785151e-09 -6.863313e-09 -0.0028323282 -5.832124e-09
000010 e9 8a d9 b1 fd 38 97 b2 cb 02 2a b2 07 ef 05 b2
       -6.3313235e-09 -1.7604629e-08 -9.895937e-09 -7.795967e-09

features.1.block.1.fc1.weight_fake_quant.activation_post_process.max_vals f4 [8]
000000 9b 78 f7 31 a4 32 9f 31 a0 16 69 3a e1 a7 87 31
       7.2023574e-09 4.633266e-09 0.0008891616 3.9481027e-09
000010 6b c8 df 30 dd 26 4d 32 fd c9 cc 31 69 30 85 31
       1.6282348e-09 1.1941407e-08 5.960145e-09 3.876313e-09

features.1.block.1.fc2.weight_fake_quant.scale f4 [16]
000000 38 3b 90 37 3b 7c 4d 37 94 5f 12 37 91 bd 7d 37
       1.7193714e-05 1.2247877e-05 8.724532e-06 1.5124112e-05
000010 3d 22 a0 37 4b 57 6f 36 42 56 94 37 ad 73 83 37
       1.908943e-05 3.5664586e-06 1.7683142e-05 1.5670283e-05
000020 72 63 3c 37 47 32 5c 37 6b f8 f3 36 46 59 0a 37
       1.1228827e-05 1.3124728e-05 7.270884e-06 8.246227e-06
000030 f9 c7 8a 37 95 27 b0 37 dd 53 8a 37 3b 18 0a 37
       1.6544001e-05 2.0999267e-05 1.6489934e-05 8.231083e-06

features.1.block.1.fc2.weight_fake_quant.activation_post_process.min_vals f4 [16]
000000 79 de 00 b1 15 15 d5 b1 db 92 8a b1 d8 4e 44 b1
       -1.8752913e-09 -6.2015126e-09 -4.033024e-09 -2.8566571e-09
000010 13 8a c6 b0 9c 73 9d b1 35 b8 9b b1 c4 54 44 b1
       -1.4445639e-09 -4.5824446e-09 -4.5320356e-09 -2.8569938e-09
000020 7d bd 64 b1 5d 9e 7c b1 58 68 ee b1 84 50 64 b1
       -3.3286078e-09 -3.6760845e-09 -6.938574e-09 -3.3224135e-09
000030 e1 1e 96 b0 71 53 76 b1 19 3e bb b0 f4 26 67 b1
       -1.0922713e-09 -3.5845142e-09 -1.362369e-09 -3.3637066e-09

features.1.block.1.fc2.weight_fake_quant.activation_post_process.max_vals f4 [16]
000000 fd aa 0f 3b bf ae cc 3a 34 cd 91 3a d3 bf fc 3a
       0.0021921985 0.0015616043 0.0011123777 0.0019283242
000010 1b 82 1f 3b f4 67 ee 39 ec c1 13 3b 39 f0 02 3b
       0.0024339024 0.0004547235 0.0022546006 0.001997961
000020 0f a7 bb 3a 15 56 db 3a 73 04 73 3a ed ce 89 3a
       0.0014316755 0.0016734028 0.00092703773 0.0010513939
000030 31 3d 0a 3b 6d 77 2f 3b 89 c9 09 3b 23 8e 89 3a
       0.0021093602 0.0026774064 0.0021024665 0.001049463

features.1.block.2.0.weight_fake_quant.scale f4 [16]
000000 76 ab 89 3c b2 31 8a 3c dc aa 02 3d a1 9c 79 3c
       0.016805392 0.0168694 0.031901225 0.015235097
000010 7f 98 a5 3c 62 82 51 3c a6 71 a0 3c 1d 9a ad 3c
       0.020214317 0.012787433 0.019585442 0.021191651
000020 18 cd 40 3c 3c 57 8e 3c bd ab cd 3c de ad 77 3c
       0.011767648 0.017375581 0.025106305 0.015117137
000030 a5 01 47 3c 8b 2e 8c 3c 5f 48 87 3c 31 9c c5 3c
       0.012146388 0.017112037 0.016514001 0.02412233

features.1.block.2.0.weight_fake_quant.activation_post_process.min_vals f4 [16]
000000 cb 21 09 c0 bd e7 4c bf d5 15 1c be 04 a3 f8 bf
       -2.1426876 -0.80041105 -0.15242703 -1.9424748
000010 db a3 99 bf 67 39 a3 bf f1 2b 97 bf 83 ea 77 bf
       -1.200313 -1.2751893 -1.1810285 -0.9684221
000020 34 91 8a bf df fa b0 bf 9f ad 7f bf 30 b6 f6 bf
       -1.0825562 -1.382656 -0.998743 -1.9274349
000030 2c 0b a2 bf 58 66 6d bf 37 d0 11 bf 95 d6 44 c0
       -1.2659659 -0.9273429 -0.56958336 -3.075597

features.1.block.2.0.weight_fake_quant.activation_post_process.max_vals f4 [16]
000000 5b c2 e0 3e 80 a7 09 40 31 28 82 40 ed 90 a5 3f
       0.4389828 2.1508484 4.067406 1.2934853
000010 e7 f2 24 40 e0 b0 d0 3f 34 d1 1f 40 83 ec 2c 40
       2.5773256 1.6303978 2.4971437 2.7019355
000020 4b 0c c0 3f e5 c8 0d 40 11 de 4c 40 23 ed e9 3f
       1.5003752 2.2153866 3.2010539 1.8275493
000030 a3 3a c6 3f 5c a2 0b 40 17 c1 06 40 f5 20 e9 3d
       1.5486645 2.1817846 2.1055353 0.11383239

features.2.block.0.0.weight_fake_quant.scale f4 [72]
000000 f8 e8 1e 3c c3 d5 fa 3b 9a 0d 13 3c 85 77 b5 3b
       0.009699099 0.007654877 0.008975411 0.0055379295
000010 53 57 29 3c ee 91 f6 3b b2 16 42 3c c8 60 cf 3b
       0.010335761 0.0075247204 0.011846231 0.006328676
000020 41 76 ee 3b 3b ea 5a 3c bb dd 46 3c fc b3 97 3b
       0.0072772806 0.013361509 0.012137826 0.00462961
000030 96 19 3e 3c d7 0a 83 3c 50 2f b1 3b 00 00 00 34
       0.01160278 0.01599638 0.0054072514 1.1920929e-07
000040 74 3d d9 3c 7a 4b 29 3c 78 01 6b 3c 7b 2c 91 3c
       0.026518561 0.010332936 0.014343612 0.017721405
000050 00 00 00 34 b1 b4 84 3c 76 1d 8a 3c e2 78 41 3c
       1.1920929e-07 0.016199442 0.016859751 0.011808606
000060 b9 87 5e 3c 4b 96 bd 3b 13 53 22 3c 2e a2 0b 3c
       0.0135821635 0.0057857386 0.009907502 0.008522553
000070 8b b3 03 3c 72 9f b3 3b 40 0a 1c 3c 90 8a 78 3c
       0.008038412 0.005481654 0.009523928 0.015169755
000080 d1 14 50 3c ca 56 0f 3c 1b 46 98 3c 00 00 00 34
       0.0127002755 0.0087487195 0.018588116 1.1920929e-07
000090 00 00 00 34 18 4d a2 3c 00 00 00 34 0b 34 88 3b
       1.1920929e-07 0.019812152 1.1920929e-07 0.0041565946
0000a0 ff ba a6 3b d4 58 62 3c b5 8b b8 3b 32 ca b1 3b
       0.0050882096 0.013815124 0.0056318888 0.005425715
0000b0 d9 2f dc 3b e0 46 cf 3b 10 5c fa 3b 6f 3c 98 3c
       0.006719571 0.0063255876 0.0076403692 0.018583504
0000c0 09 46 91 3b ec c8 30 3c a1 eb 99 3c 6d ab 86 3c
       0.0044333977 0.010790091 0.018789114 0.016439164
0000d0 14 43 85 3c 0c b2 02 3c c1 23 86 3c 03 74 47 3c
       0.016267337 0.00797702 0.01637447 0.012173655
0000e0 cf 57 b2 3b 78 5c 26 3c 87 02 a6 3b 08 94 bc 3b
       0.0054425965 0.010153882 0.0050662193 0.0057549514
0000f0 12 0f 9a 3c e4 a6 24 3c fe da 26 3c dc b6 60 3c
       0.018806014 0.010049555 0.010184048 0.013715472
000100 fb 1f 1a 3c 83 2a 79 3c 22 9b 82 3b 6a 7d a7 3b
       0.009407039 0.0152078895 0.0039857784 0.005111386
000110 9f 6b bc 3b 41 85 bb 3b 7b 94 9c 3b 91 0f 42 3c
       0.005750134 0.005722672 0.0047784424 0.011844532

features.2.block.0.0.weight_fake_quant.activation_post_process.min_vals f4 [72]
000000 0b 67 64 bf dd da fa be 43 04 81 bf e8 b1 e8 be
       -0.8921973 -0.48995104 -1.0079426 -0.45448232
000010 fc ad a8 bf 5c 9b 75 bf 3e 59 95 bf 67 91 4e bf
       -1.3178096 -0.95940185 -1.166786 -0.80690616
000020 a9 c8 c8 be 1f 83 3e bf 69 47 55 bf e3 c0 10 bf
       -0.39215592 -0.74418825 -0.8331209 -0.5654432
000030 7c 5b bd bf cc 87 02 c0 21 7e 30 bf 71 3a b7 b1
       -1.4793544 -2.0395384 -0.6894246 -5.332645e-09
000040 4b 2d 97 bf 7f 8d 26 bf 77 16 ea bf 4f 9b 10 c0
       -1.1810697 -0.65059656 -1.8288106 -2.2594793
000050 98 12 b8 b2 fc 2f 04 c0 59 93 09 c0 81 a8 25 bf
       -2.1428875e-08 -2.0654287 -2.1496184 -0.6471024
000060 31 a9 dd bf cf fd d5 be c0 b0 a1 bf 8c 16 8b bf
       -1.7317258 -0.41795203 -1.2632065 -1.0866256
000070 d7 2f 83 bf d3 eb 32 bf 7c 8f bd be fc c4 86 bf
       -1.0248975 -0.6989109 -0.37023532 -1.0528865
000080 bc 44 cf bf 73 c7 8e bf d5 ad 17 c0 11 84 9a b1
       -1.6192851 -1.1154617 -2.3699849 -4.497004e-09
000090 d1 30 44 b1 cb aa 21 c0 43 f4 a5 b1 d7 ab 07 bf
       -2.8549503e-09 -2.5260494 -4.8299014e-09 -0.5299658
0000a0 1f ca e4 be 7b 76 e1 bf d7 f2 1b bf 68 18 31 bf
       -0.44685456 -1.7614282 -0.6091742 -0.69177866
0000b0 a9 53 5b bf 99 77 4e bf 38 1d 37 bf 33 a4 17 c0
       -0.8567453 -0.8065124 -0.7152896 -2.369397
0000c0 c3 b4 10 bf 23 18 b0 bf 88 97 46 bf 1c b1 f7 bf
       -0.5652582 -1.3757366 -0.7757497 -1.9350924
0000d0 0b f4 21 bf dd fc c5 be 34 b1 8a bd 8f ac c6 bf
       -0.63263005 -0.38669482 -0.0677208 -1.5521411
0000e0 77 a5 31 bf 1c b6 a5 bf ec cc 97 be fb 48 04 bf
       -0.69393104 -1.29462 -0.2964853 -0.5167386
0000f0 18 6f 21 bf 3d 02 a4 bf 23 34 a6 bf bb c9 46 be
       -0.6306014 -1.2813183 -1.2984661 -0.19412892
000100 ec 0b 89 be 58 31 f8 bf 6b 00 c4 be 55 e1 00 bf
       -0.26766908 -1.9390059 -0.3828157 -0.5034383
000110 27 d8 11 bf b5 c7 d9 be 93 25 0f bf 0d 55 6e bf
       -0.5697045 -0.42535177 -0.5591671 -0.9309853

features.2.block.0.0.weight_fake_quant.activation_post_process.max_vals f4 [72]
000000 0f 4a 9e 3f ed da 79 3f 8c 7a 92 3f 0d c2 34 3f
       1.2366351 0.9759968 1.1443648 0.706086
000010 39 c8 12 3f f5 d0 07 3f 9b 54 c1 3f 73 05 40 3f
       0.57336766 0.5305322 1.5103945 0.75008315
000020 cb 87 6d 3f 51 0f da 3f dd 16 c6 3f 48 1c 17 3f
       0.9278533 1.7035924 1.5475727 0.5902753
000030 2b 10 8d 3f f7 81 7e 3f 69 88 12 3f 08 c7 a4 31
       1.1020559 0.9941706 0.57239395 4.7956554e-09
000040 37 64 58 40 2f a2 a8 3f c8 bc 62 3e cb 25 11 3d
       3.3811166 1.3174495 0.22142327 0.035436433
000050 31 55 df 32 5b 2e ab 3f ec 8b bd 3f 69 b7 c0 3f
       2.5999357e-08 1.3373522 1.4808326 1.5055972
000060 21 76 fb 3d b5 d8 3c 3f e5 70 3f 3f 37 fd 51 3f
       0.12278391 0.7376817 0.7478164 0.82027
000070 4c a5 65 3f 91 82 e2 3e 36 6e 9b 3f 05 92 f7 3f
       0.8970535 0.4424024 1.2143009 1.9341437
000080 10 b9 20 3f cb f5 c9 3e 0f 9d 24 3f 04 fb 76 31
       0.6278238 0.39445338 0.6430215 3.5940397e-09
000090 01 ec 73 31 1b 2a 49 3f 29 93 80 31 d4 d9 03 3f
       3.5495307e-09 0.7857987 3.7420205e-09 0.51504254
0000a0 44 14 26 3f 2f cc 87 3f 29 d3 37 3f e8 46 da 3e
       0.6487467 1.0609187 0.7180658 0.42632222
0000b0 4d ce 26 3f 81 8c 00 3f b4 61 79 3f af c8 57 3f
       0.6515854 0.5021439 0.9741471 0.84290594
0000c0 7c c6 a7 3e b3 e7 5e 3f b5 51 19 40 c2 24 06 40
       0.3276862 0.87072295 2.395612 2.0959935
0000d0 d1 bd 04 40 5a 2f 82 3f 9d 9d 05 40 cb 6b 68 3f
       2.0740855 1.01707 2.087745 0.9078948
0000e0 69 3d a9 3e ab 60 87 3f 84 5c 25 3f 74 d7 3b 3f
       0.33054665 1.0576376 0.6459429 0.7337563
0000f0 03 75 19 40 3f 95 44 3f fc 8b 75 3d 25 d6 df 3f
       2.3977668 0.7679023 0.059947953 1.7487227
000100 db 85 99 3f 10 65 4d 3f 87 18 02 3f ed d5 26 3f
       1.1993974 0.80232334 0.50818676 0.65170175
000110 33 af 3b 3f bc c9 3a 3f e7 f7 1b 3f 81 4d c1 3f
       0.7331421 0.7296407 0.60925144 1.5101777

features.2.block.1.0.weight_fake_quant.scale f4 [72]
000000 d0 43 9d 3b 9c c2 05 3c e4 ab 96 3b e0 86 9f 3b
       0.0047993436 0.008164074 0.0045981277 0.0048683733
000010 38 d5 6e 3c d4 ff 03 3c d3 ff 88 3b 24 d4 ec 3b
       0.0145772025 0.0080566 0.0041808872 0.0072274376
000020 d0 72 b6 3b fb a7 88 3b 84 6e 7b 3b ee 9a 1d 3c
       0.005567886 0.0041704155 0.0038365433 0.009619458
000030 0f 08 7c 3b 22 b9 a2 3b e3 fa 8c 3c 00 00 00 34
       0.0038456952 0.004965917 0.017209476 1.1920929e-07
000040 ae 2a d8 3b c7 8e e3 3b 99 de 87 3b 3c 31 6b 3c
       0.0065968847 0.0069445106 0.0041464088 0.014355
000050 00 00 00 34 58 94 df 3b ce 6d 9a 3b 43 78 84 3c
       1.1920929e-07 0.006823104 0.004712797 0.016170627
000060 9f 1e 2d 3b b8 ef 35 3c 08 13 78 3b b0 ae 99 3b
       0.0026415957 0.011104517 0.003785314 0.004690014
000070 f2 65 77 3b df d7 2b 3c 68 01 3e 3b 7f 28 ac 3b
       0.0037749973 0.010488479 0.0028992537 0.005253851
000080 7a 6e 9d 3c 96 ca 89 3b f0 bf ee 3b 00 00 00 34
       0.019217718 0.0042050583 0.0072860643 1.1920929e-07
000090 00 00 00 34 5b f6 b2 3b 00 00 00 34 c8 1f 0a 3c
       1.1920929e-07 0.0054614968 1.1920929e-07 0.008430429
0000a0 e6 dc bf 3b 53 d0 76 3b f9 13 4a 3c e1 21 ac 3b
       0.0058551906 0.0037660792 0.012333863 0.005253062
0000b0 5f e7 03 3c 52 92 3e 3c 1b af ec 3b 5d 02 cc 3b
       0.008050769 0.011631565 0.0072230226 0.0062258677
0000c0 ff df e2 3b f6 47 8d 3b 84 7c 8e 3b f5 7c dd 3b
       0.006923675 0.004311557 0.0043483395 0.006759281
0000d0 f1 28 99 3b 5b af 2b 3c 36 1e 61 3c cd 73 6b 3b
       0.00467407 0.01047882 0.013740113 0.0035927177
0000e0 64 f7 50 3c 6a f1 81 3b e3 e7 ed 3b c6 2d d0 3b
       0.012754295 0.0039655464 0.007260309 0.006353113
0000f0 4f 5b 98 3b 07 2a c7 3b ba 14 5e 3b 7a c7 82 3b
       0.0046495567 0.006078008 0.0033886866 0.0039910646
000100 88 44 54 3c 23 80 5e 3b c7 1a 15 3c 03 1a cf 3b
       0.012955792 0.0033950887 0.0091006225 0.0063202395
000110 38 07 bb 3b b5 64 53 3c c4 d2 21 3c 69 d0 5e 3b
       0.0057076477 0.012902428 0.009876911 0.0033998734

features.2.block.1.0.weight_fake_quant.activation_post_process.min_vals f4 [72]
000000 8c a6 1c bf d9 3c 85 bf 38 15 16 bf 59 e7 1e bf
       -0.6119163 -1.0409194 -0.5862613 -0.6207176
000010 63 e6 ed bf d4 7b 83 bf d3 76 08 bf 50 e7 6b bf
       -1.8585933 -1.0272164 -0.5330631 -0.9214983
000020 5d bc 35 bf 53 1f 08 bf 15 73 fa be 53 fd 9c bf
       -0.70990545 -0.53172797 -0.48915926 -1.2264808
000030 07 0c fb be 01 86 11 3e e8 6d 0c c0 ad 07 d6 b0
       -0.49032614 0.14211275 -2.1942081 -1.5572731e-09
000040 a0 a9 61 bc 38 ab 62 bf 5e e3 05 bd 0b 46 ea bf
       -0.013773352 -0.8854251 -0.032687537 -1.8302625
000050 9d 2c 36 b0 f7 64 b0 3d 99 91 cf 3d cb f3 03 c0
       -6.6274614e-10 0.086130075 0.101351924 -2.061755
000060 80 71 ac be f8 e1 af bf f5 1a f7 be 01 15 19 bf
       -0.33680344 -1.3740835 -0.48262754 -0.59797674
000070 8c 6e f6 be 07 2c ab bf 67 43 bd be 57 7c 2b bf
       -0.48131216 -1.3372811 -0.36965486 -0.669866
000080 0c d1 1c c0 80 b4 5a 3c 60 3d be 3d 8c 73 bd b1
       -2.4502592 0.013348699 0.0928905 -5.51376e-09
000090 d9 c7 94 b1 48 f8 06 be 51 43 2c b1 a8 95 89 bf
       -4.330087e-09 -0.1318065 -2.506756e-09 -1.0748796
0000a0 1c 1c 06 bf 83 d9 f5 be e5 49 c9 bf bf 75 2b bf
       -0.5238664 -0.4801751 -1.5725676 -0.6697654
0000b0 b1 9e 3f bf c0 d3 bd bf 6c c2 6b bf b3 fc a1 bc
       -0.7485152 -1.4830246 -0.9209354 -0.019773817
0000c0 9b 5d 58 bf ae ba 0c bf 43 4d d6 bd 71 ad 0e 3d
       -0.8451783 -0.5497235 -0.10463955 0.034833375
0000d0 c8 8f 18 bf ac 03 ab bf e0 9e b0 bf 59 88 ea be
       -0.5959439 -1.3360496 -1.3798485 -0.4580715
0000e0 6d 26 d0 bf 79 6f 01 bf fb f9 6c bf 98 5d 4f bf
       -1.6261727 -0.5056072 -0.9256894 -0.8100219
0000f0 4b 6a 23 3d dd 62 46 bf a5 36 dd be 31 81 46 bd
       0.03989629 -0.77494603 -0.43205753 -0.04846305
000100 43 70 d3 bf a3 a1 dd be 53 e2 57 bf c8 46 12 bf
       -1.6518635 -0.43287382 -0.8432972 -0.57139254
000110 31 4c 3a bf 50 91 d2 bf f1 30 a1 bf 99 f1 dd be
       -0.7277251 -1.6450596 -1.2593061 -0.43348387

features.2.block.1.0.weight_fake_quant.activation_post_process.max_vals f4 [72]
000000 2c 47 b0 bc 2f b5 84 3f 75 67 87 bc cd 41 2c 3e
       -0.021518312 1.0367793 -0.016528824 0.16821976
000010 1d 27 b6 3f 28 c1 3a 3e d5 02 ec bc 34 79 4b 3f
       1.4230686 0.18237746 -0.028809944 0.79481816
000020 19 7d 22 3f 2e 44 92 bd 91 40 52 bd f1 30 17 3f
       0.63472134 -0.071419105 -0.051331107 0.59059054
000030 ed 9e 24 3e 69 16 22 3f 79 16 9a 3e 90 7a 42 b0
       0.1607625 0.63315445 0.3009527 -7.075096e-10
000040 83 52 57 3f 6b 20 97 3d ba 56 07 3f fd b1 e6 3f
       0.8411028 0.0737923 0.5286671 1.8023068
000050 fb 35 55 32 c4 b4 5e 3f 60 d3 19 3f 41 00 b4 3f
       1.24105055e-08 0.86994576 0.6008816 1.4062577
000060 2d 90 23 bc c8 39 b5 3f a8 0f 36 bd 8f f6 94 3d
       -0.009983105 1.4158258 -0.044448525 0.0727359
000070 24 f1 0e bd 10 32 4c 3f eb fa bf bd 7f b7 35 bd
       -0.03489794 0.7976389 -0.09374031 -0.04436445
000080 d0 15 b4 3f cb 40 09 3f 30 d1 6d 3f a9 4a 02 30
       1.4069157 0.5361449 0.9289732 4.7399823e-10
000090 a0 f0 d7 af 65 43 32 3f 1f 4b 67 af 7d 64 3b 3f
       -3.9279247e-10 0.69634086 -2.1036016e-10 0.7320021
0000a0 09 1d 3f 3f d7 df d9 bd 70 14 87 3f d4 1a 06 3f
       0.7465368 -0.10638397 1.0553112 0.52384686
0000b0 78 63 83 3f dd 9c 6a 3f 1c aa 90 3d 5b 36 4b 3f
       1.026473 0.91645604 0.07063696 0.79379815
0000c0 1f fd 61 3f 69 fe d4 bc 07 ee 0d 3f 78 9f 5c 3f
       0.8827686 -0.026000218 0.55441326 0.8618083
0000d0 db ca 0f be 6b 82 59 3f 18 3d e0 3f 04 a1 8e bd
       -0.14042227 0.8496463 1.7518644 -0.06964305
0000e0 d5 b6 87 3f 2d 45 8e bd cf bd 59 3f a9 ed 3a 3f
       1.0602671 -0.06946788 0.8505525 0.7301889
0000f0 f4 c2 17 3f 53 20 36 3d 4f eb 0c 3e b3 44 02 3f
       0.5928185 0.04446442 0.13761638 0.50886077
000100 5f 5f 93 3f 3f 52 1f bd ac 85 94 3f e9 4a 4e 3f
       1.151348 -0.038896795 1.1603293 0.80583054
000110 d3 39 bb 3d 88 01 94 3f 19 e7 6e 3f d3 13 0d be
       0.091418885 1.1562967 0.9332138 -0.13777094

features.2.block.2.0.weight_fake_quant.scale f4 [24]
000000 6c 3c 47 3c eb 8b a9 3c 2a f2 35 3c 12 f0 83 3c
       0.012160402 0.0206966 0.0111051 0.016105685
000010 59 4a 66 3c d9 d3 41 3c 3c 7c 6d 3c 6e db 56 3c
       0.014055812 0.011830294 0.014494952 0.01311384
000020 74 a4 44 3c ba be 36 3c d6 d2 c6 3c b7 2d d5 3c
       0.012002099 0.011153871 0.024270456 0.026022775
000030 aa b5 77 3c 58 a7 ba 3c 42 41 23 3c 45 b1 63 3c
       0.015118996 0.022784874 0.009964289 0.013897245
000040 8c 64 7c 3c f6 f8 24 3c aa ea 9e 3c 04 f3 62 3c
       0.015404832 0.010069123 0.019399006 0.013851885
000050 6f ef e6 3c b2 f4 db 3b 0c 60 2b 3c 71 1f 08 3c
       0.028190343 0.0067125196 0.010459911 0.008308277

features.2.block.2.0.weight_fake_quant.activation_post_process.min_vals f4 [24]
000000 30 75 c6 bf 5f e2 28 c0 38 3c b5 bf cd 86 8f bf
       -1.5504513 -2.6388166 -1.4159002 -1.1213013
000010 25 f5 cb bf 60 f9 71 bf c0 8e ec bf 95 f2 99 bf
       -1.5934187 -0.9452114 -1.8481064 -1.2027155
000020 2f ad 8c bf fb 07 b6 bf 03 0c 46 c0 89 58 54 c0
       -1.0990351 -1.4221185 -3.0944831 -3.3179038
000030 f4 bd f6 bf b1 ec 39 c0 01 9e a2 bf 94 cd e2 bf
       -1.9276719 -2.9050715 -1.2704469 -1.7718987
000040 27 68 fb bf fd 53 a4 bf bf 4b 1e c0 f3 5d d8 bf
       -1.964116 -1.2838131 -2.4733732 -1.6903671
000050 cb 7a a8 be bd 18 5b bf 3c 99 99 bf 52 97 87 bf
       -0.32906184 -0.8558462 -1.1999888 -1.0593054

features.2.block.2.0.weight_fake_quant.activation_post_process.max_vals f4 [24]
000000 b0 45 be 3f 2d b3 0b 40 7d 13 6b 3f 22 6c 03 40
       1.4865017 2.182811 0.9182661 2.053475
000010 0f 64 e5 3f 05 12 c1 3f 2c 51 6e 3f 93 04 d6 3f
       1.792116 1.5083624 0.9309261 1.6720146
000020 d0 df c3 3f ac 4b a6 3f 35 96 22 40 93 84 15 3f
       1.5302677 1.2991843 2.540418 0.5840542
000030 95 f1 6e 3f f7 29 84 3f b9 84 1b 3f e8 51 4b 3f
       0.93337375 1.0325307 0.60749394 0.79421854
000040 68 d3 78 3f 27 c2 6a 3f d7 3f be 3f 11 10 e2 3f
       0.9719758 0.917025 1.4863232 1.7661153
000050 80 08 66 40 22 d9 10 3f ac b4 aa 3f 30 ac 2f 3f
       3.5942688 0.5658132 1.3336387 0.6862211

features.3.block.0.0.weight_fake_quant.scale f4 [88]
000000 00 00 00 34 3e 21 ef 3b 57 ef e8 3b ab 0d 4f 3c
       1.1920929e-07 0.007297664 0.0071086097 0.012637536
000010 00 00 00 34 a8 c4 14 3c 65 50 47 3c 3a 56 3e 3c
       1.1920929e-07 0.00908009 0.012165164 0.011617238
000020 3c 10 e6 3b 06 a1 8d 3c 8c b6 f1 3b 9c af f5 3b
       0.0070209783 0.017288696 0.0073764976 0.007497741
000030 f3 7f c1 3b 81 1f f0 3b 4a e3 a9 3b eb a5 ee 3b
       0.0059051453 0.0073279743 0.0051845657 0.0072829626
000040 50 00 32 3c c9 e3 35 3c de c2 d6 3b 8e 28 5d 3c
       0.010864332 0.0111016715 0.0065539917 0.0134984385
000050 00 00 00 34 7d 28 26 3c 00 00 00 34 fe be c6 3b
       1.1920929e-07 0.010141489 1.1920929e-07 0.0060652485
000060 00 00 00 34 92 19 01 3c 4c 84 c1 3b 00 00 00 34
       1.1920929e-07 0.007879632 0.0059056636 1.1920929e-07
000070 00 00 00 34 81 b2 16 3c dd 88 b6 3b 1c cb a1 3b
       1.1920929e-07 0.009197832 0.0055705146 0.0049375426
000080 8d 37 a0 3c 02 4f e4 3b 53 28 a4 3b d0 84 b0 3b
       0.019557739 0.0069674263 0.00500969 0.0053869262
000090 0e 1a a4 3b 06 da 8a 3c 91 fd c0 3b fc a8 19 3c
       0.005007989 0.016949665 0.0058896025 0.009378668
0000a0 60 da 0f 3c 9c 58 06 3c da fe a8 3b 17 7c 90 3b
       0.008780092 0.008199837 0.005157334 0.004409324
0000b0 0a e5 2b 3c 6d da 2b 3c 00 00 00 34 e3 e6 42 3c
       0.010491619 0.0104890885 1.1920929e-07 0.011895868
0000c0 d4 3a 2d 3c 2e 47 b0 3c 3e 09 3b 3c eb 4b 5b 3b
       0.010573108 0.021518316 0.011415778 0.0033461999
0000d0 ae e0 1f 3c d7 6b 2c 3c 4d 58 17 3c ed 34 04 3c
       0.009758158 0.010523758 0.009237361 0.008069259
0000e0 00 00 00 34 67 76 c5 3b d4 f6 c7 3b e1 00 51 3c
       1.1920929e-07 0.0060260775 0.0061024223 0.012756557
0000f0 65 b6 5d 3c 12 9b 4e 3c 2b 86 ab 3b ad e1 bf 3b
       0.013532256 0.012610214 0.0052345 0.00585576
000100 57 2b 0e 3c 49 b0 ee 3b 2e da b2 35 69 d8 a7 3c
       0.008677325 0.0072841984 1.3325532e-06 0.020488935
000110 00 00 00 34 b5 31 89 3b 00 00 00 34 08 ac 8e 3c
       1.1920929e-07 0.0041868337 1.1920929e-07 0.017416015
000120 a6 ec 6f 3b ec d3 63 3b 3c 00 cb 3b b1 5b 2d 3c
       0.003660956 0.0034763766 0.0061950963 0.010580943
000130 b2 36 2f 3c 63 20 13 3c 5d 71 02 3c 00 00 00 34
       0.010694193 0.00897989 0.007961598 1.1920929e-07
000140 ad f4 1d 3c 00 00 00 34 00 00 00 34 99 7f 94 3b
       0.009640855 1.1920929e-07 1.1920929e-07 0.0045318124
000150 3d 0c 4c 3c ee 58 a6 3b 70 39 aa 3b 0d 0e 6f 3b
       0.01245409 0.005076519 0.0051948354 0.003647688

features.3.block.0.0.weight_fake_quant.activation_post_process.min_vals f4 [88]
000000 9d 7a 92 b4 1d 32 6e bf d0 55 da be 75 15 88 bf
       -2.7283832e-07 -0.93045217 -0.42643595 -1.0631548
000010 fb c7 3f b1 e3 2f 94 bf 1d b4 e4 be e4 97 bd bf
       -2.7907834e-09 -1.1577114 -0.44668666 -1.4811978
000020 2c 2a 65 bf 3b c6 27 bf 9d a1 89 be ec b9 74 bf
       -0.89517474 -0.6553685 -0.26881114 -0.95596194
000030 1d 33 2c bf 61 2f 6f bf ec 52 23 bf 17 94 0e bf
       -0.6726549 -0.9343167 -0.63798404 -0.5569472
000040 a2 d6 0f bf cb 54 2a bf d3 c5 03 bf 5b d3 23 bf
       -0.5618688 -0.66535634 -0.5147373 -0.6399438
000050 a0 fb 6e b4 05 af a4 be 24 55 91 b1 e0 f9 26 be
       -2.2257018e-07 -0.3216478 -4.229735e-09 -0.16306257
000060 2c f2 80 b1 78 98 80 bf c8 c2 40 bf 3d bd 1f b2
       -3.752822e-09 -1.004653 -0.7529721 -9.298046e-09
000070 0c 16 8e b1 ce 1b 96 bf c1 96 0e bf c0 b9 1f bf
       -4.1352504e-09 -1.1727235 -0.5569878 -0.62392807
000080 a8 b1 f2 be 88 57 05 bf 40 af f2 be 4b d4 2f bf
       -0.47401166 -0.5208669 -0.4739933 -0.6868331
000090 55 01 f8 be 0d f9 2f bf 91 0d 2b bf 53 0f 99 bf
       -0.48438516 -0.68739396 -0.66817576 -1.1957802
0000a0 86 4a 8f bf 43 d2 85 bf e8 95 ce be 91 ec fb be
       -1.1194618 -1.0454792 -0.40348744 -0.49203923
0000b0 73 fd 49 bf 93 2e ab bf c5 96 e3 b5 50 bd 08 bf
       -0.7890236 -1.3373588 -1.6956698e-06 -0.5341387
0000c0 b8 18 3f bf 41 a0 7b bf 20 04 2c bf b8 79 d0 be
       -0.7464709 -0.98291403 -0.67193794 -0.40717864
0000d0 93 09 b4 be 6b bf ab bf f5 c0 96 bf b8 b0 83 bf
       -0.35163555 -1.3417791 -1.1777636 -1.0288305
0000e0 8d 3c 3e b6 29 a1 2d be 70 42 b4 be e3 06 9e be
       -2.8347451e-06 -0.16956009 -0.35206938 -0.3086463
0000f0 af d8 dc bf 83 73 21 bf 20 02 e0 be cb 21 3f bf
       -1.7253627 -0.6306688 -0.4375162 -0.7466094
000100 2c 9d 8d bf 99 c1 6d bf 54 27 32 b9 91 30 27 c0
       -1.106359 -0.9287353 -0.00016990054 -2.6123393
000110 24 d5 42 b4 9f 35 f6 be 77 0b a0 b5 5c 1d 0e c0
       -1.8145198e-07 -0.48087785 -1.1924266e-06 -2.220542
000120 09 6a b3 be 18 f0 e2 be 25 65 96 be 55 ae ac bf
       -0.35041836 -0.44323802 -0.29374042 -1.3490702
000130 93 d2 47 bf 43 8d 92 bf 0d 1f b2 be 9f 0c 9f b2
       -0.78055686 -1.144936 -0.34789315 -1.8515776e-08
000140 b8 56 9d bf db 65 e2 b5 e4 13 97 b3 3f d6 af be
       -1.229209 -1.6867956e-06 -7.0351035e-08 -0.34343144
000150 31 40 cb bf 8b 50 0c bf 44 f7 0c bf 1c a5 cd be
       -1.5878965 -0.548104 -0.550648 -0.4016503

features.3.block.0.0.weight_fake_quant.activation_post_process.max_vals f4 [88]
000000 3c 29 3d 34 4d 6d 65 3f 68 06 68 3f 9d 3e ce 3f
       1.7616998e-07 0.89619905 0.90634775 1.6112858
000010 55 23 7c 31 cb d5 81 3f 15 89 c6 3f d9 7f 9b 3f
       3.669091e-09 1.014337 1.5510584 1.2148391
000020 b7 3e 2f 3f 65 13 0d 40 d5 c4 70 3f fc ce 45 3f
       0.6845507 2.2043087 0.9405034 0.7726896
000030 73 be 40 3f 3f 89 28 3f 67 39 29 3f 45 b7 6d 3f
       0.752906 0.6583442 0.66103214 0.9285777
000040 50 4e b1 3f e5 2d b5 3f 1b ec 55 3f 65 4b dc 3f
       1.3852024 1.4154631 0.83563393 1.7210509
000050 af 45 97 34 55 82 a5 3f 24 93 89 31 3f f8 45 3f
       2.8176643e-07 1.2930399 4.0039527e-09 0.7733192
000060 a9 38 63 31 2b 33 6b 3f 23 92 2a 3f 18 42 bb 31
       3.3065055e-09 0.9187495 0.66629237 5.4499303e-09
000070 ad b9 6c 31 3d 3b de 3d 54 d2 35 3f 51 29 21 3f
       3.4448064e-09 0.108511426 0.7102406 0.6295367
000080 55 97 1f 40 b3 6a 63 3f 2b 84 23 3f bf 3f 19 3f
       2.4936116 0.88834685 0.6387355 0.59862894
000090 f4 75 23 3f 2c 4f 0a 40 93 3c 40 3f f4 e5 d3 3e
       0.6385186 2.1610823 0.7509243 0.41386378
0000a0 a8 62 80 3e 9b 46 ed 3e db 55 28 3f 9b eb 0f 3f
       0.2507527 0.4634293 0.65756005 0.5621888
0000b0 25 39 ab 3f 05 51 de 3d b7 b9 81 35 fc 23 c2 3f
       1.3376814 0.10855297 9.665299e-07 1.5167232
0000c0 99 8d ac 3f e7 96 2f 40 35 4e ba 3f 9f 70 da 3e
       1.3480712 2.7435853 1.4555117 0.42664048
0000d0 cd 40 9f 3f 57 7b e0 3e 0b 98 0e 3f f9 72 9e 3e
       1.2441651 0.438441 0.5570075 0.30947092
0000e0 cc dc 29 36 f1 b0 44 3f dd 2e 47 3f e0 2f d0 3f
       2.5311483e-06 0.7683249 0.7780588 1.626461
0000f0 57 76 10 3e 77 cc cd 3f a5 da 2a 3f 6b aa b1 3e
       0.14107643 1.6078023 0.66739875 0.3470033
000100 85 b1 56 3f 7c 66 ed 3e c7 12 12 39 69 70 3e 3f
       0.83864623 0.46367252 0.0001393064 0.74390274
000110 73 70 8c 34 83 a8 08 3f 5d 28 a0 35 c8 59 ba 3e
       2.615885e-07 0.5338213 1.1932676e-06 0.36396623
000120 b9 fc ee 3e bb 74 d6 3e 3c 35 4a 3f 44 f8 ca 3e
       0.46677187 0.41885933 0.7898748 0.39642537
000130 7b 87 ae 3f c7 89 61 3f ec ee 81 3f 68 f4 4d 32
       1.3635095 0.88100857 1.0151038 1.1988142e-08
000140 c1 97 41 3f f7 f0 ef 35 c3 1c f6 33 19 eb 13 3f
       0.75622183 1.7877018e-06 1.14604994e-07 0.57780606
000150 a1 6c 2d 3e 95 b2 25 3f 37 8f 29 3f ff 1e ee 3e
       0.1693597 0.6472562 0.66234154 0.46508023

features.3.block.1.0.weight_fake_quant.scale f4 [88]
000000 00 00 00 34 7a 35 61 3c e9 d0 95 3b c5 cc 10 3c
       1.1920929e-07 0.01374566 0.004572023 0.008837883
000010 00 00 00 34 49 5e 2a 3c 99 4c 84 3c 5f a7 0b 3c
       1.1920929e-07 0.010398456 0.016149806 0.008523791
000020 a2 39 f2 3b 6c d1 76 3c b2 f2 a2 3b 55 85 ad 3b
       0.0073921243 0.0150645785 0.004972779 0.0052954354
000030 40 20 42 3c 45 f1 a8 3b 47 fc e1 3b 82 a4 41 3c
       0.011848509 0.0051557147 0.006896529 0.011819007
000040 d6 c4 10 3c 35 88 b7 3b 39 02 b9 3b b6 38 40 3c
       0.008835992 0.005600954 0.005646017 0.011732271
000050 00 00 00 34 3d 89 fa 3b 00 00 00 34 98 c6 0c 3c
       1.1920929e-07 0.0076457546 1.1920929e-07 0.00859227
000060 00 00 00 34 b7 2a fd 3b e1 69 84 3b 00 00 00 34
       1.1920929e-07 0.0077260393 0.004040942 1.1920929e-07
000070 00 00 00 34 bc bd 24 3c f0 1c e1 3b 45 70 ad 3b
       1.1920929e-07 0.010055002 0.0068699047 0.0052929246
000080 c9 24 27 3c c2 41 83 3c 46 16 c6 3b 77 95 aa 3b
       0.010201641 0.016022567 0.0060451357 0.005205806
000090 06 7b 93 3b 28 79 83 3c a8 ba ea 3b 8d 89 73 3c
       0.0045007495 0.016048983 0.0071633644 0.014864338
0000a0 35 d1 f5 3b 06 71 2b 3c 92 9a 2e 3c 73 b3 b7 3b
       0.007501746 0.010463959 0.01065697 0.005606109
0000b0 d0 a0 27 3c 27 f0 39 3c 00 00 00 34 30 5b 8c 3c
       0.010231212 0.011348761 1.1920929e-07 0.017133325
0000c0 a7 63 33 3c 56 0d 4f 3c 3c a4 35 3c d4 be 2b 3c
       0.010949052 0.012637457 0.01108652 0.010482509
0000d0 b4 42 ee 3a e2 7e 45 3c 94 c2 28 3c a8 e6 13 3c
       0.0018177838 0.012054177 0.010300297 0.009027161
0000e0 00 00 00 34 c5 5b 67 3b 52 8a c5 3b ca 64 2e 3c
       1.1920929e-07 0.0035302502 0.006028452 0.010644147
0000f0 be 62 50 3c c3 2a 3e 3c 49 98 bd 3b 74 40 0d 3c
       0.0127188545 0.011606875 0.005785976 0.008621324
000100 32 06 20 3c a5 c3 b5 3b fe 0e 05 36 52 3e 29 3c
       0.009767102 0.0055470043 1.982727e-06 0.0103298
000110 00 00 00 34 9f 8e 03 3c 00 00 00 34 66 1b 5c 3c
       1.1920929e-07 0.008029609 1.1920929e-07 0.013434267
000120 81 dd f3 3b 64 69 08 3c 93 e6 cb 3b f0 aa d1 3b
       0.007442177 0.008325908 0.006222555 0.006398551
000130 b9 e5 2e 3c 1b fa 6c 3c f9 e0 e6 3b 00 00 00 34
       0.010674887 0.014463927 0.007045862 1.1920929e-07
000140 14 d4 32 3c 00 00 00 34 00 00 00 34 1e e6 3f 3c
       0.010914821 1.1920929e-07 1.1920929e-07 0.011712579
000150 d9 b8 47 3c 10 11 26 3c 0d ad cd 3b c2 30 ef 3b
       0.012190067 0.010135904 0.006276733 0.0072995136

features.3.block.1.0.weight_fake_quant.activation_post_process.min_vals f4 [88]
000000 75 3b d8 b4 30 d1 10 bf 18 3b 15 bf 12 ca 92 bd
       -4.0276396e-07 -0.56569195 -0.58293295 -0.07167448
000010 cc bd 4f b0 eb b3 a9 bf 34 7f 03 bf 60 e1 53 bc
       -7.557588e-10 -1.3258032 -0.5136597 -0.012932152
000020 68 47 71 bf 89 50 9c be ac 1b 0b bf d0 d7 2c bf
       -0.9424958 -0.30530193 -0.543391 -0.67516804
000030 d9 ba 42 be 78 d6 13 bf 4b 1a 61 bf cb fe 70 be
       -0.19016589 -0.5774913 -0.87930745 -0.23534696
000040 11 34 90 bf b9 38 fc be 37 49 38 bf 7d 78 bf bf
       -1.126589 -0.49262026 -0.71986717 -1.4958645
000050 dd 35 bd b4 f1 f3 12 bf b4 bf 25 30 c7 cb e0 be
       -3.5243184e-07 -0.57403475 6.0299077e-10 -0.4390547
000060 03 f7 a5 b0 8c 2d 7c bf 49 da d4 be bd fe 82 b1
       -1.2075535e-09 -0.98507 -0.41572788 -3.8124583e-09
000070 73 8c 71 2e 84 a1 d7 be 30 2d 56 bf d1 99 0b bd
       5.49218e-11 -0.42115414 -0.836627 -0.034082238
000080 a4 7d a6 bf 80 be 02 c0 09 91 2c bf e2 ea 29 bf
       -1.3007092 -2.0428772 -0.67408806 -0.6637403
000090 d3 43 12 bf cf 54 ef be 05 59 3f bf ec 80 e3 be
       -0.5713474 -0.4674439 -0.7474521 -0.44434297
0000a0 d3 3d d5 bc 55 ca 35 bf f7 eb ad bf c0 fb 36 bf
       -0.026030457 -0.7101186 -1.3587636 -0.7147789
0000b0 2f f9 a6 bf 91 37 83 bf d7 85 3e b5 63 63 00 bf
       -1.3044795 -1.0251333 -7.097528e-07 -0.5015165
0000c0 43 b0 b2 bf 71 b8 0a be 98 ee b4 bf bf 23 6f bf
       -1.3960041 -0.13546921 -1.4135313 -0.9341392
0000d0 71 54 6d be 63 b9 c4 bf 55 a3 c8 bd 49 0e d0 bd
       -0.23176743 -1.5369076 -0.09796778 -0.10158975
0000e0 44 ca dd b6 1b 1e 39 3d 39 ab 2e bf 7f f5 a0 bf
       -6.60986e-06 0.045194726 -0.68230015 -1.257492
0000f0 5b 92 cf bf 01 1e af bf 64 43 e7 be fc a4 52 bf
       -1.6216539 -1.3681031 -0.45168602 -0.82282996
000100 50 a0 f5 be e4 a0 2f bf ef 89 84 b9 c0 f1 ab bd
       -0.4797387 -0.68604875 -0.0002527977 -0.083957195
000110 f5 6e 6f b2 10 0b 83 bf 8d 04 1f b6 4b 3f db bf
       -1.393686e-08 -1.0237751 -2.3695495e-06 -1.712869
000120 a1 e6 41 bf 47 2f 72 bf ac 1a 4b bf 45 d9 50 bf
       -0.75742537 -0.9460339 -0.79337573 -0.81581527
000130 d3 36 ae bf a5 d9 0e bf a3 f4 eb be a9 33 1d b2
       -1.3610481 -0.5580085 -0.4608508 -9.150349e-09
000140 40 21 b2 bf a8 13 4a b6 e8 fb bf b3 38 26 bf bf
       -1.3916397 -3.0111787e-06 -8.939952e-08 -1.4933538
000150 20 f1 c6 bf 2d 40 9b bf 88 94 38 bf 7d 68 b2 be
       -1.5542336 -1.212896 -0.7210164 -0.34845343

features.3.block.1.0.weight_fake_quant.activation_post_process.max_vals f4 [88]
000000 40 59 1e 34 45 54 e0 3f fd 3b 0f 3f f8 3b 90 3f
       1.4747366e-07 1.7525717 0.5595091 1.1268301
000010 c8 3e 89 31 63 fd bf 3d 4c c8 03 40 b8 1b 8b 3f
       3.994362e-09 0.093745016 2.0591002 1.0867834
000020 6d bd 6d 3f 9b da f5 3f bf 4f 22 3f 3d c6 1c 3e
       0.92867166 1.9207338 0.6340293 0.15309997
000030 20 5e c1 3f 54 48 28 3f 2d 2c 12 3f dd e2 c0 3f
       1.510685 0.65735364 0.57098657 1.5069233
000040 85 c3 76 3d ad d0 36 3f a4 7e e6 3e 7c fd 55 3d
       0.060245056 0.71412164 0.45018494 0.052243695
000050 a3 21 fe 33 b4 8e 79 3f 78 29 46 31 d1 39 8c 3f
       1.1833915e-07 0.9748337 2.8836364e-09 1.0955144
000060 67 80 a2 31 5c 93 a4 3d 77 e5 03 3f c5 ce 00 31
       4.729418e-09 0.08035919 0.5152201 1.8743986e-09
000070 68 6a 58 31 fe 18 a4 3f d3 3b 60 3f d5 c2 2c 3f
       3.1492622e-09 1.2820127 0.87591285 0.6748479
000080 40 05 56 3e c0 c6 3b 3f 30 50 45 3f 44 69 02 3f
       0.2090044 0.73350143 0.7707548 0.5094187
000090 8b e7 12 3f af f5 02 40 ed cf 69 3f 03 96 f2 3f
       0.57384557 2.0462453 0.91332895 1.895203
0000a0 64 db 74 3f 95 c5 aa 3f 61 86 a1 3e e0 f1 e9 3e
       0.95647264 1.3341547 0.31547835 0.45692348
0000b0 e5 fe 1f 3e 37 36 b9 3f a0 ef ee 35 d5 ce 0b 40
       0.15624578 1.446967 1.7802122e-06 2.184499
0000c0 33 a9 b1 3d 49 3e ce 3f 58 40 6f 3e 15 13 ab 3f
       0.0867485 1.6112758 0.23364389 1.3365198
0000d0 0b de 44 3d a0 8f 61 3e d1 19 a8 3f c1 52 93 3f
       0.04806332 0.22027445 1.3132879 1.150963
0000e0 67 6d f3 35 69 74 e6 3e c8 c4 44 3f 65 b6 ad 3f
       1.8136751e-06 0.4501069 0.76862764 1.3571287
0000f0 f5 e1 ad 3f 98 6c bd 3f b1 da 3c 3f 34 b3 8c 3f
       1.3584582 1.4798765 0.73771197 1.0992188
000100 2c 66 9f 3f e1 0d 35 3f 88 2d ff 38 14 95 a8 3f
       1.2453055 0.707243 0.000121678284 1.3170495
000110 f4 34 f5 33 e5 eb e5 3e 77 e7 97 35 cb ec 5e 3d
       1.1418334e-07 0.44906536 1.1317742e-06 0.054425042
000120 a3 e9 72 3f fb e0 87 3f ef 1e 1b 3f 5d da ac 3d
       0.9488775 1.0615534 0.60594076 0.08440087
000130 4d 9f 80 3f 21 0d ec 3f 18 fa 65 3f e5 cb 5f 32
       1.0048615 1.8441507 0.8983474 1.3026669e-08
000140 63 53 8e 3e ed a3 ba 35 bd 64 6c 32 0c b9 5d 3f
       0.27797994 1.3905789e-06 1.3759913e-08 0.86610484
000150 5c 62 9d 3f ff 6a a5 3f 60 df 4c 3f 91 41 6e 3f
       1.2295642 1.2923278 0.80028343 0.93068796

features.3.block.2.0.weight_fake_quant.scale f4 [24]
000000 5b 76 fd 3b c6 da 04 3c 55 f9 18 3c a4 f8 a7 3b
       0.0077350563 0.0081088 0.009336789 0.005126076
000010 27 42 cf 3b a9 fd 08 3c 7c e5 cd 3b a8 b2 be 3b
       0.0063250246 0.008361259 0.00628346 0.0058196373
000020 26 2b f2 3b 9a 54 e2 3b 6e e9 08 3c 14 34 3a 3c
       0.0073903976 0.006907058 0.008356435 0.011364955
000030 58 cb d0 3b ae 48 10 3c 99 5f 02 3c 10 d7 02 3c
       0.0063718967 0.008806391 0.007957363 0.007985845
000040 e6 49 32 3c c7 a7 08 3c 5d 80 10 3c 01 64 20 3c
       0.010881877 0.0083407825 0.008819667 0.009789468
000050 67 cc d8 3b 56 57 12 3c 05 0a 49 3c 25 ce 99 3b
       0.0066161635 0.008931955 0.012270455 0.004693764

features.3.block.2.0.weight_fake_quant.activation_post_process.min_vals f4 [24]
000000 68 e4 79 bf eb 55 84 bf 5c 60 98 bf ab 50 27 bf
       -0.97614145 -1.033872 -1.1904407 -0.65357465
000010 e5 72 4e bf cb 97 80 bf 97 17 4d bf f5 f3 3d bf
       -0.80644065 -1.0046324 -0.8011412 -0.74200374
000020 70 d3 33 bf 45 72 61 bf 85 60 88 bf 10 cf 9c bf
       -0.70244503 -0.88064986 -1.0654455 -1.225069
000030 8d fa 4f bf eb f6 56 bf ad ba 73 bf 39 54 82 bf
       -0.81241685 -0.83970517 -0.9520672 -1.0181953
000040 57 48 57 bf 81 37 58 bf dd ef 8f bf 6c 02 42 bf
       -0.84094757 -0.8445969 -1.1245075 -0.75784945
000050 9b f3 57 bf 5c 78 91 bf 8c a9 81 bf 29 b4 04 bf
       -0.8435609 -1.1364856 -1.0129867 -0.518374

features.3.block.2.0.weight_fake_quant.activation_post_process.max_vals f4 [24]
000000 e5 78 7c 3f 1f 59 1c 3f d8 af 6d 3f fe 79 14 3f
       0.9862197 0.6107349 0.9284644 0.57998645
000010 c8 1b 43 3f ab 74 88 3f 37 e5 3e 3f f7 db 19 3f
       0.76214266 1.0660604 0.74568504 0.60101265
000020 fb 38 71 3f 6d c7 46 3f b5 8b ef 3e e0 79 b9 3f
       0.9422757 0.7764805 0.46786276 1.4490318
000030 f5 6b f8 3e 65 b8 8f 3f 39 dd 81 3f d8 5d 0f 3f
       0.48519865 1.1228148 1.0145637 0.5600257
000040 9c 97 b1 3f 1f 1f 88 3f 38 e3 57 3f 9d c3 9f 3f
       1.3874393 1.0634497 0.84331083 1.2481571
000050 ed 28 4b 3f ff c4 91 3f fb 40 c8 3f 57 34 19 3f
       0.7935932 1.1388243 1.564483 0.5984549

features.4.block.0.0.weight_fake_quant.scale f4 [96]
000000 42 df 0c 3c 4a 7a 1d 3c 8e 39 d1 3b 8d 61 11 3c
       0.008598151 0.0096116755 0.006385035 0.008873356
000010 96 82 8c 3c 8d 51 e4 3b e2 21 02 3c e4 2e 39 3c
       0.017152112 0.0069677294 0.007942649 0.0113026835
000020 8b 41 bb 3b 0f e3 06 3c 0a 94 06 3c 33 4a e3 3b
       0.0057146004 0.008232846 0.008214006 0.0069363355
000030 e4 00 d8 3b 90 18 24 3c 34 99 1e 3c e3 95 00 3c
       0.006591903 0.010015622 0.009680081 0.007848236
000040 3c 21 c5 3b e1 09 b4 3b 2c 50 36 3c 3d b2 eb 3b
       0.0060159247 0.0054943417 0.011127513 0.0071928785
000050 0e 9a 7e 3c 5a cd 86 3b b1 3e 1f 3c 39 92 e7 3b
       0.015539659 0.0041138353 0.009719537 0.0070669916
000060 af ff 81 3c d5 87 d7 3b f9 50 0d 3c a1 df 70 3c
       0.01586899 0.0065774717 0.008625262 0.014701755
000070 0a c4 a6 3b 2e 14 05 3c ec 2c 59 3c 81 94 06 3c
       0.0050892876 0.008122487 0.013255339 0.008214117
000080 24 a5 10 3c 89 31 3a 3c 45 18 26 3c f0 24 4e 3b
       0.008828435 0.011364349 0.010137622 0.0031455122
000090 89 48 56 3c d0 d2 31 3c e2 fe d9 3b b5 4f c4 3b
       0.013078817 0.010853484 0.006652699 0.005990947
0000a0 5f 80 84 3c 20 fc 1e 3c 28 38 5a 3c 9f 93 4f 3c
       0.016174493 0.009703666 0.013319053 0.012669473
0000b0 c8 a8 10 3c e8 58 0b 3c ad a4 bc 3b 79 71 36 3c
       0.008829303 0.008505084 0.0057569356 0.011135452
0000c0 b7 14 2a 3c 31 97 81 3b 8d 57 72 3c 8f 57 12 3c
       0.010380915 0.003954791 0.014791382 0.008932008
0000d0 a3 5a ff 3b e1 83 55 3c c5 98 22 3c 37 a4 a2 3c
       0.007792787 0.013031931 0.009924118 0.019853694
0000e0 61 0e e3 3b ce da 61 3c 90 1e 8d 3c d3 5d 1e 3c
       0.0069292043 0.013785077 0.017226487 0.009665924
0000f0 ea 8c 27 3c 12 59 71 3b e5 4b 72 3b 6d 45 2b 3c
       0.010226468 0.0036826772 0.0036971506 0.010453564
000100 02 fa f2 3b 79 80 4e 3c 3b 0a 0b 3c 32 aa 19 3c
       0.007415057 0.012603872 0.008486326 0.009378957
000110 59 0d f8 3b fa 04 66 3b 49 b8 39 3c 57 90 e0 3a
       0.0075699505 0.003509818 0.011335441 0.001713286
000120 38 63 35 3c e1 d1 8f 3c 88 f4 ea 3b 19 fc 0c 3c
       0.011071019 0.017556133 0.0071702637 0.008605027
000130 14 e7 70 3c a8 d0 26 3c 5e 63 cc 3b e9 b3 81 3b
       0.014703531 0.010181583 0.0062374314 0.0039582145
000140 db ba e8 3b 76 a2 28 3c 2f d7 f4 3b 0e 9f ef 3b
       0.007102353 0.01029264 0.007471941 0.007312662
000150 04 b5 8d 3b 78 d0 55 3c 01 3a 0d 3c a7 f1 94 3b
       0.0043245573 0.013050191 0.008619786 0.0045454088
000160 64 81 f3 3b 08 83 06 3c 43 b3 6f 3c fe 8c d3 3b
       0.007431196 0.008209951 0.014630142 0.0064560166
000170 94 a8 f4 3b 97 75 fa 3b fe aa 66 3b 71 3e 3c 3c
       0.007466385 0.0076434123 0.0035197134 0.011489497

features.4.block.0.0.weight_fake_quant.activation_post_process.min_vals f4 [96]
000000 5f 7d 78 be dc 03 18 bf 9b 87 39 bf c3 f7 05 bf
       -0.24266575 -0.5938089 -0.7247254 -0.5233118
000010 94 d4 d7 be 3b 6d 63 bf c0 9f 81 bf 75 92 1d bf
       -0.42154372 -0.8883855 -1.0126877 -0.615516
000020 49 86 3a bf 1c 83 2e bf 61 28 0f bf 81 7c 11 bf
       -0.7286115 -0.6816881 -0.5592099 -0.568306
000030 e3 28 57 bf 77 74 a3 bf 9b fa 9d bf 45 43 ca be
       -0.84046763 -1.2769917 -1.2342104 -0.39504448
000040 b0 65 36 bf d7 55 33 bf db 5a 2b bf 5d 40 42 bf
       -0.7124891 -0.70052856 -0.6693551 -0.7587946
000050 74 9b fd bf 8d 46 06 bf 72 9f 9e bf 5d 5b 40 bf
       -1.9813066 -0.524514 -1.2392409 -0.7513941
000060 a4 35 77 bf 4d b0 56 bf 93 33 52 bf 4b 5d be bf
       -0.96566224 -0.83862764 -0.82109946 -1.4872221
000070 46 1d 26 bf a9 2b be be 4b e4 e4 be ec 0d 86 bf
       -0.6488842 -0.37142685 -0.44705424 -1.0472999
000080 78 d6 5e be b0 37 49 bf ec 0a a5 bf 7b 67 2c be
       -0.21761501 -0.786006 -1.2893958 -0.1683635
000090 40 72 d5 bf fd 20 b1 bf 83 6a 29 bf 65 8b 43 bf
       -1.6675491 -1.3838192 -0.6617815 -0.76384574
0000a0 8b 67 2b bf 24 5d 9e bf f0 5d d9 bf 0b c4 ce bf
       -0.6695487 -1.2372174 -1.6981792 -1.6153578
0000b0 bb aa 43 bf 8f cd 8a bf 08 e8 3b bf 08 bb b5 bf
       -0.7643239 -1.0843982 -0.73400927 -1.4197702
0000c0 a2 6a a9 bf 6c ca c4 be d9 86 f8 bd 19 a8 81 bf
       -1.3235667 -0.38435686 -0.12135095 -1.0129424
0000d0 48 5b 7e bf 2b 40 49 bf 2c f6 a1 bf 93 01 22 c0
       -0.99358034 -0.7861354 -1.2653251 -2.531346
0000e0 53 2b 62 bf 65 ed 2b be 83 31 5f bf 89 d9 c3 be
       -0.8834736 -0.16789778 -0.87184924 -0.38251904
0000f0 5d e5 a6 bf b9 67 f0 be 4a e2 a0 be 40 8f 54 bf
       -1.3038746 -0.46954134 -0.31422645 -0.8303108
000100 48 4a 06 bf f9 b1 cd bf a9 e6 63 bf 88 10 99 bf
       -0.52457094 -1.6069938 -0.89023834 -1.195817
000110 4d 33 fb be 9b 5f a1 be fb a3 f3 be c7 af 5f be
       -0.49062577 -0.31518254 -0.47586045 -0.21844397
000120 d5 ad b4 bf 0f 42 0f c0 08 18 db be c5 85 a4 be
       -1.4115549 -2.238407 -0.42791772 -0.32133308
000130 01 68 1d bf 95 31 6f bf fb 96 4b bf 35 32 01 bf
       -0.6148682 -0.9343503 -0.7952725 -0.50467235
000140 d4 87 af be 98 fc 7c bf 08 28 fd be 21 e9 36 bf
       -0.34283316 -0.9882293 -0.49444604 -0.71449476
000150 e8 74 a2 be a8 fa d4 bf c7 ac 8c bf b5 5c 14 bf
       -0.31729817 -1.6638994 -1.0990227 -0.5795396
000160 e3 8d 72 bf 85 fc 85 bf 11 a9 86 bf e9 67 e4 be
       -0.9474775 -1.0467688 -1.0520345 -0.44610527
000170 eb b3 73 bf 21 7b 79 bf 9f 92 65 be 33 82 bb bf
       -0.9519641 -0.97453505 -0.22419213 -1.4649109

features.4.block.0.0.weight_fake_quant.activation_post_process.max_vals f4 [96]
000000 63 52 8c 3f d0 dc 9c 3f 54 68 50 3f 2b d0 90 3f
       1.0962642 1.2254887 0.8140919 1.1313528
000010 13 f6 0b 40 95 64 3d 3f cd 82 46 3f b5 75 b8 3f
       2.1868942 0.739816 0.77543336 1.4410921
000020 d4 a9 32 3f 2c 5c 86 3f 76 0d 86 3f e9 66 62 3f
       0.6979039 1.0496879 1.0472858 0.8843828
000030 90 02 3f 3f b3 45 fc 3e 1d f1 75 3f 4d 15 80 3f
       0.74613285 0.49271926 0.96071035 1.00065
000040 1b 5c 44 3f 3b 10 10 3f dc 99 b5 3f 8b c6 6a 3f
       0.7670304 0.56274766 1.4187579 0.917092
000050 cf 4f 95 3f 68 a7 aa 3e 71 ce 8f 3f a7 aa 66 3f
       1.1664981 0.33330846 1.1234876 0.90104145
000060 af 7d 01 40 1a 70 1e 3f a8 c3 8c 3f c1 ee ef 3f
       2.023296 0.61889803 1.099721 1.8744737
000070 e6 f9 02 3f 1a 8f 84 3f bf 53 d8 3f 6d cd cb 3e
       0.51162565 1.0356171 1.6900557 0.39805165
000080 7f 14 90 3f 57 77 b9 3f 2d 72 a5 3f cb 56 cd 3e
       1.1256255 1.4489545 1.2925469 0.4010528
000090 94 30 de 3e 75 5a 1e 3f e3 24 59 3f 1b 00 3a 3f
       0.43396437 0.61856776 0.8482191 0.7265641
0000a0 df fb 03 40 c0 8b d9 3e 08 95 70 3f 08 31 ab 3f
       2.062248 0.42489433 0.93977404 1.3374338
0000b0 1f 18 90 3f ad af 1a 3f f9 0d 66 3e ee 67 a0 3f
       1.1257361 0.6042431 0.22466268 1.2531717
0000c0 14 3f 75 3f 9a 15 01 3f 35 65 f1 3f 37 c5 91 3f
       0.95799375 0.50423586 1.8859011 1.138831
0000d0 80 7d 56 3f 5d ae d4 3f bd d2 12 3f 9d ce c9 3e
       0.8378525 1.6615711 0.5735281 0.39415446
0000e0 43 94 49 3f f3 f8 e0 3f 71 91 0c 40 75 bf 9d 3f
       0.78741854 1.7575973 2.196377 1.2324053
0000f0 9d 5d 1a 3f 34 09 47 3e 99 59 f1 3e 28 9a aa 3f
       0.6029909 0.19437104 0.4713867 1.3328295
000100 08 07 72 3f e5 b2 47 3f 31 7f 8a 3f 17 b7 d4 3e
       0.9454198 0.78007346 1.0820066 0.41545936
000110 4c 15 77 3f f5 1e e5 3e 91 fe b8 3f 8b c7 5a 3e
       0.9651687 0.4475018 1.4452688 0.21365182
000120 ea e5 83 3f eb eb 47 3e 93 09 6a 3f 1d 6f 8c 3f
       1.0304539 0.1952359 0.9142086 1.0971409
000130 2d f6 ef 3f d7 29 a6 3f 01 ea 03 3f c3 86 5e 3e
       1.8747002 1.2981519 0.51528937 0.21731095
000140 20 d2 67 3f d4 f9 a7 3f 58 e2 73 3f 6f af 6e 3f
       0.90555 1.3123116 0.9526725 0.9323644
000150 4f 27 0d 3f a0 f3 ec 3e 9b 16 28 3f 14 15 cb 3e
       0.55138105 0.4627962 0.65659493 0.3966452
000160 a9 8b c7 3e 17 28 19 3f 90 c3 ee 3f 71 b9 52 3f
       0.3897374 0.598268 1.8653431 0.8231421
000170 0c 1c f9 3e 80 e5 37 3f 53 c4 e5 3e f4 76 0f 3f
       0.4865421 0.71834564 0.44876346 0.56040883

features.4.block.1.0.weight_fake_quant.scale f4 [96]
000000 a7 d6 92 3b 31 ec a7 3b 4f d3 84 3b 93 d7 a9 3b
       0.004481155 0.0051245918 0.0040535103 0.005183169
000010 71 ee b8 3b 96 6d 94 3b 76 46 85 3b 7d b2 a9 3b
       0.005643659 0.004529665 0.0040672375 0.005178748
000020 21 92 ae 3b 25 51 96 3b 60 af af 3b e0 62 83 3b
       0.0053274785 0.00458731 0.0053614825 0.0040095896
000030 c6 0b ab 3b fb 62 8e 3b bf 4e c3 3b 5c 49 86 3b
       0.0052199094 0.0043452955 0.005960315 0.0040981006
000040 2e 48 91 3b d9 f4 7b 3b 57 9a b3 3b d4 bf 91 3b
       0.0044336533 0.00384455 0.005481045 0.0044479165
000050 96 45 cf 3b 46 e5 a6 3b d5 e0 a7 3b 28 38 a1 3b
       0.006325434 0.0050932495 0.0051232376 0.0049200244
000060 2c 7f db 3b 49 29 d3 3b b4 18 9a 3b 09 fe ca 3b
       0.0066985097 0.0064441306 0.004702652 0.006194834
000070 f2 d9 74 3b c7 7a 84 3b 9e 0e ba 3b f6 e6 82 3b
       0.003736135 0.0040429565 0.005678012 0.003994818
000080 6f 4c af 3b 27 52 d5 3b 2d 26 c9 3b 6c 49 7b 3b
       0.0053496878 0.0065100375 0.006138584 0.0038343323
000090 76 03 a4 3b 88 be 9a 3b f0 be 91 3b 51 78 91 3b
       0.0050052954 0.00472242 0.0044478104 0.0044393917
0000a0 5d f6 b8 3b 96 18 8f 3b 17 16 b0 3b 11 26 b1 3b
       0.005644603 0.0043669445 0.005373727 0.005406149
0000b0 b6 59 f3 3b 71 69 b9 3b a3 e2 a3 3b ef ee af 3b
       0.007426466 0.0056583215 0.0050013824 0.0053690593
0000c0 52 6f b5 3b d6 a1 74 3b 40 91 b9 3b d6 9a 9e 3b
       0.005536952 0.0037327907 0.005663067 0.004840235
0000d0 b7 51 cb 3b bb a6 bf 3b 0f 8a 91 3b 41 69 d8 3b
       0.0062048095 0.0058487332 0.0044415067 0.006604344
0000e0 f9 55 8e 3b 99 42 a8 3b 28 3d c5 3b 59 4c 98 3b
       0.004343745 0.005134892 0.0060192533 0.004647773
0000f0 65 05 98 3b e4 b6 be 3b 08 f1 63 3b 4b d3 bb 3b
       0.004639315 0.005820142 0.0034781117 0.005731975
000100 fb 3d 89 3b e4 3a d3 3b e5 97 9e 3b d4 b8 ae 3b
       0.004188297 0.0064462293 0.0048398846 0.005332092
000110 97 02 8d 3b 7b 73 7a 3b c6 16 aa 3b 4d fa 80 3b
       0.0043032872 0.0038215804 0.005190703 0.003936088
000120 4c 34 b2 3b c0 33 b2 3b 40 a5 9a 3b d0 2c ad 3b
       0.005438363 0.005438298 0.0047194064 0.005284883
000130 39 44 dc 3b c8 f4 96 3b de 72 b2 3b a8 ea 52 3b
       0.006722 0.004606817 0.005445822 0.0032183323
000140 72 eb 90 3b a5 d4 a8 3b 21 e2 cb 3b a0 68 86 3b
       0.0044225985 0.0051523023 0.006222025 0.0041018277
000150 dc 2b a2 3b 36 d9 b3 3b f1 21 a6 3b cb 06 94 3b
       0.004949076 0.00548854 0.005069964 0.0045174113
000160 04 b4 a2 3b d1 9f 96 3b cc ff b0 3b 82 09 9c 3b
       0.004965307 0.0045966883 0.005401587 0.0047618756
000170 f1 8d 96 3b 75 f0 38 3b 5f 0c 3c 3b b9 67 c0 3b
       0.0045945575 0.0028219495 0.0028693897 0.0058717397

features.4.block.1.0.weight_fake_quant.activation_post_process.min_vals f4 [96]
000000 d0 43 12 bf 45 44 27 bf 7c 4e 04 bf bb 54 e4 bd
       -0.57134724 -0.65338546 -0.5168226 -0.111489736
000010 1a 2e 8b be 64 60 a1 bd 48 45 b5 bd 45 e8 ac bd
       -0.2718361 -0.07879713 -0.08851105 -0.084427394
000020 17 ce 13 be d4 ba 15 bf b1 ff 2e bf 7d df 02 bf
       -0.14434086 -0.584882 -0.68358904 -0.51122266
000030 ba 60 2a bf 88 23 5f bd 70 8b 42 bf 7e 66 96 bd
       -0.66553843 -0.054477245 -0.75994015 -0.073437676
000040 e6 b6 10 bf e4 f8 fa be bd e6 32 bf 14 2e 11 bf
       -0.5652908 -0.49018013 -0.6988333 -0.56710935
000050 50 76 4e bf 61 3e 26 bf 38 5a b3 bd 91 1c 99 bd
       -0.8064928 -0.6493893 -0.08757442 -0.07476152
000060 ad a3 5a bf b3 ae da bd ef a5 1e bd 0b 33 4a bf
       -0.85406 -0.106778525 -0.038732465 -0.78984135
000070 18 e5 f3 be 4c f6 03 bf 8f 54 39 bf 0f 64 02 bf
       -0.47635722 -0.51547694 -0.7239465 -0.5093393
000080 23 9d 2e bf d5 7c 54 bf 07 5d 48 bf 23 4e fa be
       -0.6820852 -0.8300298 -0.7826695 -0.4888774
000090 73 5f 23 bf c9 23 1a bf 31 2d 11 bf 7d c2 97 bd
       -0.6381752 -0.60210854 -0.5670958 -0.074101426
0000a0 5b 77 23 be 7d 89 0e bf 01 66 2f bf 0d 7c d6 bd
       -0.15963499 -0.5567854 -0.6851502 -0.104728796
0000b0 9f d8 05 be 25 91 d2 bd d9 be 1f bf 1f 0f 22 be
       -0.13070916 -0.1028159 -0.62400585 -0.1582608
0000c0 9b ae 17 be 04 ad e3 be 5e 79 8d be 3b fc 1d bf
       -0.148127 -0.44467938 -0.27631658 -0.61713
0000d0 bb eb ff bd 7b 50 85 bd 85 f8 10 bf 00 da 8b be
       -0.12496134 -0.06509491 -0.5662921 -0.27314758
0000e0 95 f9 5d bd 56 9a 27 bf eb 77 44 bf 0d b4 17 bf
       -0.054193098 -0.6546987 -0.7674548 -0.5925911
0000f0 31 ff ca bd cc 9b a3 be 17 0d e3 be c8 27 c5 bd
       -0.09911955 -0.319548 -0.44345924 -0.09626728
000100 15 74 42 bd a9 67 52 bf 4d f9 1d bf 1b 0a 2e bf
       -0.047473986 -0.8218942 -0.6170853 -0.6798417
000110 94 75 0c bf 08 79 f9 be af 6c 29 bf 53 79 00 bf
       -0.5486691 -0.48725152 -0.66181463 -0.50185126
000120 18 82 31 bf cd b6 8a be 9b 0a 1a bf 4f 5d e4 bd
       -0.6933913 -0.2709259 -0.6017243 -0.1115061
000130 f5 67 5b bf d3 5d 16 bf 6b c0 31 bf bd 17 d2 be
       -0.857055 -0.58736914 -0.6943423 -0.41033736
000140 87 5a 10 bf df 2d 3a be d7 2b 22 be 37 e2 05 bf
       -0.56388134 -0.18181561 -0.15837036 -0.522983
000150 b0 89 21 bf 5d 25 33 bf a9 22 01 be 8d d6 84 be
       -0.6310072 -0.69978887 -0.12610878 -0.2594494
000160 50 11 22 bf 31 09 16 bf 98 ad 7c be 78 6d 1b bf
       -0.63307667 -0.58607775 -0.24675596 -0.6071391
000170 63 f7 15 bf 10 9e eb bd 53 50 bb be 51 a7 3f bf
       -0.5858061 -0.115047574 -0.3658472 -0.7486468
