linearcode/quants/resnet50.pth (torch, 931474 bytes, 162 tensors)

conv1.weight_fake_quant.scale f4 [64]
0.0029867433 0.0035932767 0.0011383905 0.0021843598 0.005327865 0.0024435278 0.0048903166 0.0042313845
0.005657507 0.001959501 0.003476721 0.0013764186 0.0026592324 1.1920929e-07 0.005469616 0.0053615845
0.0025019767 0.0051917257 0.0057137073 0.0028017731 0.0061287424 0.0054636286 0.006119195 0.003043666
0.0031949098 0.0014004979 0.0046399855 0.004860215 0.0008131356 0.0018614266 0.0028449448 0.0003356692
0.0024025491 0.0061311442 0.0014618717 0.0032008782 0.0022273331 0.0020265998 0.0044385106 0.0047169016
0.001869101 0.0034825734 0.0012126159 0.0025576942 0.0010453112 0.002960311 0.005288946 0.002469776
0.002603175 0.004790321 0.0046699173 0.0034171417 0.0018111647 0.004434813 0.004405649 0.003100436
0.002804947 0.00055263756 0.0022146446 0.0011592653 0.0029466792 0.004487466 0.002269864 0.0057960455
00000000: 3dbd 433b 2e7d 6b3b 0c36 953a 7a27 0f3b
00000010: 5f95 ae3b 9823 203b f33e a03b 6da7 8a3b
00000020: 9c62 b93b f96a 003b b3d9 633b f268 b43a
00000030: 8446 2e3b 0000 0034 773a b33b 3bb0 af3b
00000040: 34f8 233b 5a1f aa3b 0d3a bb3b f49d 373b
00000050: 9ed3 c83b 3d08 b33b 8783 c83b 3e78 473b
00000060: b161 513b e990 b73a 050b 983b 7042 9f3b
00000070: 9b28 553a 1dfb f33a 4172 3a3b c2fc af39
00000080: 1674 1d3b c4e7 c83b 469c bf3a d3c5 513b
00000090: 73f8 113b b4d0 043b ed70 913b 3d90 9a3b
000000a0: 9ffc f43a e33b 643b a3f0 9e3a fd9e 273b
000000b0: d302 893a c701 423b e54e ad3b f7db 213b
000000c0: 079a 2a3b 20f8 9c3b 1b06 993b 20f2 5f3b
000000d0: 9a64 ed3a e851 913b 435d 903b af30 4b3b
000000e0: 34d3 373b e1de 103a 9223 113b 7df2 973a
000000f0: 131d 413b 980b 933b 00c2 143b c1ec bd3b

conv1.weight_fake_quant.activation_post_process.min_vals f4 [64]
-0.38080978 -0.25591078 -0.14514479 -0.2785059 -0.46355614 -0.2778617 -0.62351537 -0.5209997
-0.46878642 -0.24625479 -0.38238442 -0.059673503 -0.3390521 -1.2505349e-09 -0.6973761 -0.49797747
-0.31900203 -0.66194504 -0.6796734 -0.35722607 -0.54641175 -0.69661266 -0.502371 -0.38806742
-0.407351 -0.17856348 -0.53749573 -0.6196774 -0.058767483 -0.2373319 -0.36273047 -0.030278843
-0.05725066 -0.7817209 -0.18638864 -0.34452763 -0.283985 -0.24256618 -0.49788398 -0.43796986
-0.09988859 -0.4440281 -0.059028763 -0.326106 -0.13327718 -0.316698 -0.6743406 -0.31489643
-0.058679458 -0.61076593 -0.59541446 -0.20856142 -0.23092349 -0.5654386 -0.48473647 -0.27249116
-0.35763076 -0.031021738 -0.28236717 -0.05249401 -0.29721597 -0.5721519 -0.28940767 -0.7389958
00000000: 80f9 c2be bd06 83be d6a0 14be 5398 8ebe
00000010: 3b57 edbe e443 8ebe b49e 1fbf 3d60 05bf
00000020: c604 f0be 372a 7cbe e4c7 c3be 346c 74bd
00000030: 3d98 adbe 49df abb0 3d87 32bf e7f6 febe
00000040: 3c54 a3be 3b75 29bf 13ff 2dbf 56e6 b6be
00000050: a4e1 0bbf 3555 32bf 639b 00bf c6b0 c6be
00000060: 4f90 d0be 58d9 36be 5299 09bf 2ea3 1ebf
00000070: 2cb6 70bd 2207 73be cfb7 b9be 560b f8bc
00000080: ab7f 6abd dc1e 48bf aadc 3ebe ed65 b0be
00000090: 7b66 91be 4563 78be a6ea febe 963d e0be
000000a0: 6492 ccbd a757 e3be 25c8 71bd 5ef7 a6be
000000b0: d079 08be 3e26 a2be 96a1 2cbf 1b3a a1be
000000c0: df59 70bd 285b 1cbf 156d 18bf 2091 55be
000000d0: 3577 6cbe 96c0 10bf 612f f8be f683 8bbe
000000e0: 611b b7be 4d21 febc 6e92 90be f603 57bd
000000f0: b12c 98be 8c78 12bf 3e2d 94be d42e 3dbf

conv1.weight_fake_quant.activation_post_process.max_vals f4 [64]
0.21264409 0.4581428 0.08755867 0.22457524 0.6793028 0.31154978 0.2712783 0.53950155
0.72133213 0.24983639 0.44328192 0.17549337 0.27705365 2.7771387e-08 0.64980614 0.68360204
0.21397096 0.43082744 0.7284977 0.32535878 0.7814146 0.5608673 0.7801973 0.25462008
0.22999685 0.14412661 0.59159815 0.41329518 0.103674784 0.19500147 0.32846692 0.042797823
0.30632502 0.5078967 0.15565626 0.40811196 0.26518857 0.25839147 0.5659101 0.60140496
0.23831037 0.41591603 0.15460852 0.2083672 0.06755997 0.37743965 0.48661855 0.21805112
0.3319048 0.51692617 0.4428624 0.43568558 0.047668733 0.34843397 0.56172025 0.39530557
0.28293827 0.07046129 0.052912127 0.14780633 0.3757016 0.3370279 0.09836899 0.6518206
00000000: 5fbf 593e b191 ea3e f651 b33d 0df7 653e
00000010: cae6 2d3f 7483 9f3e fde4 8a3e c61c 0a3f
00000020: 39a9 383f 1cd5 7f3e d9f5 e23e 89b4 333e
00000030: fad9 8d3e ed8d ee32 b259 263f 8b00 2f3f
00000040: 341b 5b3e 6a95 dc3e d37e 3a3f 6d95 a63e
00000050: ca0a 483f 0095 0f3f 03bb 473f 905d 823e
00000060: 4b84 6b3e ed95 133e fa72 173f 6d9b d33e
00000070: 7253 d43d 77ae 473e d12c a83e c54c 2f3d
00000080: a2d6 9c3e 8505 023f 5b64 1f3e 0df4 d03e
00000090: ccc6 873e e34b 843e 7cdf 103f adf5 193f
000000a0: a207 743e f2f2 d43e b251 1e3e 365e 553e
000000b0: e25c 8a3d c53f c13e 1126 f93e cb48 5f3e
000000c0: 6def a93e 4655 043f dcbe e23e 2e12 df3e
000000d0: 4a40 433d f065 b23e e6cc 0f3f 7e65 ca3e
000000e0: 49dd 903e 024e 903d 63ba 583d 8b5a 173e
000000f0: f65b c03e ec8e ac3e ae75 c93d b7dd 263f

layer1.0.conv1.weight_fake_quant.scale f4 [64]
0.002269134 0.001961824 0.0013470378 0.0026856302 0.002021692 0.002507661 0.0019254686 1.1920929e-07
0.0013722692 0.001210069 0.0030822027 0.0010940605 0.0024469665 0.0016203461 0.0017151478 0.0016142739
0.005699044 0.0006475725 0.0028890925 0.0029232246 0.002321601 0.0026308845 0.002167594 1.1920929e-07
0.0053546065 0.0035223002 0.0027351498 1.1920929e-07 0.0008542414 0.0028263456 0.00404246 0.0013421461
0.0009551445 0.0018078616 0.002460928 0.0024414663 0.0041441913 0.004236859 0.0017286977 0.0030534659
0.0042845276 0.0013629127 0.0013994263 0.0013606711 0.0037066098 0.0033715859 0.00069352693 0.002050418
0.0034685726 0.0021300735 0.0010939711 0.003972599 0.0006939646 0.0028208848 0.0022349188 0.0018896637
1.1920929e-07 0.0032150683 1.1920929e-07 0.0014429879 0.002108488 0.0016358295 0.0023190507 0.002213098
00000000: c0b5 143b f291 003b 178f b03a 6601 303b
00000010: 5d7e 043b 9257 243b 0160 fc3a 0000 0034
00000020: b7dd b33a 2e9b 9e3a c8fe 493b 9466 8f3a
00000030: 495d 203b cb61 d43a cfce e03a 0b96 d33a
00000040: 0cbf ba3b dbc1 293a ee56 3d3b 9293 3f3b
00000050: 0026 183b eb6a 2c3b 310e 0e3b 0000 0034
00000060: b275 af3b 64d6 663b 3340 333b 0000 0034
00000070: 2cef 5f3a 363a 393b 9d76 843b f3ea af3a
00000080: aa62 7a3a c5f5 ec3a 8547 213b 0201 203b
00000090: ffcb 873b 59d5 8a3b 7895 e23a a81c 483b
000000a0: 3965 8c3b c3a3 b23a f46c b73a 8c58 b23a
000000b0: 98ea 723b d3f5 5c3b cecd 353a 4e60 063b
000000c0: fe50 633b b498 0b3b 9463 8f3a 932c 823b
000000d0: 2deb 353a 98de 383b b777 123b 98ae f73a
000000e0: 0000 0034 e5b3 523b 0000 0034 a422 bd3a
000000f0: 8f2e 0a3b 5469 d63a 37fb 173b a009 113b

layer1.0.conv1.weight_fake_quant.activation_post_process.min_vals f4 [64]
-0.28931457 -0.25013256 -0.062855005 -0.34241787 -0.25776574 -0.31972677 -0.24549724 -5.6597152e-08
-0.06589091 -0.1542838 -0.39298084 -0.03161813 -0.31198823 -0.20659412 -0.21868134 -0.20581992
-0.7266281 -0.064401776 -0.3683593 -0.37271112 -0.29600412 -0.33543777 -0.27636823 -4.0161044e-08
-0.6827123 -0.44909328 -0.3487316 -5.137239e-08 -0.10891578 -0.36035907 -0.51541364 -0.081108324
-0.121780924 -0.05917778 -0.3137683 -0.31128696 -0.5283844 -0.5401995 -0.21876666 -0.14708641
-0.5462773 -0.17377137 -0.17842685 -0.17348556 -0.47259274 -0.4298772 -0.08842468 -0.24772732
-0.442243 -0.27158436 -0.117205255 -0.5065063 -0.0655553 -0.3596628 -0.082094386 -0.24093212
-3.7863494e-08 -0.4099212 -3.764546e-08 -0.067929365 -0.2688322 -0.06536 -0.29567897 -0.28217
00000000: 0a21 94be 6011 80be 20ba 80bd 6551 afbe
00000010: dff9 83be 3ab3 a3be a163 7bbe 3a15 73b3
00000020: d0f1 86bd 93fc 1dbe c934 c9be 0382 01bd
00000030: ecbc 9fbe 698d 53be 00ee 5fbe 75c2 52be
00000040: 4d04 3abf 14e5 83bd 9799 bcbe fed3 bebe
00000050: da8d 97be 80be abbe 2380 8dbe 897d 2cb3
00000060: 3cc6 2ebf 8eef e5be f38c b2be 8aa4 5cb3
00000070: 3d0f dfbd fc80 b8be 26f2 03bf 1f1c a6bd
00000080: 4768 f9bd 6664 72bd 3da6 a0be 0161 9fbe
00000090: 3344 07bf 844a 0abf 5e04 60be d29d 16be
000000a0: d4d8 0bbf 1ff1 31be 87b5 36be 33a6 31be
000000b0: adf7 f1be dd18 dcbe 0018 b5bd 3bac 7dbe
000000c0: ad6d e2be 1b0d 8bbe 4f09 f0bd 66aa 01bf
000000d0: db41 86bd b925 b8be 1a21 a8bd e9b6 76be
000000e0: 5a9f 22b3 31e1 d1be 9faf 21b3 8d1e 8bbd
000000f0: 60a4 89be 77db 85bd 3c63 97be 9678 90be

layer1.0.conv1.weight_fake_quant.activation_post_process.max_vals f4 [64]
0.15110439 0.11492661 0.17174733 0.085743785 0.17163935 0.20105168 0.15494446 2.537715e-08
0.17496432 0.12697005 0.097016364 0.1394927 0.10070371 0.18357319 0.17329201 0.14080065
0.090319216 0.082565494 0.04964001 0.08287937 0.13556094 0.1460374 0.12376508 2.5936474e-08
0.090848796 0.13127093 0.060922064 3.2313686e-08 0.061168745 0.10459849 0.22011022 0.17112362
0.08850256 0.23050235 0.22659001 0.10792482 0.17936234 0.13464591 0.22040896 0.3893169
0.10395433 0.082456574 0.07448009 0.09818891 0.119777806 0.062144328 0.054307308 0.2614283
0.10606628 0.12859567 0.1394813 0.10409631 0.08848049 0.2785654 0.28495213 0.04747694
2.9402136e-08 0.13216801 2.9344893e-08 0.18398096 0.1541743 0.20856826 0.15036675 0.24488679
00000000: 1cbb 1a3e a45e eb3d 88de 2f3e 709a af3d
00000010: 3ac2 2f3e 7ee0 4d3e c3a9 1e3e f1fc d932
00000020: d929 333e 7004 023e 84b0 c63d 2dd7 0e3e
00000030: bf3d ce3d 9cfa 3b3e 7673 313e 0c2e 103e
00000040: 48f9 b83d 1918 a93d 5353 4b3d a9bc a93d
00000050: 7dd0 0a3e d48a 153e 8c78 fd3d e9ca de32
00000060: ef0e ba3d e36b 063e 6a89 793d 46c9 0a33
00000070: 148c 7a3d bc37 d63d 9364 613e 083b 2f3e
00000080: d540 b53d cf08 6c3e 3607 683e b007 dd3d
00000090: c3aa 373e 9ee0 093e e3b2 613e 8b54 c73e
000000a0: 02e6 d43d fede a83d 0489 983d 4417 c93d
000000b0: 114e f53d 0d8b 7e3d 5771 5e3d eed9 853e
000000c0: 4739 d93d 95ae 033e 30d4 0e3e 7230 d53d
000000d0: 4235 b53d 20a0 8e3e 3fe5 913e 2e77 423d
000000e0: fb8f fc32 0d57 073e 1a12 fc32 8165 3c3e
000000f0: dedf 1d3e eb92 553e bef9 193e 9ac3 7a3e

layer1.0.conv2.weight_fake_quant.scale f4 [64]
1.1920929e-07 0.00072692044 0.0007382767 0.0016833215 0.0011659093 0.0013608643 0.0017590492 0.0015320964
0.0006562558 0.0007791454 0.00031929134 0.003669524 0.001999572 0.0008600872 0.0006297333 0.0019431144
0.0014494394 0.00089107687 0.0006318094 1.1920929e-07 0.003475168 0.001455745 0.0012006362 0.0017996333
0.00068223977 0.002219708 0.0011973731 0.001259652 0.00081253075 0.0012389593 0.0012452629 0.0012014838
0.0011691297 0.0023354837 0.00061612047 0.0006747247 0.0011684207 0.001347085 0.0016385315 0.002873235
0.0013178936 0.002932567 0.0016700065 0.0008321916 0.00082515075 0.0018858006 0.0015276178 0.00081540056
0.0024342164 0.00045843367 0.0008702914 0.0018455739 0.0015534271 0.0011663013 0.0010259916 0.00054841494
0.0007877958 0.0006434942 0.0006538183 3.0223753e-05 0.0003808377 1.1920929e-07 0.00089012226 0.0029759489
00000000: 0000 0034 ce8e 3e3a e988 413a e6a2 dc3a
00000010: 6dd1 983a 075f b23a e68f e63a a0d0 c83a
00000020: 9508 2c3a 903f 4c3a 8f66 a739 667c 703b
00000030: 400b 033b 7a77 613a b014 253a 1ab0 fe3a
00000040: 1efb bd3a 2897 693a 03a0 253a 0000 0034
00000050: a5bf 633b b2ce be3a aa5e 9d3a ace1 eb3a
00000060: 56d8 323a 8578 113b 2df1 9c3a e81a a53a
00000070: 0400 553a 9364 a23a 1738 a33a 1b7b 9d3a
00000080: 7c3d 993a ea0e 193b 2583 213a 02e0 303a
00000090: b125 993a ac90 b03a fec3 d63a e24c 3c3b
000000a0: 2cbd ac3a 4f30 403b 1fe4 da3a 6f27 5a3a
000000b0: ee4e 583a f82c f73a 593a c83a 9bc0 553a
000000c0: 6087 1f3b ed59 f039 4424 643a 2fe7 f13a
000000d0: 5d9c cb3a 94de 983a 917a 863a 81c3 0f3a
000000e0: 1584 4e3a 2ab0 283a 0165 2b3a 0489 fd37
000000f0: 2cab c739 0000 0034 1857 693a 2308 433b

layer1.0.conv2.weight_fake_quant.activation_post_process.min_vals f4 [64]
-1.6334058e-08 -0.09184823 -0.09413028 -0.2146235 -0.14865345 -0.1735102 -0.22427878 -0.12370992
-0.04019011 -0.05050462 -0.040709645 -0.46786433 -0.24953276 -0.06492401 -0.033425756 -0.13918158
-0.18480353 -0.036928337 -0.076832555 -3.086433e-07 -0.35929674 -0.13832963 -0.067961365 -0.12073406
-0.06472987 -0.17236124 -0.11288846 -0.107588574 -0.06293716 -0.11042758 -0.15877102 -0.10297081
-0.11676818 -0.15541242 -0.07855536 -0.044848725 -0.12583095 -0.17175333 -0.11895199 -0.2411465
-0.13835067 -0.25800535 -0.17725706 -0.09737902 -0.077645056 -0.15990342 -0.13645303 -0.10396357
-0.28548965 -0.058450293 -0.11096215 -0.18115069 -0.13556617 -0.14870341 -0.13081393 -0.05987648
-0.10044397 -0.08204551 -0.03985349 -0.0038535285 -0.04855681 -1.6849791e-08 -0.065439686 -0.30700684
00000000: f94e 8cb2 ed1a bcbd 60c7 c0bd 43c6 5bbe
00000010: 9c38 18be a8ac 31be 56a9 65be a05b fdbd
00000020: 639e 24bd efdd 4ebd 28bf 26bd ea8b efbe
00000030: 8485 7fbe e1f6 84bd 72e9 08bd 9e85 0ebe
00000040: 233d 3dbe 2b42 17bd 635a 9dbd 9db3 a5b4
00000050: bef5 b7be 48a6 0dbe 542f 8bbd 6b43 f7bd
00000060: 1891 84bd 777f 30be 1132 e7bd 6657 dcbd
00000070: 33e5 80bd db27 e2bd df94 22be 5ce2 d2bd
00000080: 2824 efbd 6f24 1fbe a2e1 a0bd 4cb3 37bd
00000090: d4d9 00be 1be0 2fbe 1a9d f3bd 1cef 76be
000000a0: ccab 0dbe 4719 84be e082 35be a76e c7bd
000000b0: 5f04 9fbd b9bd 23be 58ba 0bbe daea d4bd
000000c0: b32b 92be 9369 6fbd 2040 e3bd 917f 39be
000000d0: dcd1 0abe b545 18be 16f4 05be 0a41 75bd
000000e0: 91b5 cdbd 7a07 a8bd 6a3d 23bd 7b8b 7cbb
000000f0: 81e3 46bd 15bd 90b2 3e05 86bd 0030 9dbe

layer1.0.conv2.weight_fake_quant.activation_post_process.max_vals f4 [64]
2.096101e-08 0.092682354 0.09104283 0.1691203 0.10951053 0.08406048 0.1622181 0.19534229
0.08367261 0.099341035 0.033805855 0.20196101 0.25494543 0.109661125 0.080290996 0.2477471
0.1819266 0.1136123 0.0805557 6.165541e-07 0.4430839 0.18560748 0.1530811 0.22945324
0.08698557 0.28301275 0.15266508 0.16060562 0.10359767 0.1579673 0.14098765 0.15318918
0.14906405 0.29777417 0.060221627 0.0860274 0.14897363 0.16948779 0.20891276 0.36633745
0.16803144 0.3739023 0.21292584 0.10610443 0.10520672 0.24043958 0.19477127 0.09424849
0.3103626 0.058042224 0.0755381 0.23531067 0.19806196 0.094278306 0.1063686 0.0699229
0.096566655 0.04798496 0.083361834 0.003598772 0.04117228 1.6482792e-08 0.11349059 0.37943348
00000000: c00d b432 3fd0 bd3d aa74 ba3d df2d 2d3e
00000010: 0f47 e03d e727 ac3d 801c 263e cf07 483e
00000020: 8c5c ab3d 5073 cb3d 0278 0a3d dece 4e3e
00000030: 3588 823e 0396 e03d 9b6f a43d 6ab1 7d3e
00000040: f74a 3a3e 91ad e83d 63fa a43d 4681 2535
00000050: e5db e23e e30f 3e3e 4bc1 1c3e caf5 6a3e
00000060: 7e25 b23d 0ce7 903e 3c54 1c3e cd75 243e
00000070: 042b d43d 2ec2 213e 115f 103e a0dd 1c3e
00000080: 3fa4 183e db75 983e f4aa 763d 222f b03d
00000090: 8b8c 183e 358e 2d3e 3aed 553e 9590 bb3e
000000a0: 6f10 2c3e 1f70 bf3e 3b09 5a3e 484d d93d
000000b0: 9f76 d73d cb35 763e 1f72 473e 5a05 c13d
000000c0: d9e7 9e3e afbd 6d3d b8b3 9a3d 48f5 703e
000000d0: c1d0 4a3e fc14 c13d c8d7 d93d bd33 8f3d
000000e0: bdc4 c53d e18b 443d 9cb9 aa3d 60d9 6b3b
000000f0: 44a4 283d 0b96 8d32 c16d e83d 1b45 c23e

layer1.0.conv3.weight_fake_quant.scale f4 [256]
0.0005967691 0.0006924814 0.000304222 0.0024269316 0.00032492288 0.0007330707 0.0011056914 0.0011936628
0.00061823317 0.0011979494 0.0020413108 0.00077066425 0.00087308686 0.0011047128 0.0013510403 0.00084668427
0.0026554235 0.0010364965 0.00043543984 0.0011145121 0.00093230896 0.000979675 1.1920929e-07 1.1920929e-07
0.0011033767 8.602382e-06 0.00043053742 0.0026896768 0.0013917546 0.0015411372 0.001396224 0.0020436835
0.001120871 0.0015738119 0.00077251263 0.00100317 0.00074438367 0.0010698655 0.00094566843 0.0004886379
8.6501335e-05 0.0011225693 0.0009267759 0.001239405 0.0006507054 2.1831958e-07 0.0006358222 0.0008373644
0.00050464156 0.00048002883 0.001076996 0.0003023953 1.1920929e-07 0.00057200267 0.0008166004 0.00069314725
0.0005485533 0.00094396673 0.001955794 0.0010974278 0.0009222321 0.001212819 0.0007770118 0.00078043365
1.1920929e-07 0.0006921089 0.0006571288 0.0012944269 0.0009321934 0.0005606848 0.0001894755 1.1920929e-07
0.0027505201 0.0005905976 0.0028503882 0.00042405687 2.4365585e-05 0.0005065654 0.0016392568 0.00066063815
0.0011696977 0.0017592183 0.00077564095 1.1920929e-07 0.001985606 0.0012874147 0.0009926697 1.1920929e-07
0.0008112336 1.1920929e-07 0.00097167137 0.00072723144 0.00051810645 1.0243941e-05 0.00018990456 0.00064558146
0.0012074332 0.0019617903 0.0007132029 0.0009184488 0.001869412 1.1920929e-07 0.0011457779 0.0006035154
0.00134819 0.0007945743 0.0017773656 1.1920929e-07 0.00043912668 0.0010553959 0.000734807 0.0014169833
0.00044251292 0.0005358184 0.0030873327 0.0018169782 0.0017643982 1.1920929e-07 0.0016281077 0.0019658941
0.001192566 0.0013362225 0.0017540642 8.9956535e-07 0.0014459435 0.0008472725 0.0012496924 2.7035205e-06
0.00065813604 0.0013653578 0.0010337862 0.0008889863 0.0006481773 1.1920929e-07 1.1920929e-07 0.0007164052
0.00068165857 0.0008844832 0.001215496 0.00047655025 0.00073604484 0.0017762854 0.00046218702 0.00093746296
0.0004303159 0.00090631214 0.0008419845 0.00067257765 0.0005517112 0.0006431864 0.0008174842 0.0005308858
0.0005886546 0.00051586196 0.0007537225 0.00081293285 0.000710811 0.0010813583 0.0010501331 0.0009882153
0.0021340002 0.0012681561 0.001224511 0.001183957 0.0003582254 0.0003383837 0.0002454103 0.0016178817
0.0009870648 0.0006601157 0.00018485813 0.00076986226 0.00060014625 0.00067933317 1.1920929e-07 0.00037534238
0.0015979401 0.0010360566 0.0012322618 0.0010560518 0.00081065326 0.00041376136 0.00079416524 0.002349514
0.00048694143 1.1920929e-07 0.0010806326 0.00086369313 0.0019314269 0.0008463585 0.0008105996 0.00045878775
0.00065627485 0.000875688 0.0004702611 0.00069294334 0.0008214055 0.0024464002 0.0014799901 3.2940568e-07
0.001765952 0.001047458 1.1920929e-07 0.0014102436 1.1920929e-07 0.0005401983 0.0009340568 0.0005893034
0.00082818157 0.0009796745 0.00083714165 0.0003399211 0.00042911607 0.0012462302 1.1920929e-07 0.0009514878
0.0010545538 0.0015973398 0.0007803801 0.00082419557 0.0012784858 0.00054101227 0.00056044455 0.0007847723
0.00063258497 0.0013345369 0.00069817615 0.00078025163 0.0006523852 0.00020596742 0.00095261494 0.002303065
0.00041040164 0.0013191685 0.001591043 0.00033558454 0.00093232264 0.0013450608 0.0003138436 0.00040780572
0.00066689576 0.00023319825 0.00083743286 0.0016565914 0.0007406777 0.0005678903 5.651191e-07 0.00096605317
0.0007256594 0.0011927122 0.00073105644 0.0006191657 0.0012501061 0.0005620397 0.0015934487 0.0008497248
00000000: 7f70 1c3a a487 353a fc7f 9f39 280d 1f3b
00000010: 695a aa39 8b2b 403a d9ec 903a ad74 9c3a
00000020: ed10 223a 8304 9d3a 83c7 053b 6706 4a3a
00000030: dedf 643a 03cc 903a 6415 b13a 05f4 5d3a
00000040: 9d06 2e3b 0ddb 873a bf4b e439 d214 923a
00000050: 3266 743a 7068 803a 0000 0034 0000 0034
00000060: 2e9f 903a f352 1037 c1b9 e139 4a45 303b
00000070: 896b b63a fcff c93a 8101 b73a 52ef 053b
00000080: 31ea 923a 5d48 ce3a 7282 4a3a cd7c 833a
00000090: be22 433a bb3a 8c3a bce6 773a ef17 003a
000000a0: 0d68 b538 2d23 933a e1f2 723a 8873 a23a
000000b0: 1a94 2a3a 3b6b 6a34 4ead 263a 9382 5b3a
000000c0: ec49 043a 61ac fb39 fd29 8d3a cf8a 9e39
000000d0: 0000 0034 73f2 153a 2011 563a 53b4 353a
000000e0: cacc 0f3a 8974 773a c72c 003b 91d7 8f3a
000000f0: f3c1 713a 74f7 9e3a 61b0 4b3a 0496 4c3a
00000100: 0000 0034 a46e 353a 2b43 2c3a c2a9 a93a
00000110: 715e 743a ecfa 123a f1ad 4639 0000 0034
00000120: 1242 343b 56d2 1a3a 94cd 3a3b f353 de39
00000130: b264 cc37 07cb 043a 55dc d63a ad2e 2d3a
00000140: 8b50 993a 9295 e63a 6254 4b3a 0000 0034
00000150: f120 023b 78be a83a 781c 823a 0000 0034
00000160: f7a8 543a 0000 0034 c3b7 7e3a ada3 3e3a
00000170: 89d1 073a 64dd 2b37 1e21 4739 3d3c 293a
00000180: bc42 9e3a 6191 003b 3df6 3a3a 0ec4 703a
00000190: 0f07 f53a 0000 0034 ed2d 963a 3c35 1e3a
000001a0: c0b5 b03a fb4a 503a 7ef6 e83a 0000 0034
000001b0: 963a e639 3655 8a3a 10a0 403a 12ba b93a
000001c0: 1401 e839 2a76 0c3a d954 4a3b ac27 ee3a
000001d0: 6143 e73a 0000 0034 3b66 d53a 3bd6 003b
000001e0: e04f 9c3a 3024 af3a a1e8 e53a a979 7135
000001f0: d085 bd3a 7f1b 5e3a b8cc a33a 216e 3536
00000200: c386 2c3a cef5 b23a 1c80 873a dc0a 693a
00000210: 71ea 293a 0000 0034 0000 0034 24cd 3b3a
00000220: 55b1 323a aadc 673a 4751 9f3a 7ed9 f939
00000230: 22f3 403a 3fd2 e83a b151 f239 13c0 753a
00000240: 069c e139 9495 6d3a a0b8 5c3a ec4f 303a
00000250: b6a0 103a 829b 283a 704c 563a 252b 0b3a
00000260: f14f 1a3a e93a 073a 7695 453a 001b 553a
00000270: b855 3a3a 5dbc 8d3a 9fa4 893a 0187 813a
00000280: 95da 0b3b 4238 a63a c57f a03a 012f 9b3a
00000290: 33d0 bb39 1769 b139 6aaa 8039 1a0f d43a
000002a0: 6660 813a 9d0b 2d3a 7ad6 4139 95d0 493a
000002b0: 2253 1d3a 4715 323a 0000 0034 9ac9 c439
000002c0: f971 d13a 4acc 873a d883 a13a 386b 8a3a
000002d0: 0582 543a 1cee d839 872f 503a 4efa 193b
000002e0: 2c4c ff39 0000 0034 03a4 8d3a 7769 623a
000002f0: ef27 fd3a 28de 5d3a 6b7e 543a 7389 f039
00000300: dc09 2c3a 6d8e 653a 608d f639 a4a6 353a
00000310: 9753 573a c953 203b 3afc c13a 2cd9 b034
00000320: 8477 e73a dc4a 893a 0000 0034 ecd7 b83a
00000330: 0000 0034 189c 0d3a 7edb 743a 7b7b 1a3a
00000340: 531a 593a 6c68 803a a073 5b3a 7037 b239
00000350: fcfa e039 8c58 a33a 0000 0034 446d 793a
00000360: f438 8a3a d45d d13a 6c92 4c3a d40e 583a
00000370: dd92 a73a b8d2 0d3a ccea 123a 2db9 4d3a
00000380: 0fd4 253a a1eb ae3a cf05 373a cd89 4c3a
00000390: d404 2b3a f5f8 5739 e8b8 793a 05ef 163b
000003a0: 2d2b d739 f3e7 ac3a 8b8a d03a 65f1 af39
000003b0: 1d67 743a c04c b03a 608b a439 c2ce d539
000003c0: 9ed2 2e3a ae86 7439 2b87 5b3a fc21 d93a
000003d0: 0a2a 423a 79de 143a b0b2 1735 bb3e 7d3a
000003e0: 2e3a 3e3a c854 9c3a 5ea4 3f3a 824f 223a
000003f0: 9ada a33a d955 133a 44db d03a 11c0 5e3a

layer1.0.conv3.weight_fake_quant.activation_post_process.min_vals f4 [256]
-0.055981956 -0.0061429245 -0.037861597 -0.3094338 -0.0229532 -0.08764331 -0.12480434 -0.123955585
-0.07882473 -0.15273854 -0.2602671 -0.098259695 -0.11131857 -0.10776985 -0.11285486 -0.08593231
-0.33856648 -0.104937784 -0.05419172 -0.07611558 -0.118869394 -0.06655847 -3.9285882e-07 -8.4365624e-08
-0.14068054 -0.0010968037 -0.05489352 -0.21222535 -0.1774487 -0.073954806 -0.17801856 -0.16556223
-0.12679009 -0.10070035 -0.089755 -0.07307361 -0.094908915 -0.13273813 -0.012665822 -0.024867423
-0.008480239 -0.14312759 -0.11816393 -0.15021127 -0.08296494 -1.0722958e-05 -0.06496378 -0.09214805
-0.0643418 -0.014192833 -0.13731699 -0.02290903 -2.8531178e-07 -0.06315381 -0.10411655 -0.088376276
-0.010182183 -0.120355755 -0.103719346 -0.07898629 -0.11758459 -0.15463443 -0.09906901 -0.0552062
-2.2589947e-07 -0.08824388 -0.04434928 -0.16503942 -0.09780863 -0.012663695 -0.024158126 -3.3761017e-07
-0.19969007 -0.0601119 -0.36342448 -0.045761734 -0.0023177627 -0.04642355 -0.09587009 -0.08423136
-0.14423911 -0.10102795 -0.09889422 -1.1312955e-05 -0.25316477 -0.16414538 -0.11934284 -2.8006394e-07
-0.09566826 -3.2123162e-07 -0.011977911 -0.02923163 -0.008836372 -0.0011576135 -0.018035773 -0.06658258
-0.15394773 -0.25012827 -0.090933375 -0.07162124 -0.23835003 -5.2673556e-07 -0.09340681 -0.057905156
-0.17189422 -0.09792501 -0.10558073 -6.621299e-07 -0.05598865 -0.13456298 -0.07350255 -0.18066537
-0.010242501 -0.06831685 -0.19554192 -0.13637203 -0.15982454 -1.011736e-07 -0.12584157 -0.2506515
-0.14600582 -0.07393281 -0.22364318 -9.5249365e-05 -0.18435779 -0.10191805 -0.15933578 -0.00023641638
-0.08391234 -0.17408311 -0.12393354 -0.07186866 -0.071007304 -1.4641851e-06 -2.3453497e-06 -0.02529435
-0.08691147 -0.11277161 -0.15497574 -0.021074314 -0.08800058 -0.22647639 -0.054857917 -0.11952653
-0.05339571 -0.115554795 -0.102295026 -0.05975462 -0.05032556 -0.08200626 -0.055166896 -0.06768794
-0.07359983 -0.061884638 -0.05067076 -0.075493775 -0.037410863 -0.13787319 -0.13389197 -0.12599745
-0.14850317 -0.1616899 -0.15612514 -0.017486177 -0.042737342 -0.018383618 -0.031289816 -0.1485064
-0.115491934 -0.07763963 -0.021732297 -0.09323514 -0.061252538 -0.08661498 -1.4783699e-05 -0.047856152
-0.1284384 -0.13209721 -0.15711337 -0.06171125 -0.06934412 -0.052754574 -0.084285736 -0.21109341
-0.010506943 -2.3287607e-06 -0.08475831 -0.1050189 -0.24625693 -0.008171959 -0.077702485 -0.010332633
-0.08367504 -0.11165022 -0.05995829 -0.08835027 -0.07200345 -0.246924 -0.18869874 -2.9287577e-05
-0.22515887 -0.1335509 -5.308411e-07 -0.09357735 -9.530724e-08 -0.010685899 -0.08233842 -0.075136185
-0.10559315 -0.12490851 -0.07359175 -0.039824013 -0.0547123 -0.087463565 -1.5432076e-06 -0.09087697
-0.1344556 -0.13019225 -0.09143625 -0.099985175 -0.0099200765 -0.067425996 -0.046937443 -0.04457068
-0.031991437 -0.10056482 -0.01086692 -0.09948208 -0.006980058 -0.026260845 -0.048740678 -0.20277977
-0.04232897 -0.13042489 -0.14018703 -0.04278703 -0.11887114 -0.010822498 -0.035977695 -0.031802338
-0.07991372 -0.029732777 -0.10677269 -0.2112154 -0.09053446 -0.05325369 -7.205268e-05 -0.07063086
-0.062065423 -0.1520708 -0.0932097 -0.078943625 -0.14638957 -0.071660064 -0.20316471 -0.10833991
00000000: 564d 65bd 964a c9bb c314 1bbd 1b6e 9ebe
00000010: 5908 bcbc 567e b3bd 6b99 ffbd 6ddc fdbd
00000020: dc6e a1bd 7e67 1cbe bb41 85be 613c c9bd
00000030: fefa e3bd 70b6 dcbd 7320 e7bd 47fd afbd
00000040: 9658 adbe 9fe9 d6bd 23f8 5dbd 7ce2 9bbd
00000050: cc71 f3bd cf4f 88bd 1bea d2b4 7e2c b5b3
00000060: 8f0e 10be a0c2 8fba 07d8 60bd 9a51 59be
00000070: 1db5 35be 9e75 97bd 7f4a 36be 2589 29be
00000080: 43d5 01be fc3b cebd 78d1 b7bd 9ea7 95bd
00000090: 9b5f c2bd 81ec 07be 4f84 4fbc c4b6 cbbc
000000a0: b3f0 0abc 0a90 12be eeff f1bd fcd0 19be
000000b0: 86e9 a9bd c1e6 33b7 bb0b 85bd 1eb8 bcbd
000000c0: a2c5 83bd 0e89 68bc d39c 0cbe b8ab bbbc
000000d0: f42c 99b4 c956 81bd 0f3b d5bd 9ffe b4bd
000000e0: 2cd3 26bc 147d f6bd cf6a d4bd 90c3 a1bd
000000f0: 31d0 f0bd 7d58 1ebe b1e4 cabd e51f 62bd
00000100: c68e 72b4 35b9 b4bd 97a7 35bd 1800 29be
00000110: e44f c8bd 637b 4fbc 43e7 c5bc ca40 b5b4
00000120: 8e7b 4cbe e537 76bd c612 babe a870 3bbd
00000130: 9be5 17bb 9f26 3ebd 8a57 c4bd 7e81 acbd
00000140: 6bb3 13be bee7 cebd 0e89 cabd c6cc 3db7
00000150: d09e 81be ba15 28be 056a f4bd b25b 96b4
00000160: b8ed c3bd bd75 acb4 003f 44bc 2c77 efbc
00000170: 6ec6 10bc 10bb 97ba c2bf 93bc 735c 88bd
00000180: 79a4 1dbe d010 80be 473b babd 28ae 92bd
00000190: 0812 74be fe64 0db5 124c bfbd f52d 6dbd
000001a0: 0a05 30be e88c c8bd b63a d8bd 38bd 31b5
000001b0: 5b54 65bd e1ca 09be 8188 96bd 5800 39be
000001c0: 2ad0 27bc b4e9 8bbd 243c 48be 1ca5 0bbe
000001d0: 0ba9 23be c644 d9b3 9ddc 00be 6555 80be
000001e0: 8d82 15be 166a 97bd b802 65be 9dc0 c7b8
000001f0: 4ac8 3cbe 69ba d0bd eb28 23be 8ae6 77b9
00000200: 3cda abbd d842 32be ded0 fdbd e02f 93bd
00000210: 476c 91bd 0485 c4b5 cd64 1db6 1936 cfbc
00000220: a4fe b1bd cdf4 e6bd f6b1 1ebe 0aa4 acbc
00000230: a639 b4bd 6de9 67be b2b2 60bd 53ca f4bd
00000240: 76b5 5abd fea7 ecbd 0e80 d1bd 43c1 74bd
00000250: 2d22 4ebd e6f2 a7bd aff6 61bd fa9f 8abd
00000260: 82bb 96bd bf7a 7dbd 258c 4fbd 7b9c 9abd
00000270: 223c 19bd a12e 0dbe fa1a 09be 7a05 01be
00000280: 3711 18be 0a92 25be 45df 1fbe 2c3f 8fbc
00000290: 5a0d 2fbd 3e99 96bc c029 00bd 1012 18be
000002a0: 0987 ecbd 8701 9fbd ee07 b2bc 11f2 bebd
000002b0: f1e3 7abd 3263 b1bd 8107 78b7 d004 44bd
000002c0: 5b85 03be 7e44 07be 54e2 20be f0c4 7cbd
000002d0: 4a04 8ebd 2e15 58bd 009e acbd df28 58be
000002e0: 5025 2cbc ce47 1cb6 c495 adbd 2614 d7bd
000002f0: c72a 7cbe aee3 05bc 7b22 9fbd 344a 29bc
00000300: d25d abbd dfa8 e4bd d396 75bd fdf0 b4bd
00000310: 8b76 93bd a5d9 7cbe 3e3a 41be 98ae f5b7
00000320: 0c90 66be 91c1 08be 1f7f 0eb5 7ba5 bfbd
00000330: b6ab ccb3 e913 2fbc 0ca1 a8bd 00e1 99bd
00000340: 3941 d8bd 08d0 ffbd 45b7 96bd 811e 23bd
00000350: 011a 60bd 1920 b3bd 3620 cfb5 b41d babd
00000360: bbae 09be 1e51 05be ee42 bbbd 07c5 ccbd
00000370: d187 22bc a416 8abd 7a41 40bd bf8f 36bd
00000380: 7409 03bd eef4 cdbd 2b0b 32bc 43bd cbbd
00000390: f8b8 e4bb fc20 d7bc 4ea4 47bd 80a5 4fbe
000003a0: 2461 2dbd 1a8e 05be 308d 0fbe 7441 2fbd
000003b0: b672 f3bd d950 31bc 595d 13bd 2b43 02bd
000003c0: cea9 a3bd 2792 f3bc a4ab dabd da48 58be
000003d0: 226a b9bd 8b20 5abd fd1a 97b8 eaa6 90bd
000003e0: 5038 7ebd 73b8 1bbe bae4 bebd 32ad a1bd
000003f0: 26e7 15be 83c2 92bd 690a 50be 51e1 ddbd

layer1.0.conv3.weight_fake_quant.activation_post_process.max_vals f4 [256]
0.07608806 0.08829138 0.038788304 0.16506767 0.04142767 0.09346651 0.14097565 0.152192
0.07037454 0.10022097 0.10147689 0.097580716 0.09380078 0.14085089 0.17225765 0.107952245
0.21635449 0.1321533 0.05551858 0.14210029 0.11881165 0.12490857 1.1140093e-06 1.2815056e-07
0.11238658 0.0006538744 0.013839431 0.3429338 0.11140079 0.196495 0.12180026 0.26056966
0.14291106 0.20066102 0.098495364 0.12790418 0.08900428 0.13640785 0.12057272 0.06230133
0.01102892 0.113643676 0.106091484 0.15802413 0.0582548 2.7835747e-05 0.08106733 0.10676396
0.052951302 0.061203677 0.11113452 0.0385554 1.9124336e-07 0.07293034 0.09864929 0.07678712
0.069940545 0.07934124 0.24936374 0.13992204 0.11386394 0.06781256 0.07185635 0.09950529
1.3120838e-07 0.008560135 0.083783925 0.09959868 0.118854664 0.071487315 0.02356748 2.8163353e-07
0.35069132 0.0753012 0.25947726 0.05406725 0.003106612 0.06458709 0.20900525 0.082729846
0.14913645 0.22430032 0.07191664 1.2396916e-05 0.20486408 0.090908945 0.1265654 7.655262e-07
0.10343228 1.1850799e-06 0.1238881 0.092722006 0.06605857 0.0013061025 0.024212832 0.08231164
0.14417642 0.17012633 0.057354104 0.11710222 0.18553977 4.4877018e-07 0.14608668 0.07694822
0.122099675 0.10130823 0.22661412 9.343193e-07 0.01263562 0.106056966 0.09368789 0.17212103
0.056420397 0.05524548 0.39363492 0.23166472 0.22496077 1.1546137e-07 0.20758374 0.19618438
0.15205216 0.17036837 0.15030621 0.00011469458 0.09121129 0.10802725 0.11477631 0.00034469887
0.040668074 0.08856521 0.13180774 0.11334575 0.08264261 1.742326e-06 4.6268406e-06 0.09134167
0.06745092 0.082433484 0.13475029 0.06076016 0.09384572 0.19162671 0.058928844 0.083702646
0.05486528 0.08620396 0.107353024 0.08575365 0.070343174 0.077606425 0.10422924 0.06733613
0.07505346 0.0657724 0.09609962 0.10364894 0.0906284 0.13297355 0.12301336 0.089814134
0.272085 0.10662379 0.09674299 0.15095451 0.04567374 0.04314392 0.027814103 0.20627992
0.12585077 0.084164746 0.023569413 0.098157436 0.07651865 0.06431426 9.78862e-06 0.025831021
0.20373736 0.09750656 0.096805505 0.13464661 0.10335829 0.045278303 0.101256065 0.29956305
0.062085032 2.027418e-06 0.13778065 0.11012088 0.11420446 0.10791071 0.10335145 0.05849544
0.06820305 0.0720073 0.01109122 0.06385635 0.1047292 0.31191602 0.046054445 4.1999225e-05
0.16913104 0.11670489 1.1453849e-06 0.17980605 9.270826e-08 0.06887528 0.11909225 0.05057445
0.090871796 0.11306969 0.10673556 0.04333994 0.05295462 0.15889435 2.2678928e-06 0.1213147
0.10008579 0.20366082 0.099498466 0.10508493 0.16300693 0.06897906 0.07145668 0.100058466
0.080654584 0.17015345 0.08901746 0.074111074 0.08317911 0.018311702 0.121458404 0.2936408
0.05232621 0.16819398 0.20285797 0.04103451 0.097315975 0.17149524 0.04001506 0.05199523
0.08502921 0.023213286 0.014206788 0.16318552 0.09443641 0.07240602 6.9984846e-05 0.12317178
0.09252158 0.057849124 0.089447334 0.06740984 0.15938853 0.011305212 0.1502819 0.08416209
00000000: 0fd4 9b3d 1cd2 b43d 7ce0 1e3d 8007 293e
00000010: 0fb0 293d 5f6b bf3d ec5b 103e 38d8 1b3e
00000020: 8720 903d a740 cd3d 1ed3 cf3d 66d8 c73d
00000030: a01a c03d 373b 103e 4f64 303e 1116 dd3d
00000040: 088c 5d3e 3253 073e 7367 633d bd82 113e
00000050: 8653 f33d 10d0 ff3d 1185 9535 c299 0934
00000060: ef2a e63d c568 2b3a c8be 623c 0595 af3e
00000070: 1926 e43d fc35 493e 6a72 f93d 6369 853e
00000080: 4757 123e 157a 4d3e f0b7 c93d 50f9 023e
00000090: e047 b63d 80ae 0b3e d5ee f63d ae2f 7f3d
000000a0: a5b2 343c 04be e83d 7e46 d93d 14d1 213e
000000b0: 969c 6e3d d080 e937 a106 a63d 10a7 da3d
000000c0: 77e3 583d b5b0 7a3d 7f9a e33d 44ec 1d3d
000000d0: 9358 4d34 815c 953d a408 ca3d 9142 9d3d
000000e0: fd3c 8f3d a97d a23d 3559 7f3e b947 0f3e
000000f0: 7f31 e93d 50e1 8a3d 6c29 933d 6ec9 cb3d
00000100: 49e2 0c34 cf3f 0c3c e896 ab3d 65fa cb3d
00000110: 136a f33d f167 923d 9610 c13c 6b33 9734
00000120: d08d b33e 8437 9a3d 34da 843e 9f75 5d3d
00000130: 4d98 4b3b 3c46 843d 7905 563e 446e a93d
00000140: 3ab7 183e fcae 653e 0849 933d 59fc 4f37
00000150: e4c7 513e 782e ba3d 5c9a 013e 8f7e 4d35
00000160: 4ed4 d33d 090f 9f35 0bb9 fd3d 09e5 bd3d
00000170: b749 873d 8731 ab3a fd59 c63c 0193 a83d
00000180: fca2 133e 9935 2e3e 23ec 6a3d 4ad3 ef3d
00000190: 23fe 3d3e 81ee f034 bf97 153e 0797 9d3d
000001a0: 650f fa3d b07a cf3d 880d 683e efcd 7a35
000001b0: a205 4f3c 6534 d93d 70df bf3d 7f40 303e
000001c0: 1319 673d 1649 623d 848a c93e 8439 6d3e
000001d0: 1e5c 663e 8ff3 f733 d590 543e 8fe4 483e
000001e0: 90b3 1b3e 0c75 2e3e dfe9 193e 2f88 f038
000001f0: fccc ba3d 643d dd3d d80f eb3d b3b8 b439
00000200: 9193 263d ad61 b53d 9cf8 063e d121 e83d
00000210: 8740 a93d ded9 e935 4240 9b36 5711 bb3d
00000220: b523 8a3d e3d2 a83d fbfb 093e a5df 783d
00000230: 2f32 c03d cb39 443e 5f5f 713d 4b6c ab3d
00000240: 6aba 603d b48b b03d e7db db3d 9c9f af3d
00000250: 1510 903d 1ef0 9e3d 2476 d53d 86e7 893d
00000260: a1b5 993d aeb3 863d e1cf c43d e545 d43d
00000270: 629b b93d 382a 083e 6eee fb3d 79f0 b73d
00000280: ba4e 8b3e 935d da3d 3021 c63d d293 1a3e
00000290: 6314 3b3d aeb7 303d 67da e33c 0b3b 533e
000002a0: 06df 003e 915e ac3d a414 c13c c406 c93d
000002b0: cfb5 9c3d 32b7 833d ce39 2437 949b d33c
000002c0: 87a0 503e 85b1 c73d f741 c63d cde0 093e
000002d0: 83ad d33d be75 393d 575f cf3d 5460 993e
000002e0: e04c 7e3d c70e 0836 5f16 0d3e 0e87 e13d
000002f0: 07e4 e93d 4a00 dd3d eda9 d33d ea98 6f3d
00000300: 0aae 8b3d 9078 933d f3b7 353c 1ec7 823d
00000310: 437c d63d 75b3 9f3e 96a3 3c3d 5328 3038
00000320: b030 2d3e f902 ef3d 20bb 9935 141f 383e
00000330: e816 c733 7c0e 8d3d a3e6 f33d 2827 4f3d
00000340: fe1a ba3d 1591 e73d 2c98 da3d 3985 313d
00000350: f2e6 583d 33b5 223e 1a32 1836 d773 f83d
00000360: c7f9 cc3d 768c 503e dac5 cb3d c536 d73d
00000370: 4aeb 263e e544 8d3d e157 923d 74eb cc3d
00000380: 3b2e a53d b53c 2e3e c94e b63d 8cc7 973d
00000390: cf59 aa3d 6c02 963c 2fbf f83d 1658 963e
000003a0: 0254 563d 0b3b 2c3e 00ba 4f3e cd13 283d
000003b0: 994d c73d 739c 2f3e d5e6 233d f3f8 543d
000003c0: cb23 ae3d ca29 be3c 96c3 683c 1b1a 273e
000003d0: e067 c13d 9b49 943d d4c4 9238 7c41 fc3d
000003e0: f47b bd3d 34f3 6c3d 2a30 b73d 2c0e 8a3d
000003f0: bf36 233e 7f39 393c 80e3 193e 2d5d ac3d

layer1.0.downsample.0.weight_fake_quant.scale f4 [256]
0.0040320083 0.0046628267 0.0008123081 0.0030791839 0.00018696091 0.0011618049 0.001178153 0.0025464974
0.002747398 0.0009353784 0.0028758713 0.0013912534 0.0014458038 0.0005561369 0.0015486064 0.0013532229
0.0008749735 0.0017404174 0.0006794459 0.0047784783 0.0010351838 0.0012933586 1.1920929e-07 1.1920929e-07
0.0015017921 6.4486208e-06 0.0021473547 0.00040283278 0.0020026756 0.0011677282 0.0020094202 0.00304273
0.001634985 0.00019658658 0.0015682294 0.0020145588 0.0011516178 0.0008387409 0.005750076 0.0030316818
0.0006738828 0.0018082812 0.0020318294 0.0021625075 0.0013053635 1.1920929e-07 0.002765944 0.0009104186
0.0012952995 0.0010304529 0.0015930753 0.001048557 1.1920929e-07 0.0010177696 0.0013041244 0.0023044343
0.00016909612 0.0015993394 0.0011542286 0.0018327987 0.0040251114 0.0014468252 0.001808929 0.0007553667
1.1920929e-07 0.0031062155 0.00097297976 0.0023836603 0.00068288686 0.0010236239 0.0011754391 1.1920929e-07
0.00050871365 0.0032762669 0.0019011131 0.00060274126 1.8326877e-05 0.0028430594 0.0024380255 0.0010420932
0.0025677222 0.0019519783 0.002874341 2.2647986e-07 0.00081894035 0.0014896869 0.0014185135 1.1920929e-07
0.0010612045 1.1920929e-07 0.005838774 0.0013120308 0.0020656912 8.4661726e-05 0.00016003364 0.00080912403
0.0027727974 0.0004403591 0.00089270057 0.00070125225 0.0018026292 1.1920929e-07 0.0014125655 0.0020267563
0.0030424742 0.0015412767 0.0014077937 1.1920929e-07 0.002088676 0.0021854553 0.0029013504 0.00058015407
0.0026806146 0.0012170206 0.00035355182 0.0014000342 0.0025609888 1.1920929e-07 0.0021333059 0.0026975793
0.0011876595 0.0020007568 0.0021300819 7.0321215e-07 0.0014401119 0.0011025557 0.0015261067 4.240114e-06
0.0013619133 0.0012671979 0.0014317654 0.0011671523 0.0016411529 1.1920929e-07 1.1920929e-07 0.0014253809
0.001149057 0.0009780512 0.0016244147 0.00015237583 0.0011576512 0.0019215139 0.0012375338 0.0009229939
0.003521049 0.0015845394 0.0027290697 0.0019461818 0.0039808117 0.0017468052 0.003822465 0.0018064243
0.0006929141 0.0017438234 0.00068641326 0.0012762857 0.00046846457 0.0008028304 0.0016904076 0.0028067215
0.003818204 0.0015904123 0.0017665065 0.00091930636 0.00032454176 0.0009996057 0.001321905 0.0035493001
0.0014212596 0.0012649955 0.00070984644 0.0011715308 0.00043837467 0.00033111867 1.1920929e-07 0.0014791009
0.0011920066 0.0043980307 0.00067968457 0.0016806703 0.0016361752 0.001035883 0.001761617 0.0001334126
0.0024791365 1.1920929e-07 0.0020481173 0.0020660465 0.0016805816 0.0030087407 0.0020610269 0.001438881
0.0030769976 0.0014576614 0.00039456476 0.0037878724 0.0013750732 0.0003023844 0.0013588119 1.1920929e-07
0.001782173 0.0019789718 1.1920929e-07 0.0027973575 1.1920929e-07 0.0011806455 0.00069718173 0.001596768
0.0018879671 0.0010528659 0.0011741299 0.0013787011 0.00040720336 0.0011404182 1.1920929e-07 0.0022219417
0.0012220835 0.0009661435 0.0014508701 0.0019724714 0.004920514 0.00095822924 0.000368342 0.0037059938
0.0017066898 0.0013915006 0.0025033348 0.001642 0.0032315818 0.00093254616 0.00028210264 0.0023572359
0.0007901377 0.00216207 0.0009654838 0.0012932742 0.0013432073 0.007748087 0.0004600124 0.0011177064
0.00048803186 0.00063434493 0.0053757853 0.0019189246 0.0016015539 0.0012845809 3.6120698e-06 0.001467934
0.00076289667 0.0006399524 0.0025805854 0.0038519588 0.0049346485 0.0030923907 0.0028072502 0.001185568
00000000: f01e 843b a0ca 983b 13f1 543a 22cc 493b
00000010: f00a 4439 b447 983a 416c 9a3a 23e3 263b
00000020: b10d 343b 2f34 753a 1d79 3c3b b85a b63a
00000030: 2081 bd3a b7c9 113a 9cfa ca3a a05e b13a
00000040: 7a5e 653a b81e e43a d81c 323a c894 9c3b
00000050: 01af 873a ea85 a93a 0000 0034 0000 0034
00000060: c8d7 c43a 3b61 d836 a2ba 0c3b 4d33 d339
00000070: 523f 033b 750e 993a 7ab0 033b 8a68 473b
00000080: fe4c d63a cf22 4e39 0c8d cd3a b006 043b
00000090: e2f1 963a f3de 5b3a 226b bc3b 2eaf 463b
000000a0: 82a7 303a d903 ed3a 7128 053b dbb8 0d3b
000000b0: bb18 ab3a 0000 0034 d744 353b 28a9 6e3a
000000c0: 0ac7 a93a 4310 873a bdce d03a bc6f 893a
000000d0: 0000 0034 ae66 853a 27ef aa3a fe05 173b
000000e0: 654f 3139 eda0 d13a 7c49 973a 853a f03a
000000f0: 15e5 833b 66a3 bd3a 9619 ed3a cd03 463a
00000100: 0000 0034 a691 4b3b 910f 7f3a 2f37 1c3b
00000110: c303 333a 1e2b 863a 3111 9a3a 0000 0034
00000120: 325b 053a a3b6 563b c52e f93a 4801 1e3a
00000130: abbc 9937 9f52 3a3b 48c7 1f3b d896 883a
00000140: 3b47 283b 86d9 ff3a 715f 3c3b 4f2e 7334
00000150: 28ae 563a 9941 c33a 6aed b93a 0000 0034
00000160: 1d18 8b3a 0000 0034 3053 bf3b 73f8 ab3a
00000170: 8c60 073b 6b8c b138 b4ce 2739 651b 543a
00000180: d2b7 353b ffdf e639 1f04 6a3a 3ed4 373a
00000190: 3346 ec3a 0000 0034 d525 b93a 54d3 043b
000001a0: 3f64 473b aa04 ca3a b885 b83a 0000 0034
000001b0: 2be2 083b db39 0f3b 9524 3e3b 7b15 183a
000001c0: 40ad 2f3b 6f84 9f3a ec5c b939 5a81 b73a
000001d0: 43d6 273b 0000 0034 efce 0b3b dfc9 303b
000001e0: 3dab 9b3a 211f 033b d898 0b3b 5fc4 3c35
000001f0: 23c2 bc3a a183 903a a507 c83a 4d46 8e36
00000200: 3a82 b23a 1b18 a63a 13aa bb3a 22fb 983a
00000210: f41b d73a 0000 0034 0000 0034 d9d3 ba3a
00000220: f49b 963a f431 803a 50ea d43a 13c7 1f39
00000230: 54bc 973a 4fdb fb3a be34 a23a 12f5 713a
00000240: 66c1 663b 52b0 cf3a 31da 323b 0617 ff3a
00000250: 7871 823b 0ef5 e43a 5282 7a3b 8bc5 ec3a
00000260: aea4 353a 0191 e43a 6af0 333a 0b49 a73a
00000270: 409c f539 0975 523a ab90 dd3a f9f0 373b
00000280: d53a 7a3b 6275 d03a 1f8a e73a 9bfd 703a
00000290: 4227 aa39 3405 833a c543 ad3a 609b 683b
000002a0: 8f49 ba3a 35ce a53a fd14 3a3a 0d8e 993a
000002b0: a7d5 e539 ff99 ad39 0000 0034 64de c13a
000002c0: 1b3d 9c3a 5b1d 903b dc2c 323a f049 dc3a
000002d0: ee74 d63a 77c6 873a 0fe6 e63a ace4 0b39
000002e0: 0279 223b 0000 0034 b539 063b 8266 073b
000002f0: f646 dc3a 4b2e 453b 4b12 073b d698 bc3a
00000300: 74a7 493b 000f bf3a 96dd ce39 f43d 783b
00000310: cd3b b43a 5989 9e39 291a b23a 0000 0034
00000320: ce97 e93a a3b1 013b 0000 0034 df53 373b
00000330: 0000 0034 e4bf 9a3a 13c3 363a a54a d13a
00000340: aa75 f73a 5100 8a3a 43e5 993a 88b5 b43a
00000350: e97d d539 167a 953a 0000 0034 ff9d 113b
00000360: 512e a03a cb44 7d3a 1f2b be3a 9444 013b
00000370: 433c a13b ad31 7b3a 071e c139 42e0 723b
00000380: 02b3 df3a 0363 b63a fd0e 243b 6138 d73a
00000390: f2c8 533b 1d76 743a 2de7 9339 db7b 1a3b
000003a0: 3e21 4f3a 84b1 0d3b 8518 7d3a 1583 a93a
000003b0: 8f0e b03a aae3 fd3b d22d f139 0180 923a
000003c0: 87de ff39 2b4a 263a 5b27 b03b 6d84 fb3a
000003d0: 3beb d13a 625f a83a e366 7236 b167 c03a
000003e0: 21fd 473a 7bc2 273a 0a1f 293b 2571 7c3b
000003f0: d5b2 a13b b5a9 4a3b d8f9 373b 1065 9b3a

layer1.0.downsample.0.weight_fake_quant.activation_post_process.min_vals f4 [256]
-0.51408106 -0.5945104 -0.08211568 -0.39259595 -0.023025779 -0.14813012 -0.15021451 -0.32467842
-0.35029325 -0.11926075 -0.3666736 -0.17738481 -0.18433999 -0.05776997 -0.19744731 -0.17253591
-0.11155912 -0.21792634 -0.06232582 -0.60925597 -0.13198593 -0.16490322 -3.3642334e-07 -2.3666576e-07
-0.14932165 -0.00082219916 -0.13266836 -0.05136118 -0.17535652 -0.091447204 -0.12783903 -0.38794807
-0.20846058 -0.025064789 -0.19994925 -0.25685623 -0.14683127 -0.105538525 -0.7331347 -0.38653943
-0.06968783 -0.23055585 -0.25905827 -0.2757197 -0.16643384 -1.0128513e-06 -0.35265785 -0.11607837
-0.099985406 -0.13138275 -0.2031171 -0.1065524 -2.6721042e-07 -0.12976561 -0.16627586 -0.29381537
-0.021559756 -0.18701828 -0.10556036 -0.23368183 -0.5132017 -0.14355354 -0.23063844 -0.09630925
-2.8494395e-07 -0.39604247 -0.124054916 -0.09247192 -0.06221682 -0.13051204 -0.13487674 -8.479608e-07
-0.06486099 -0.417724 -0.24239191 -0.032053813 -0.0023366767 -0.09952473 -0.31084827 -0.13286687
-0.3273846 -0.24887723 -0.3664785 -1.1746071e-05 -0.04941836 -0.18993507 -0.18086047 -1.4284771e-07
-0.0651654 -1.4736165e-07 -0.7444437 -0.16535312 -0.24322154 -0.0049822186 -0.020404289 -0.10316332
-0.2319356 -0.031038081 -0.10198894 -0.089409664 -0.22983523 -6.802367e-07 -0.1801021 -0.25841144
-0.38791546 -0.19651277 -0.1794937 -5.4848925e-07 -0.2663062 -0.27864555 -0.36992216 -0.06135992
-0.34177837 -0.15517013 -0.045077857 -0.17850436 -0.32652608 -1.8810992e-07 -0.2719965 -0.34394136
-0.15142658 -0.2550965 -0.27158543 -8.965955e-05 -0.18361427 -0.115789644 -0.1945786 -0.00016465281
-0.15603827 -0.13962197 -0.18255009 -0.14881192 -0.209247 -4.9439313e-07 -1.6358161e-06 -0.18173607
-0.14650476 -0.106791265 -0.20711288 -0.019427918 -0.14760053 -0.19934018 -0.15778555 -0.11768172
-0.09143127 -0.20202878 -0.3479564 -0.24813817 -0.052603044 -0.22271766 -0.16855417 -0.22822806
-0.07119193 -0.22233748 -0.044095684 -0.16272643 -0.059729233 -0.102360874 -0.21552697 -0.357857
-0.486821 -0.20277758 -0.22522958 -0.0022633725 -0.03129489 -0.12744974 -0.08498577 -0.45253578
-0.18121059 -0.16128694 -0.09050542 -0.14937018 -0.03128752 -0.04221763 -5.6771632e-06 -0.18858537
-0.103573784 -0.07491839 -0.044374187 -0.21428546 -0.20861234 -0.080016926 -0.22460617 -0.017010106
-0.3160899 -1.6960195e-06 -0.26113495 -0.2634209 -0.21427415 -0.37134036 -0.26278093 -0.18345733
-0.3923172 -0.18585183 -0.050307006 -0.48295373 -0.17532183 -0.006040968 -0.17324851 -7.4709983e-06
-0.22722706 -0.16734397 -2.4146877e-07 -0.35666308 -1.5630701e-07 -0.1505323 -0.087466754 -0.20358792
-0.2407158 -0.1342404 -0.14970157 -0.17578438 -0.05191843 -0.14540333 -1.9886852e-06 -0.28329757
-0.13016456 -0.123183295 -0.18498594 -0.18358694 -0.4615375 -0.11740043 -0.040855598 -0.4725142
-0.03306487 -0.17741632 -0.22210808 -0.20935501 -0.1470632 -0.06842454 -0.01532229 -0.30054757
-0.100742556 -0.2756639 -0.04066856 -0.16489246 -0.13325088 -0.43578103 -0.05865158 -0.14250757
-0.06222406 -0.08087898 -0.68541265 -0.21442029 -0.19020133 -0.16378407 -0.00028463744 -0.08628161
-0.09726933 -0.07402836 -0.32902464 -0.49112475 -0.6291677 -0.3942798 -0.3579244 -0.11597282
00000000: d19a 03bf d531 18bf 442c a8bd 5602 c9be
00000010: 8fa0 bcbc 6caf 17be d5d1 19be 403c a6be
00000020: a359 b3be fb3e f4bd a4bc bbbe 5da4 35be
00000030: 9fc3 3cbe 34a0 6cbd a12f 4abe 41ad 30be
00000040: 1c79 e4bd 1528 5fbe 5c49 7fbd 33f8 1bbf
00000050: 5227 07be 64dc 28be ac9d b4b4 301e 7eb4
00000060: c6e7 18be da88 57ba 37da 07be 1a60 52bd
00000070: a990 33be ac48 bbbd 3ce8 02be 21a1 c6be
00000080: b176 55be ac54 cdbc 7fbf 4cbe a982 83be
00000090: f05a 16be 9524 d8bd b7ae 3bbf 7fe8 c5be
000000a0: 7eb8 8ebd d516 6cbe 49a3 84be 222b 8dbe
000000b0: a26d 2abe 4ef1 87b5 928f b4be 7fba edbd
000000c0: 26c5 ccbd 3389 06be eefd 4fbe 2538 dabd
000000d0: 1f75 8fb4 47e1 04be 3844 2abe f86e 96be
000000e0: 169e b0bc b881 3fbe 0830 d8bd 4a4a 6fbe
000000f0: 3061 03bf b3ff 12be 7c2c 6cbe c93d c5bd
00000100: 66fa 98b4 14c6 cabe 8110 febd eb61 bdbd
00000110: 10d7 7ebd f3a4 05be 211d 0abe 6c9f 63b5
00000120: d7d5 84bd ecdf d5be 9635 78be dc4a 03bd
00000130: ee22 19bb 9fd3 cbbd 8127 9fbe 410e 08be
00000140: f49e a7be acd9 7ebe 12a3 bbbe fe10 45b7
00000150: e86a 4abd 577e 42be 7d33 39be ae61 19b4
00000160: 7075 85bd 763a 1eb4 dd93 3ebf 5452 29be
00000170: 110f 79be e141 a3bb e526 a7bc 4a47 d3bd
00000180: 8780 6dbe 9343 febc 94df d0bd 6a1c b7bd
00000190: ed59 6bbe 8399 36b5 af6c 38be 814e 84be
000001a0: db9c c6be a53a 49be 32cd 37be e53b 13b5
000001b0: 4959 88be a1aa 8ebe 7066 bdbe 8a54 7bbd
000001c0: 93fd aebe ebe4 1ebe 8fa3 38bd d9c9 36be
000001d0: 6d2e a7be 43fb 49b4 2043 8bbe 1519 b0be
000001e0: 920f 1bbe 029c 82be 3f0d 8bbe 9b07 bcb8
000001f0: 6105 3cbe 1f23 edbd 9d3f 47be a7a6 2cb9
00000200: 7fc8 1fbe 10f9 0ebe 69ee 3abe 2762 18be
00000210: d844 56be 70b6 04b5 378e dbb5 0519 3abe
00000220: 5805 16be 61b5 dabd 6615 54be 4c27 9fbc
00000230: 9824 17be d51f 4cbe 8992 21be 1d03 f1bd
00000240: 5140 bbbd a2e0 4ebe 5727 b2be ef17 7ebe
00000250: 4a76 57bd 1910 64be 7799 2cbe 9eb4 69be
00000260: 13cd 91bd 70ac 63be ad9d 34bd c2a1 26be
00000270: a4a6 74bd 94a2 d1bd 1ab3 5cbe 0839 b7be
00000280: 9a40 f9be eda4 4fbe 95a2 66be 1755 14bb
00000290: 122f 00bd 2f82 02be 050d aebd c5b2 e7be
000002a0: 458f 39be 6728 25be e85a b9bd 7ff4 18be
000002b0: 5827 00bd 65ec 2cbd 767e beb6 861c 41be
000002c0: 7e1e d4bd d06e 99bd b5c1 35bd a66d 5bbe
000002d0: 799e 55be eadf a3bd 29ff 65be c758 8bbc
000002e0: 89d6 a1be c9a2 e3b5 7bb3 85be 1bdf 86be
000002f0: af6a 5bbe 5320 bebe 398b 86be 3ddc 3bbe
00000300: cddd c8be f14f 3ebe b80e 4ebd b645 f7be
00000310: 9187 33be 50f3 c5bb 0f68 31be 63af fab6
00000320: 36ae 68be 385c 2bbe 37a3 81b4 8b9c b6be
00000330: 58d5 27b4 2425 1abe c521 b3bd 5a79 50be
00000340: 347e 76be 5176 09be 5e4b 19be d200 34be
00000350: 6ba8 54bd 9ce4 14be 5a75 05b6 610c 91be
00000360: dc49 05be 8647 fcbd f46c 3dbe 37fe 3bbe
00000370: a54e ecbe a36f f0bd 3358 27bd 62ed f1be
00000380: 076f 07bd a0ac 35be 4d70 63be 2961 56be
00000390: bc97 16be 2a22 8cbd 580a 7bbc 5fe1 99be
000003a0: 1d52 cebd d223 8dbe 1394 26bd 92d9 28be
000003b0: eb72 08be b11e dfbe a43c 70bd 81ed 11be
000003c0: a8de 7ebd e1a3 a5bd 3477 2fbf fe90 5bbe
000003d0: 23c4 42be 03b7 27be 643b 95b9 6ab4 b0bd
000003e0: 2435 c7bd 2e9c 97bd eb75 a8be b474 fbbe
000003f0: 2211 21bf 0bdf c9be de41 b7be 2883 edbd
