linearcode/quants/shufflenet.pth (torch, 503889 bytes, 171 tensors)

conv1.0.weight_fake_quant.scale f4 [24]
000000 66 e3 4a 3c e1 2d 01 38 c0 a3 66 3c b7 27 1e 3c
       0.012383318 3.0798725e-05 0.014077127 0.009653023
000010 2e 57 16 3c d4 76 d4 3b bb 5b ab 36 12 34 a7 3b
       0.009176059 0.006483892 5.106876e-06 0.005102643
000020 48 0b 6b 3c c8 ae 43 3c 44 00 08 38 d4 ee a3 3c
       0.014345951 0.011943527 3.2425174e-05 0.020011343
000030 8b 3b a0 37 79 5d 97 3c 5b 84 90 3b 26 a8 be 3b
       1.9101213e-05 0.018477188 0.0044103093 0.0058183847
000040 ce 43 74 37 5d 49 90 3c 04 bb df 37 0e 3b 9f 3c
       1.455932e-05 0.017613107 2.6670758e-05 0.01943734
000050 1f 61 a3 3c 45 fc 8b 3c 88 e2 23 3b f1 4d 26 37
       0.019943772 0.017088065 0.002500685 9.912518e-06

conv1.0.weight_fake_quant.activation_post_process.min_vals f4 [24]
000000 9f 03 66 bf 32 8c 9f 39 1c bd e5 bf 8f 89 9d bf
       -0.89849275 0.00030431297 -1.7948337 -1.2307605
000010 1a 8a 61 be 0f 22 77 be 33 c6 1c ba 84 c7 ae bd
       -0.22025338 -0.24134086 -0.0005980462 -0.08534148
000020 01 c4 db bf 19 eb c2 bf 15 d5 38 ba 2e a3 a8 bf
       -1.7169191 -1.5227996 -0.00070507947 -1.3174798
000030 54 d3 81 ba 1c c6 16 c0 fc 67 1b be 7e e9 3d bf
       -0.00099049 -2.3558416 -0.15176386 -0.74184406
000040 7c ef 0c ba 50 b9 df bf 81 d5 09 3a d3 9b 1e c0
       -0.0005376262 -1.7478428 0.000525795 -2.4782608
000050 be bd 22 c0 6d db 81 bf 1d 9a 91 be a3 a7 a5 ba
       -2.542831 -1.0145088 -0.28437892 -0.0012638461

conv1.0.weight_fake_quant.activation_post_process.max_vals f4 [24]
000000 83 18 ca 3f b3 ac 80 3b 52 57 e5 3f 90 e7 92 3f
       1.578873 0.0039268374 1.7917273 1.1476917
000010 d7 c0 95 3f 5d a2 53 3f 5f b0 2a 3a de 8c 26 3f
       1.1699475 0.8266962 0.00065112667 0.65058696
000020 3d 20 ea 3f ec bf 53 3f 44 78 87 3b e5 4a 23 40
       1.8291088 0.82714725 0.00413421 2.5514462
000030 4f 9b 1f 3b a9 5e 15 40 d7 f3 0f 3f 61 13 aa bd
       0.0024354046 2.3339026 0.56231445 -0.083044775
000040 8a 4f f3 3a 14 b9 0f 40 49 db 5e 3b 82 21 08 40
       0.0018563133 2.2456713 0.0034005216 2.1270452
000050 c2 66 17 40 49 70 0b 40 a5 3e a3 3e 74 06 b4 37
       2.3656468 2.1787283 0.3188373 2.1460677e-05

stage2.0.branch1.0.weight_fake_quant.scale f4 [24]
000000 d1 28 c2 3c 1c cb e9 3c db f2 e5 3c 15 43 c9 3c
       0.023701103 0.028539233 0.028069904 0.02456812
000010 ff 65 8b 3c aa 87 d8 3c b1 4e 9a 3c ac 06 33 3d
       0.017016409 0.026431877 0.018836351 0.043707535
000020 87 03 00 3d 72 47 b0 3c c8 0c 8c 3c a2 23 4f 3d
       0.031253364 0.021518443 0.017095938 0.05057109
000030 cb 95 7e 3c 4e 7a 5a 3c 13 26 54 3c de cd 41 3d
       0.015538643 0.013334824 0.012948531 0.04731547
000040 d1 72 10 3c b9 2f 38 3d 04 bf 90 3c 32 c6 d9 3c
       0.008816437 0.044967387 0.017669208 0.026583765
000050 ae 03 a5 3c 53 93 3b 3d 52 0c 1d 3c e0 d9 50 3c
       0.020143356 0.045794796 0.009585457 0.012747258

stage2.0.branch1.0.weight_fake_quant.activation_post_process.min_vals f4 [24]
000000 cf 49 56 be 00 43 6e 3f 90 f1 c6 bf d2 79 48 c0
       -0.20926593 0.93070984 -1.5542469 -3.1324353
000010 99 da 0a c0 22 af 57 c0 62 b4 19 c0 59 df 8a c0
       -2.1695921 -3.3700643 -2.4016347 -4.339764
000020 0c eb 1d be 2b 97 2f c0 bb 80 0b c0 7e 54 ce c0
       -0.15421695 -2.7436016 -2.179732 -6.447814
000030 35 97 fd bf d4 9f d9 bf ed 51 d3 bf 10 0c c1 c0
       -1.981177 -1.7001901 -1.6509377 -6.0327225
000040 23 46 bb 3e 37 00 80 bf 45 2e 10 c0 6c ec 58 c0
       0.36576948 -1.0000066 -2.252824 -3.38943
000050 aa 5e 24 c0 c0 d7 ba c0 bd e2 dd be 06 09 d0 bf
       -2.5682778 -5.8388367 -0.4333705 -1.6252754

stage2.0.branch1.0.weight_fake_quant.activation_post_process.max_vals f4 [24]
000000 a8 66 41 40 51 e1 68 40 e8 0c 65 40 4b 3b 15 3e
       3.0218906 3.6387522 3.5789127 0.145734
000010 b3 30 cd 3e 53 ee 10 3f 1f 8a 26 3e a5 53 b2 40
       0.40076217 0.56613654 0.16263627 5.5727105
000020 07 07 7f 40 a8 53 0f 3c 56 ce d0 3e e6 90 44 40
       3.984804 0.008747973 0.40782422 3.071344
000030 65 17 80 3f 22 1f a4 3f 2d b0 96 3e 9f 3d 8a 40
       1.000714 1.2822001 0.29431286 4.320022
000040 5e e2 8f 3f 89 77 b7 40 22 8b a9 3f 83 6b af 3f
       1.1240957 5.7333417 1.3245585 1.3704685
000050 71 ca 0a 3f df e0 a6 40 46 6f 9c 3f a4 c0 71 3f
       0.5421515 5.21495 1.2221458 0.9443457

stage2.0.branch1.2.weight_fake_quant.scale f4 [24]
000000 c7 a5 7b 3c 0d b0 18 3c 0b fd 27 3c 8a 8c f8 3b
       0.015359349 0.0093193175 0.010253201 0.007585113
000010 89 77 38 3c fd 29 de 3b ee db 36 3c 90 25 3b 3c
       0.011258968 0.0067799077 0.011160834 0.01142253
000020 ee 78 33 3c e9 c5 03 3c a1 fc f9 3b 6b 31 32 3c
       0.010954125 0.008042791 0.0076289927 0.01087604
000030 1e 66 bd 3b c0 ee 9a 3b 7d 0c 62 3c 4f f7 52 3c
       0.0057799956 0.0047281682 0.013796923 0.012876346
000040 bb 05 44 3c cb ce d7 3b 08 52 b7 3b 4c 21 c5 3b
       0.011964257 0.006585931 0.0055944957 0.006015932
000050 72 1d 85 3b c4 23 96 3b 09 2e 2a 3c 71 cf 4b 3c
       0.004062348 0.0045819003 0.010386952 0.012439595

stage2.0.branch1.2.weight_fake_quant.activation_post_process.min_vals f4 [24]
000000 87 7d 47 be 39 e2 52 be 3b 25 5b bf fd 93 77 bf
       -0.19481479 -0.2059411 -0.85603684 -0.9671019
000010 11 bf b7 bf d3 4b 5d bf 12 25 b6 bf dc 66 fa bd
       -1.4355184 -0.86443824 -1.4230063 -0.1222665
000020 6c 25 a9 bf b0 00 52 bf 40 ad be be 92 dd 96 be
       -1.3214545 -0.820323 -0.37241554 -0.2946592
000030 b8 a8 3c bf fc 52 9b be c9 9a 90 be 94 b8 c3 be
       -0.73694944 -0.3033675 -0.28243092 -0.3822676
000040 b5 41 c3 bf fc f6 56 bf b6 9a 36 bf 46 41 28 bf
       -1.5254427 -0.8397062 -0.7132982 -0.657246
000050 47 36 31 be a0 8d 15 bf db 83 a9 bf a2 03 cb bf
       -0.17305861 -0.5841923 -1.3243364 -1.5860484

stage2.0.branch1.2.weight_fake_quant.activation_post_process.max_vals f4 [24]
000000 21 aa fa 3f 5d 17 98 3f 0e 55 a7 3f ed ac 22 3f
       1.9583169 1.188213 1.3072832 0.63545114
000010 79 8c 3b 3e f2 c4 90 3e 41 14 ab 3f 6a 6a ba 3f
       0.18315305 0.28275257 1.3365556 1.4563725
000020 75 c5 b2 3f 23 42 83 3f a4 02 79 3f 3a 7f b1 3f
       1.3966509 1.0254558 0.97269654 1.3866951
000030 bc d0 76 3e d1 53 1a 3f 71 2a e1 3f 58 24 d2 3f
       0.24103063 0.60284144 1.7591077 1.6417341
000040 4b b4 d5 3e de 3a fa 3e 22 d8 57 3e 2b 5c 44 3f
       0.41739115 0.48873037 0.21078542 0.7670314
000050 55 98 04 3f 56 85 fa 3e 01 3f f0 3e 99 c2 ec 3e
       0.5179494 0.48929852 0.46923068 0.46242216

stage2.0.branch2.0.weight_fake_quant.scale f4 [24]
000000 30 f8 33 3c 2e 16 2f 3c 4b 85 13 3c 3e 8c 22 3c
       0.0109844655 0.01068644 0.0090039475 0.009921132
000010 c8 bc 35 3c 59 0f ff 3b 27 8d 66 3c 24 14 0e 3c
       0.011092372 0.007783812 0.014071739 0.008671794
000020 aa 86 3d 37 90 98 58 3c 7f d2 4c 3c 29 f4 bd 3b
       1.1296632e-05 0.0132199675 0.012501358 0.0057969284
000030 2f d4 80 37 eb 3c f2 3b fa 53 0b 3c 8b 78 5c 3c
       1.5357595e-05 0.007392516 0.008503908 0.013456474
000040 90 95 7a 3c 73 6e 22 37 92 18 3a 3c d4 17 c4 3b
       0.015294448 9.681668e-06 0.011358397 0.005984286
000050 bd aa 3b 3c e9 6a 33 3c aa 3d a7 3c e5 99 15 3c
       0.011454281 0.010950782 0.020415146 0.00913093

stage2.0.branch2.0.weight_fake_quant.activation_post_process.min_vals f4 [24]
000000 38 44 b3 bf 18 67 ae bf c6 f1 92 bf ba ec 73 be
       -1.4005194 -1.3625212 -1.1480033 -0.23820773
000010 0b 07 b5 bf 4a 10 7e bf 9a a6 e5 bf 10 86 8d bf
       -1.4142774 -0.99243605 -1.7941468 -1.1056538
000020 d6 22 51 ba 15 f3 58 bf a8 ef 82 bf ea ed 86 be
       -0.0007977908 -0.84745914 -1.0229387 -0.2635339
000030 6f c0 e2 ba ae 4a 71 bf a6 c8 8a bf 12 9c db bf
       -0.0017299781 -0.9425458 -1.0842483 -1.7157004
000040 d2 09 97 bd 46 7f 66 b9 79 5e b9 bf 59 61 09 bf
       -0.0737492 -0.00021981922 -1.4481956 -0.53664166
000050 12 ef ba bf 7e b7 b2 bf 6c 96 26 c0 4b 04 95 bf
       -1.4604208 -1.3962247 -2.602931 -1.1641935

stage2.0.branch2.0.weight_fake_quant.activation_post_process.max_vals f4 [24]
000000 35 36 2a 3f 76 96 d1 3e f3 ee 45 3f b2 e9 a1 3f
       0.66488963 0.40935105 0.7731773 1.2649443
000010 74 83 43 3f d1 a4 30 3e 26 06 80 3f cb 94 36 3f
       0.76372457 0.17250372 1.0001876 0.7132079
000020 23 c9 bc 3a f7 bf d7 3f ad 05 cc 3f 35 36 3d 3f
       0.0014403205 1.6855458 1.5939232 0.7391084
000030 5b 53 00 3b 4e 9b 4d 3f 76 90 3f 3f 01 09 97 3e
       0.0019580934 0.803151 0.74829805 0.29499057
000040 fa 9a f9 3f 05 cc a1 3a 01 ee 11 3f bc 53 43 3f
       1.950042 0.0012344128 0.5700379 0.76299644
000050 4a 10 d9 3e c1 7a 3e 3f 29 0c 5b 3f 7e 2f 04 3e
       0.4239524 0.7440606 0.8556543 0.12908742

stage2.0.branch2.3.weight_fake_quant.scale f4 [24]
000000 b2 ba 82 3c c7 b4 80 3c f4 40 b8 3c b7 52 32 3c
       0.015958164 0.015711201 0.02249191 0.010883979
000010 43 c2 27 3c 7e e4 b8 3c 7f d2 ba 3c 15 8b 85 3c
       0.010239187 0.022569891 0.02280545 0.016301671
000020 aa 7c 5b 3d 35 53 3f 3d 4b 09 9c 3c c7 98 9d 3c
       0.053585686 0.04671021 0.0190474 0.019237889
000030 75 e5 c0 3c e4 00 4e 3c cc dc d4 3c 65 aa e5 3c
       0.023546914 0.0125734545 0.02598419 0.028035352
000040 79 e1 bb 3c 75 6a a0 3c bc 42 63 3c 41 7c 52 3c
       0.022934662 0.019582013 0.013870891 0.012847007
000050 5b 9a 01 3d 0b dd 22 3d 11 e5 99 3c ff 1d be 3c
       0.031641345 0.039761584 0.018785985 0.023207663

stage2.0.branch2.3.weight_fake_quant.activation_post_process.min_vals f4 [24]
000000 d1 ff be 3d 12 34 00 c0 58 53 44 3f 64 a0 b1 bf
       0.09326137 -2.0031781 0.7668967 -1.3877072
000010 ce d0 1e be 9a 2b 38 c0 ff 08 62 3e 8a 05 05 c0
       -0.1550934 -2.8776612 0.22073744 -2.078463
000020 cb 3d a3 bf e2 93 be c0 e8 d5 2c 3c 2e fb 1c c0
       -1.2753233 -5.955552 0.010549046 -2.4528308
000030 90 24 40 c0 23 7b 01 be ef 07 54 c0 00 ca a6 bd
       -3.0022316 -0.12644629 -3.3129842 -0.08143997
000040 98 25 3b c0 0b ca 1f c0 45 54 ad 3e f6 ff be 3c
       -2.9241695 -2.4967067 0.33853355 0.023315411
000050 d9 02 34 c0 2e 3a a2 c0 2c 4b 19 c0 40 6f 61 bf
       -2.8126738 -5.069602 -2.3952131 -0.8806038

stage2.0.branch2.3.weight_fake_quant.activation_post_process.max_vals f4 [24]
000000 f7 37 02 40 86 09 96 be b3 88 37 40 82 c7 86 bd
       2.0346658 -0.2930414 2.8677185 -0.06581022
000010 81 1a a7 3f 8c c1 05 40 ad 17 3a 40 6a 9d 40 3d
       1.3054963 2.0899382 2.907695 0.04702512
000020 2d a1 da 40 e5 d7 b9 40 42 6d 1b 40 1d 85 06 3d
       6.832175 5.8076043 2.4285436 0.03284179
000030 12 c2 e5 bd e3 32 cd 3f ce e2 4e bf bb c4 64 40
       -0.112186566 1.6031154 -0.80814826 3.5745075
000040 26 07 20 40 c9 05 e7 3e 79 5f e2 3f c5 a9 d1 3f
       2.5004363 0.451216 1.7685386 1.6379935
000050 c1 18 81 40 fc 7a c6 bf c0 74 01 3d e1 5f 3d 40
       4.0342717 -1.5506282 0.031605482 2.958977

stage2.0.branch2.5.weight_fake_quant.scale f4 [24]
000000 10 96 0f 3c 6e b0 27 3c 3d 6d de 3b 52 50 d8 3b
       0.008763805 0.010234935 0.0067879246 0.006601372
000010 52 de d0 3b 58 bd e1 3b 8e 57 b9 3b 47 5e 13 3c
       0.006374159 0.0068890266 0.0056561893 0.008994645
000020 d9 dd 07 3c cd 33 10 3c f1 fa 96 36 b4 fe 14 3c
       0.008292639 0.008801413 4.499562e-06 0.009093929
000030 fe 12 07 3c 47 a4 cd 3b 7c 63 0b 3c ea 41 27 3c
       0.008244274 0.006275687 0.008507606 0.010208586
000040 1a 2a ba 3b fb a4 17 3c f7 84 cf 3b 96 80 23 3c
       0.0056812884 0.009255643 0.0063329893 0.009979388
000050 e6 c6 e1 3b 29 9c 1c 3c d7 52 b0 3b 29 ee 0e 3c
       0.0068901656 0.009558716 0.005380969 0.008723774

stage2.0.branch2.5.weight_fake_quant.activation_post_process.min_vals f4 [24]
000000 9a 5e af be be 08 a7 bf fe 76 59 bf 2c bd 4b bf
       -0.34251863 -1.3049543 -0.8494719 -0.7958553
000010 37 3b ac be 9b db 60 bf 36 9e 38 bf 92 82 5c be
       -0.33638927 -0.8783509 -0.7211641 -0.21534184
000020 42 3c 4c bf 99 a3 8f bf f6 63 16 ba b5 69 94 bf
       -0.79779446 -1.1221801 -0.0005736941 -1.1594759
000030 d2 a1 16 bf a3 d6 4c bf 19 d8 8a bf a8 9a a6 bf
       -0.5884067 -0.8001501 -1.0847198 -1.3015947
000040 f0 6f 39 bf 56 0d 97 bf 72 b5 4e bf e1 94 11 bf
       -0.7243643 -1.1800945 -0.80745614 -0.56867796
000050 1f e5 60 bf a3 e0 1e bf 84 a2 2f bf 19 c7 de be
       -0.8784961 -0.6206152 -0.68607354 -0.43511274

stage2.0.branch2.5.weight_fake_quant.activation_post_process.max_vals f4 [24]
000000 7a 06 8f 3f e9 8e b1 3d d0 8e 5d 3f 02 78 57 3f
       1.1173851 0.08669836 0.8654604 0.8416749
000010 74 0d 50 3f 08 f7 28 3f 67 3f 30 3f e9 ca 92 3f
       0.8127053 0.6600194 0.68846744 1.1468173
000020 fb 55 87 3f 73 a2 20 3f 61 f6 06 3a 54 24 a0 3e
       1.0573114 0.6274788 0.00051484077 0.31277716
000030 eb 8b 86 3f 37 8c 21 3f 88 26 e2 3e 85 ec 12 3f
       1.051145 0.63104576 0.44170022 0.5739215
000040 78 96 99 3e 22 78 31 3f 26 cc 10 3f 15 dd a2 3f
       0.2999761 0.69323933 0.56561506 1.2723719
000050 f7 b8 88 3e 8d ff 9b 3f 9e d5 26 3f 3b 5f 8e 3f
       0.26703617 1.2187363 0.65169704 1.1122812

stage2.1.branch2.0.weight_fake_quant.scale f4 [24]
000000 46 29 8a 3b f7 a2 95 3b ff a9 e3 3b ce 2e 86 3b
       0.004216346 0.004566546 0.0069477553 0.004094935
000010 37 03 a9 3b 43 00 fa 3b c9 15 c0 3b 59 1f c7 3b
       0.005157854 0.0076294257 0.005861972 0.006076735
000020 40 24 8b 3b 19 06 de 3b e3 86 d5 3b f3 e5 cd 3b
       0.0042462647 0.0067756292 0.006516324 0.0062835156
000030 50 1e b9 3b cb 85 e2 3b 6e 77 f0 3b fc 91 9a 3b
       0.0056493655 0.006912922 0.007338456 0.0047171097
000040 d2 d7 ef 3b 07 90 a2 3b ec 93 9c 3b 37 85 c6 3b
       0.007319429 0.004961017 0.004778376 0.006058361
000050 a7 18 51 3b f2 11 53 3b a9 92 0e 3c 29 bd 1d 3c
       0.0031905563 0.003220674 0.008701959 0.009627619

stage2.1.branch2.0.weight_fake_quant.activation_post_process.min_vals f4 [24]
000000 1d 9f 09 bf 05 a6 94 be 55 c6 62 bf 9f a8 05 bf
       -0.5375841 -0.29032913 -0.8858388 -0.5221042
000010 88 d4 cc be 7f e7 b3 be b3 55 3f bf 3a 58 46 bf
       -0.40005898 -0.35137555 -0.7474014 -0.77478373
000020 e2 52 e8 be a1 71 0c bf 5c b1 54 bf 0d 18 4d bf
       -0.45375735 -0.54860884 -0.8308313 -0.80114824
000030 56 76 ab be 45 a3 61 bf f7 86 6f bf 6a f7 19 bf
       -0.3348872 -0.88139755 -0.93565315 -0.6014315
000040 fa e7 6e bf 77 ed 21 bf 58 f7 1b bf b2 be 45 bf
       -0.9332272 -0.6325297 -0.6092429 -0.772441
000050 8e 47 d0 be e0 3e d2 be 13 bc 03 bf 6c 1f 9d bf
       -0.40679592 -0.41063595 -0.51458853 -1.2275214

stage2.1.branch2.0.weight_fake_quant.activation_post_process.max_vals f4 [24]
000000 2e 6d 03 3f 54 0d 15 3f ab 00 e1 3e d1 41 77 3e
       0.5133847 0.5822346 0.43945822 0.241462
000010 34 5a 28 3f 43 06 79 3f 27 74 e4 3e cb 53 1e 3f
       0.6576264 0.9727518 0.44619867 0.6184661
000020 1c 99 0a 3f 13 28 5d 3f f2 75 1d 3f 3d 06 dd 3e
       0.54139876 0.86389273 0.61508095 0.43168822
000030 32 65 38 3f 18 54 f7 3e cf 12 de 3e 2f 04 ea 3e
       0.7202941 0.48306346 0.43373725 0.45706317
000040 be 8f 1f 3f ba ea cc 3e f2 14 0c 3f 7c 1c d1 3e
       0.6232871 0.40022832 0.5471946 0.40842044
000050 8b 72 b3 3e 03 ad be 3e 16 04 8e 3f 40 70 d4 3e
       0.35048327 0.37241372 1.1094997 0.4149189

stage2.1.branch2.3.weight_fake_quant.scale f4 [24]
000000 6a 4a b8 3c 69 cb 03 3d 97 64 2f 3d b9 59 ea 3c
       0.02249642 0.03217641 0.04282054 0.028607236
000010 d1 8d c8 3c e1 36 b0 3c 3d 08 10 3d cf 61 84 3c
       0.024481686 0.021510543 0.035164107 0.01615992
000020 d9 6a 8a 3c 29 d7 e1 3c 4d 79 60 3c 44 32 ff 3c
       0.016896652 0.027568417 0.013700795 0.031151898
000030 d9 8a 0a 3d 63 ed 02 3d d0 4a 10 3d 22 8f 16 3d
       0.03382382 0.03196467 0.035227597 0.036757596
000040 d8 62 6f 3d 89 36 21 3d 43 bc 82 3c 1a 52 dc 3c
       0.058443874 0.03935865 0.01595891 0.026894618
000050 05 20 81 3c b2 35 a7 3c 53 f2 61 3d 3e 8d ec 3c
       0.015762338 0.020411346 0.05516274 0.028875943

stage2.1.branch2.3.weight_fake_quant.activation_post_process.min_vals f4 [24]
000000 39 e9 02 bf e1 45 05 c0 32 b5 ae c0 5f 6f 69 c0
       -0.5113712 -2.08239 -5.4596186 -3.6474226
000010 15 99 dc bf 5f 44 03 be 35 78 8f c0 85 4e 60 bb
       -1.7234217 -0.1281905 -4.4834237 -0.0034226489
000020 6e e0 09 c0 52 f5 60 c0 1d c3 88 be 12 33 7e c0
       -2.154323 -3.5149732 -0.2671136 -3.971867
000030 4e 00 8a c0 81 32 e5 bf 85 ba 8f c0 93 f8 95 c0
       -4.312537 -1.7906038 -4.4915185 -4.6865935
000040 75 73 ee c0 52 95 a0 c0 87 39 02 c0 c8 75 5b c0
       -7.451594 -5.0182276 -2.0347612 -3.4290638
000050 17 18 dd be 7c 8e 26 c0 61 10 e1 c0 2a 00 af bf
       -0.43182442 -2.6024466 -7.0332494 -1.3671925

stage2.1.branch2.3.weight_fake_quant.activation_post_process.max_vals f4 [24]
000000 20 92 37 40 9e 47 83 40 46 33 6c 40 32 05 28 40
       2.8682938 4.1024923 3.6906295 2.625317
000010 43 c5 47 40 aa 86 2f 40 45 25 ba 3f 6d dd 03 40
       3.121415 2.7425942 1.4542624 2.0603898
000020 71 5f 99 be d6 a5 20 3f d4 98 df 3f ad 84 b3 3f
       -0.2995563 0.62753046 1.7468514 1.4024864
000030 57 56 b2 3f 76 6a 82 40 cf 80 9b 3f 30 2a 95 3f
       1.3932599 4.0754957 1.2148684 1.16535
000040 30 86 96 3f 2c e1 ef 3f f4 2b f7 3f 01 3b eb 3e
       1.1759701 1.8740592 1.9310288 0.45943454
000050 e5 9e 00 40 f0 3d b0 3e 2b 6d c2 3f b1 a0 6b 40
       2.0096982 0.34422255 1.5189565 3.6816828

stage2.1.branch2.5.weight_fake_quant.scale f4 [24]
000000 c2 95 f0 3b 1c 9f bf 3b 39 3e 0f 3c a0 47 c3 3b
       0.0073420713 0.0058478247 0.008742862 0.005959466
000010 9d e5 24 3c 99 3a 1d 3c ec 5b 93 3b be b4 9e 3b
       0.01006451 0.00959649 0.004497042 0.0048433235
000020 1e 9d a4 3b 51 6d c8 3b f2 d3 bf 3b 52 30 a7 3b
       0.0050236126 0.006116547 0.0058541233 0.005102196
000030 4b 80 92 3b 2b db 92 3b bf 57 c9 3b e4 81 69 3b
       0.00447086 0.0044816933 0.0061444934 0.00356304
000040 85 7a a0 3b 59 d8 ae 3b 9b 3c 96 3b f5 47 e1 3b
       0.004897418 0.0053358492 0.0045848615 0.006875033
000050 03 cb e0 3b 6a 84 68 3b 29 80 af 3b c0 a4 92 3b
       0.0068601384 0.0035479316 0.005355854 0.004475206

stage2.1.branch2.5.weight_fake_quant.activation_post_process.min_vals f4 [24]
000000 2c a5 6f bf a1 80 35 bf fb ae 8e bf f4 1c d1 be
       -0.9361141 -0.708994 -1.114715 -0.40842402
000010 b7 40 a4 bf 64 de 83 be c6 57 ca be 09 16 1e bf
       -1.2832249 -0.25755608 -0.3952009 -0.6175237
000020 81 f8 23 bf 31 f1 c9 be c0 3b 2b bf bc 07 05 bf
       -0.6405106 -0.39441827 -0.66888046 -0.51964927
000030 cb ed 11 bf 50 48 12 bf 67 8e 48 bf cc 9a 8a be
       -0.5700347 -0.5714159 -0.7834229 -0.27071226
000040 48 4b a3 be 6e 04 da be b6 f7 d0 be ad 66 60 bf
       -0.31893373 -0.42581505 -0.40813988 -0.8765667
000050 38 ea 5f bf e6 9b e7 be e3 c8 72 be f2 0d 47 be
       -0.87466764 -0.4523613 -0.23709445 -0.19438913

stage2.1.branch2.5.weight_fake_quant.activation_post_process.max_vals f4 [24]
000000 1f f3 ed 3e 7d df 3e 3f 8a 08 a8 3e 58 84 42 3f
       0.4647455 0.74559766 0.32819015 0.7598319
000010 bf 2e d3 3e 5e 9d 9c 3f 90 c8 12 3f 03 79 03 3f
       0.41246602 1.2235525 0.57337284 0.51356524
000020 0d 3f cd 3e e4 a4 47 3f 1e 14 3f 3f 22 89 26 3f
       0.40087166 0.7798598 0.7464007 0.65053
000030 54 3f ba 3e ee 7a 9e 3e fc 21 e5 3e 62 98 e8 3e
       0.3637644 0.30953163 0.4475249 0.4542876
000040 0a da 1f 3f 81 29 2e 3f 5e a6 15 3f cb 57 cf 3e
       0.62442076 0.6803208 0.5845698 0.40496668
000050 63 b8 0c 3f de 1f cf 3e a9 d0 2e 3f 1b 12 12 3f
       0.5496885 0.40454 0.6828714 0.57058877

stage2.2.branch2.0.weight_fake_quant.scale f4 [24]
000000 b1 fa e0 3b 8f 84 1b 3c e5 78 66 3a 38 ed 16 3c
       0.0068658222 0.009492054 0.00087918184 0.009211831
000010 9a 75 a4 3b 6d c7 01 3c cc fb 4f 3b b6 58 7e 3b
       0.005018902 0.007921082 0.0031735776 0.00388102
000020 ba 63 c1 3b 03 90 c2 3b c5 06 ab 3b 18 70 8a 3b
       0.005901781 0.0059375777 0.005219313 0.0042247884
000030 fa ad 80 3b fb f6 d5 3b 5e d1 f6 3b 66 dc c8 3b
       0.0039269896 0.0065296865 0.0075322827 0.006129789
000040 c9 0a ad 3b f3 07 a2 3b 0f c5 98 3b a7 cd 15 3c
       0.0052808267 0.0049447953 0.004662163 0.00914327
000050 f3 bd 9b 3b 87 1f ba 3b da 06 f1 3b a3 69 ad 3b
       0.0047528683 0.005680028 0.007355553 0.005292134

stage2.2.branch2.0.weight_fake_quant.activation_post_process.min_vals f4 [24]
000000 90 fd 36 be 0f ab a1 bd 6c 92 e5 bd 4b 56 96 bf
       -0.17870164 -0.07893955 -0.112095684 -1.1745085
000010 4c 89 9a be 5c ba 3a bf bf c0 a4 be 94 43 d8 be
       -0.30182874 -0.7294061 -0.32178304 -0.42239058
000020 56 a2 40 bf 94 26 09 bf be 5b 2a bf 56 fc eb be
       -0.75247705 -0.5357449 -0.6654624 -0.46090955
000030 47 e6 ce be 04 21 55 bf 8d da 75 bf 8a 13 48 bf
       -0.40410063 -0.832535 -0.9603661 -0.78154814
000040 be 5d 2c bf a0 3a 1b bf 43 b8 d5 be ae 90 d3 be
       -0.6733054 -0.6063633 -0.41742143 -0.4132132
000050 54 48 b3 be 67 65 39 bf f7 ef 3b bf 39 bc 2c bf
       -0.3501612 -0.7242035 -0.7341303 -0.67474705

stage2.2.branch2.0.weight_fake_quant.activation_post_process.max_vals f4 [24]
000000 b6 19 60 3f 0a e9 9a 3f bb 2d bd 3d 33 69 8d 3d
       0.8753923 1.2102368 0.09237238 0.06904831
000010 24 d1 23 3f a6 45 81 3f d0 2b cf 3e 5d 5a fd 3e
       0.63991 1.009938 0.40463114 0.49483004
000020 01 58 39 3f 73 cd 41 3f 80 c5 1e 3f a8 e5 09 3f
       0.7239991 0.75704116 0.6202011 0.5386605
000030 4c 2d 00 3f 96 21 30 3f 13 85 75 3f 10 11 41 3f
       0.5006912 0.6880125 0.9590618 0.7541666
000040 96 af e1 3e eb 65 21 3f 4a 2c 18 3f d9 37 95 3f
       0.44079274 0.6304614 0.5944258 1.1657668
000050 35 22 1b 3f 69 bb 1f 3f d3 15 70 3f d0 7d 24 3f
       0.6059907 0.6239534 0.937833 0.64254475

stage2.2.branch2.3.weight_fake_quant.scale f4 [24]
000000 85 99 c6 3c 2d 71 2e 3d a7 04 ce 3c f1 8c a8 3c
       0.024243126 0.0425884 0.025148703 0.020575019
000010 73 ab c2 3c f3 26 8f 3c 4a 06 9d 3c dc e9 86 3c
       0.023763394 0.017474627 0.019168038 0.016468935
000020 2a a9 99 3c f7 a5 2d 3d 23 d8 19 3c e4 67 c2 3c
       0.018757422 0.042394605 0.00938991 0.02373118
000030 ee 21 09 3d d1 4e 02 3d f8 c7 b0 3c 31 69 01 3d
       0.033479623 0.031813446 0.021579728 0.03159446
000040 ea 5b c1 3c 3d 53 c6 3c 7c be a0 3c 73 4f 22 3d
       0.023603398 0.024209613 0.01962208 0.03962655
000050 8d 87 83 3c b1 2a 7d 3c 77 ac b2 3c c6 29 17 3d
       0.016055847 0.015452073 0.021810753 0.036905073

stage2.2.branch2.3.weight_fake_quant.activation_post_process.min_vals f4 [24]
000000 eb d2 45 c0 bc c2 ad c0 a2 36 4d c0 bc 76 08 c0
       -3.0909984 -5.4300213 -3.2064595 -2.132247
000010 52 78 25 3f cc 97 0e c0 f3 76 d7 bf 8e cf 33 3d
       0.6463672 -2.228015 -1.6833175 0.04389911
000020 81 0f 19 c0 51 f8 ac c0 4b 3e 99 bf 7c a5 41 c0
       -2.3915713 -5.405312 -1.1972135 -3.0257254
000030 68 dd c5 bf 86 d2 3b bf 03 26 9d bd c8 e7 80 c0
       -1.5458193 -0.7336811 -0.07673266 -4.0282936
000040 26 1d 20 c0 96 9c 15 be be 1d 20 c0 8d 42 ee bf
       -2.501779 -0.14610514 -2.5018153 -1.861406
000050 fb e5 17 3d ab 4d 26 3e cb f9 31 c0 f7 01 b5 bf
       0.03708456 0.16240565 -2.7808712 -1.4141225

stage2.2.branch2.3.weight_fake_quant.activation_post_process.max_vals f4 [24]
000000 09 ab 01 3f de 2b 20 40 4d 81 4e 3f 64 e4 27 40
       0.50651604 2.5026774 0.8066605 2.6233149
000010 c8 e8 41 40 ae 72 0f 3c 44 69 1c 40 f2 62 06 40
       3.0298328 0.008755369 2.443925 2.0997891
000020 2a f3 00 3d 35 3c 0e 40 56 a9 40 be 57 e1 d5 3d
       0.0314819 2.2224247 -0.18814597 0.10443371
000030 cc 98 88 40 82 cc 81 40 30 17 30 40 c7 05 a7 b9
       4.268652 4.0562143 2.7514153 -0.00031857027
000040 8e 9a 40 40 ea 8c 45 40 e0 e9 04 3e 24 ad a1 40
       3.0094333 3.0867257 0.12979841 5.0523853
000050 05 04 03 40 86 2d fc 3f 34 a7 7b 3e 9c 92 96 40
       2.0471203 1.9701393 0.24575502 4.7053967

stage2.2.branch2.5.weight_fake_quant.scale f4 [24]
000000 0a 46 03 3c 0c 2f f2 3b a1 cd 17 3c 7c bd f4 3b
       0.008012304 0.0073908623 0.009265334 0.0074688774
000010 45 6d 00 3c fb 63 1c 3c f2 fc cb 3b cb 09 b1 3b
       0.007838552 0.009545322 0.006225222 0.0054027787
000020 1c 0e a9 3b b3 28 2e 3c 02 ef fa 3b ff 79 29 3c
       0.0051591527 0.010629821 0.0076578865 0.010344028
000030 17 de d7 3b fc 96 a7 3b 6a 1f 7d 3b 40 14 03 3c
       0.0065877545 0.0051144343 0.003862346 0.008000433
000040 c9 4a b2 3b ae d1 8d 3b 83 b7 c2 36 f1 2e 9d 3b
       0.005441044 0.0043279743 5.803014e-06 0.0047968556
000050 1a dd c4 3b 98 18 da 3b f5 6c d8 36 0d d9 9e 3b
       0.0060078027 0.006655764 6.449986e-06 0.004847652

stage2.2.branch2.5.weight_fake_quant.activation_post_process.min_vals f4 [24]
000000 c4 c2 82 bf ad d9 9d be 02 41 30 bf bf c8 73 bf
       -1.0215688 -0.30830136 -0.68849194 -0.9522819
000010 b0 d9 7f bf 97 c7 9b bf 61 30 f7 be 44 4b 0d bf
       -0.9994154 -1.2170285 -0.48279098 -0.5519297
000020 87 06 27 bf 8a 7a ad bf 13 f4 79 bf f1 77 ce bd
       -0.65244335 -1.3553021 -0.9763805 -0.10081471
000030 b6 a8 d6 be 3f 82 d0 be 53 5e b9 be 2c 91 82 bf
       -0.4192559 -0.4072437 -0.36204776 -1.0200553
000040 7e 98 31 bf dc 43 0d bf 1e 91 33 ba c2 91 1c bf
       -0.6937331 -0.5518167 -0.0006849932 -0.6115991
000050 2e 6d 67 be 7f 3e 59 bf 54 f8 04 ba cf f7 ac be
       -0.22600242 -0.84860986 -0.0005072404 -0.33782813

stage2.2.branch2.5.weight_fake_quant.activation_post_process.max_vals f4 [24]
000000 49 58 7f 3f dd 3c 71 3f d3 35 97 3f 67 88 32 3e
       0.9974409 0.94233495 1.1813301 0.17434846
000010 1f f5 13 3f 46 ef b7 3e f5 30 4b 3f c1 58 30 3f
       0.577959 0.3592474 0.7937158 0.6888543
000020 0e 65 28 3f cd f3 2d 3e 00 14 5c 3f 85 d0 a8 3f
       0.657792 0.16987534 0.8596802 1.3188635
000030 39 06 57 3f 65 ef 26 3f 4b 22 fc 3e 6d 4d 20 3f
       0.8399387 0.6520904 0.49244913 0.6261814
000040 40 14 97 3e df 9d 93 3e cb f4 41 3a 64 3a e3 3e
       0.29507637 0.28831384 0.0007398843 0.44380486
000050 3d 18 44 3f 7b 20 dc 3d 88 94 57 3a 34 3a 1e 3f
       0.76599485 0.10748383 0.0008223732 0.6180756

stage2.3.branch2.0.weight_fake_quant.scale f4 [24]
000000 8f b4 0a 3c 76 69 ff 3b b9 89 1f 3c 69 eb 78 3b
       0.0084659 0.0077945543 0.0097374255 0.0037982112
000010 2d 38 ef 3b fb 84 57 3b ad 06 44 3c 31 5d 0b 3c
       0.007300398 0.003288566 0.011964482 0.008506105
000020 a5 10 1c 3c 49 af b8 3b 94 61 90 3b 87 78 b2 3b
       0.009525453 0.00563613 0.0044061635 0.005446497
000030 b8 30 3b 3c 1c 3d 01 3c 04 92 42 3b ec db d0 3b
       0.01142519 0.007888105 0.0029689083 0.006373873
000040 0f b1 d8 3b b9 d7 b5 3b c0 ff bf 3b bd d5 de 3b
       0.006612904 0.005549398 0.005859345 0.006800382
000050 6a 91 ec 3b 50 ad bb 3b 0b 64 95 3b d7 a1 28 3c
       0.007219483 0.0057274476 0.004559045 0.010292492

stage2.3.branch2.0.weight_fake_quant.activation_post_process.min_vals f4 [24]
000000 96 f6 bc be e5 71 11 bf 2f ea 9e bf 7e f2 f7 be
       -0.3690688 -0.56814414 -1.2415217 -0.48427194
000010 ef 4e d4 be 38 be b6 be b1 f1 9d bd db f2 19 bf
       -0.41466472 -0.35692 -0.077121146 -0.60136193
000020 f0 00 14 be 9a f6 37 bf 32 d1 0f bf 9a 46 1a bf
       -0.14453483 -0.7186066 -0.5617858 -0.6026398
000030 63 f6 6c bd a1 cc be be 72 cf c1 be b7 d6 c1 be
       -0.05785216 -0.37265494 -0.3785358 -0.37859127
000040 d8 dd 07 bf 9b 7f b7 be dd c2 48 be e7 f6 5d bf
       -0.5307288 -0.35839543 -0.19605584 -0.8670487
000050 d9 a4 6b bf a3 f1 3a bf a7 80 03 bf 20 0c 32 bf
       -0.9204841 -0.7302496 -0.5136818 -0.6954975

stage2.3.branch2.0.weight_fake_quant.activation_post_process.max_vals f4 [24]
000000 da 29 8a 3f 0d 6a 7e 3f 1a eb da 3d 55 38 a8 3e
       1.0794022 0.9938057 0.10689373 0.32855478
000010 f5 48 6e 3f 76 ad d6 3e a6 42 c3 3f d4 d1 8a 3f
       0.93080074 0.41929215 1.5254714 1.0845284
000020 94 74 9b 3f e5 4c f1 3e 30 c8 c5 3e 0e c6 31 3f
       1.2144952 0.47128978 0.38629293 0.6944283
000030 87 75 ba 3f df bb 80 3f c1 a4 b7 3e 10 0b 50 3f
       1.4567116 1.0057334 0.35867885 0.8126688
000040 5e d8 57 3f e1 21 35 3f c0 3f 3f 3f e1 67 df 3e
       0.84314525 0.7075482 0.7470665 0.4363394
000050 6d 52 d6 3e 23 48 f2 3e a7 ce 14 3f 35 f9 a7 3f
       0.4185976 0.4732066 0.58127826 1.3122927

stage2.3.branch2.3.weight_fake_quant.scale f4 [24]
000000 38 61 79 3c ff 40 92 3c 09 7e 22 3d 03 03 c9 3c
       0.015220933 0.017853258 0.039670978 0.024537569
000010 70 8e 47 3c c3 ad d5 3c c9 db f0 3c 14 6f a1 3c
       0.012179956 0.026083833 0.029401677 0.019706286
000020 81 c8 1c 3d 3b ce 31 3c 89 5a 90 3c 21 be 13 3d
       0.038277153 0.010852392 0.017621296 0.036069993
000030 f9 c1 19 3d 16 43 87 3c bc b6 fb 3c 8e c7 af 3c
       0.037538502 0.016511481 0.030726783 0.02145746
000040 d9 58 1b 3d 6d 99 eb 3c 12 9b cb 3c f3 ee f8 3c
       0.03792653 0.028759683 0.024854217 0.030387377
000050 4b 59 d7 3c 94 8f ce 3c 3a b6 41 3d 33 92 6b 3c
       0.026287695 0.025214948 0.047292925 0.014378118

stage2.3.branch2.3.weight_fake_quant.activation_post_process.min_vals f4 [24]
000000 d7 67 f8 bf be ae 11 c0 78 81 fd bf a0 76 2d c0
       -1.940669 -2.2762904 -1.9805136 -2.7103653
000010 e2 c6 c6 bf 15 d8 54 c0 ed ea 6f c0 a5 cd 20 c0
       -1.5529444 -3.3256886 -3.7487137 -2.5125515
000020 64 48 30 c0 6d 1c b1 bf 97 59 2b bf 63 2a 93 c0
       -2.7544184 -1.38368 -0.6693358 -4.598924
000030 b3 9d c2 bf 85 c6 b5 bd 05 bb 7a c0 c6 17 2f c0
       -1.5204376 -0.08875755 -3.9176648 -2.735826
000040 80 b0 97 c0 5f a3 2f c0 77 cf 4a c0 17 24 ed bf
       -4.7402954 -2.7443464 -3.1689126 -1.8526639
000050 f2 81 56 c0 04 c1 4d c0 84 f4 c0 c0 a1 a6 ea bf
       -3.3516812 -3.2149057 -6.029848 -1.8332101

stage2.3.branch2.3.weight_fake_quant.activation_post_process.max_vals f4 [24]
000000 d0 0c 75 3f bd 70 00 40 8b db a1 40 00 3a 48 40
       0.95722675 2.006881 5.0580497 3.12854
000010 84 a2 80 3e f3 19 38 40 e9 03 3f 40 89 80 23 3f
       0.2512399 2.8765838 2.9846137 0.63868004
000020 b8 2b 9c 40 c3 51 0e 3f 2e ca 0f 40 e3 fd 17 40
       4.8803368 0.5559351 2.246715 2.374871
000030 37 28 99 40 d3 bb 06 40 55 78 0b 40 9f f5 70 3f
       4.786159 2.1052139 2.1792195 0.9412479
000040 80 bd 9a 40 d4 ad 6a 40 f1 f4 41 40 04 f6 77 40
       4.8356323 3.6668596 3.030575 3.8743906
000050 43 b7 7d 3f e4 64 3f 40 6b 8b a4 40 88 73 d8 bd
       0.9910776 2.9905329 5.142019 -0.10568911

stage2.3.branch2.5.weight_fake_quant.scale f4 [24]
000000 af 30 0e 3c 86 9e 1d 3c 50 5f a8 3b 76 c2 4a 3c
       0.008678599 0.009620314 0.0051383153 0.012375465
000010 34 1a d2 3b 1e 39 11 3c 90 0f a5 3b 98 d8 d1 3b
       0.006411815 0.008863715 0.0050372556 0.006403994
000020 88 ab fe 3b 3e 15 be 3b 9f 94 21 3c e5 c2 e2 3b
       0.007771913 0.005800872 0.009862094 0.006920206
000030 d2 c7 1d 3c e2 5d 11 3c f5 87 0b 3c 79 7b 06 3c
       0.00963016 0.008872481 0.008516301 0.008208149
000040 0b cb 17 3c 87 55 20 3c 70 68 f3 3b ef b0 06 3c
       0.009264718 0.009786016 0.0074282214 0.008220895
000050 0a ce 02 3c f4 97 df 3b 5c 40 c1 3b 59 2a 0d 3c
       0.007983694 0.006823534 0.005897565 0.0086160535

stage2.3.branch2.5.weight_fake_quant.activation_post_process.min_vals f4 [24]
000000 ad 7c 43 be ab c2 ec be f1 b6 27 bf a8 d3 8c be
       -0.19090529 -0.4624227 -0.6551352 -0.2750523
000010 78 43 1e bf e5 a7 90 bf 2f b3 d9 be 2e 78 40 bf
       -0.618217 -1.1301237 -0.4251952 -0.7518338
000020 34 3d e3 be 29 57 3d bf 55 94 6e be 22 e0 61 bf
       -0.44382632 -0.7396112 -0.23298772 -0.88232625
000030 ec 55 0e be 84 cc 90 bf 5c 87 00 bf fe f4 85 bf
       -0.13899964 -1.1312413 -0.5020654 -1.0465391
000040 50 19 d1 bd 31 b5 9f bf 08 75 72 bf 3e 2a 86 bf
       -0.10209906 -1.247717 -0.94709826 -1.0481641
000050 3c 4b 82 bf 5c b8 5e bf 1c 7f 40 bf 89 a6 1b bf
       -1.017921 -0.8700006 -0.75193954 -0.6080099

stage2.3.branch2.5.weight_fake_quant.activation_post_process.max_vals f4 [24]
000000 7e a2 8d 3f e7 00 9d 3f 3a 31 0b 3f b4 f7 c9 3f
       1.1065214 1.22659 0.5437199 1.5778718
000010 1a 48 51 3f 75 fa 6a 3f 80 6a 24 3f bf 06 51 3f
       0.81750643 0.9178842 0.64225006 0.8165092
000020 dc ac 7d 3f d8 79 b6 3e 0a f3 a0 3f 46 5a 09 3f
       0.9909189 0.35639834 1.257417 0.5365337
000030 0a 2a 9d 3f 88 d5 a6 3e 6d fc 8a 3f af fd 20 3f
       1.2278454 0.32584786 1.0858284 0.6288709
000040 40 33 97 3f 14 84 1c 3f a2 27 fe 3e c1 57 20 3f
       1.1812515 0.61139035 0.49639612 0.626339
000050 b7 08 9f 3d 09 df 9e 3e 37 54 07 3f 2f 9d 8c 3f
       0.07765334 0.31029537 0.52862877 1.0985469

stage3.0.branch1.0.weight_fake_quant.scale f4 [48]
000000 31 e9 96 3c 12 af 31 3c 6e d8 1d 3c 1f 18 8d 3c
       0.018421741 0.010844963 0.00963412 0.017223416
000010 51 69 70 3c 5d 03 50 3c e7 30 ed 3b d4 60 3c 3c
       0.014673547 0.012696114 0.0072384956 0.011497695
000020 a9 98 5a 3c ef 3a 36 3c 52 94 2a 3c 9d c2 1c 3c
       0.013342061 0.011122449 0.010411339 0.009567884
000030 0d 5b 66 3c 57 4b 3c 3c 35 55 5d 3c 38 58 54 3c
       0.014059794 0.011492572 0.0135090845 0.012960486
000040 6e 51 b6 3c 0e 65 4b 3c 70 6c 4e 3c 3e 1d 4b 3c
       0.022255626 0.01241423 0.012599096 0.012397109
000050 73 e1 4d 3c 78 40 6f 3c 18 75 48 3c d7 62 64 3c
       0.012565958 0.014602773 0.012234949 0.013939581
000060 61 59 45 3c 9a ee e0 3b c7 01 19 3c 61 b2 6d 3c
       0.012045235 0.006864381 0.009338803 0.014507861
000070 8d a1 3c 3c 23 80 4c 3c 19 e9 3f 3c 81 3d 6a 3c
       0.011513126 0.012481722 0.01171329 0.01429689
000080 30 af 1b 3d 29 bd 82 3c 65 cb 14 3c ed fc 6d 3c
       0.03800887 0.01595934 0.009081696 0.014525634
000090 6d a9 5c 3c ec fb 5f 3c 86 16 0f 3c 1d bc 36 3c
       0.013468129 0.013670903 0.008733397 0.011153248
0000a0 66 83 a2 3c 87 64 14 3c 7f 9a 87 3c b6 26 43 3c
       0.019838046 0.009057171 0.016553162 0.011911085
0000b0 23 53 76 3c fb 71 42 3c d7 07 7d 3c 11 04 97 3c
       0.01503447 0.011867995 0.015443764 0.018434556

stage3.0.branch1.0.weight_fake_quant.activation_post_process.min_vals f4 [48]
000000 48 52 16 c0 4a 0e 8e 3e 91 24 4a 3e db ac ea 3e
       -2.348772 0.27745277 0.19740511 0.45835003
000010 71 2c be 3e 5a 33 cf bf 0a 5f 03 3e 73 a4 bb bf
       0.3714328 -1.6187546 0.12829223 -1.4659561
000020 25 c4 d3 bf b4 84 b5 bf be e9 a9 bf 8b 51 ae 3d
       -1.6544234 -1.4181123 -1.3274457 0.08511647
000030 43 73 a5 3e 63 3e 28 3e cb 50 d7 bf e0 83 d3 bf
       0.323145 0.16430049 -1.6821531 -1.652462
000040 1d 9b 35 c0 e9 86 8f 3e 04 9e cd bf 15 89 cb 3e
       -2.8375924 0.28032616 -1.6063848 0.39753023
000050 92 13 cd bf 38 51 ee bf 3d 09 4a 3e 74 7e e3 bf
       -1.6021597 -1.8618536 0.19730087 -1.7772965
000060 08 94 c4 bf 80 a8 2f bf c5 68 98 bf 84 0e 83 3e
       -1.5357676 -0.68616486 -1.1906973 0.25597012
000070 eb e4 bb bf bf fb 9d 3e 57 64 2e 3e 8c 9e a8 3e
       -1.4679235 0.3085613 0.17030464 0.32933462
000080 81 13 9b c0 ce 6e bf bf 9a 36 94 bf f0 0e ed bf
       -4.846131 -1.495569 -1.1579163 -1.8520184
000090 c4 cc db bf 0d ee 9a 3e 6f 87 8e bf f9 d2 ce 3e
       -1.7171865 0.30259743 -1.1135081 0.40395334
0000a0 4a 01 5e 3d 22 d0 93 bf e5 12 07 c0 47 ba 46 3e
       0.054200448 -1.1547892 -2.1105282 0.19406997
0000b0 d0 5c f5 bf 89 af c1 bf cf 0a fc bf 0d 6d 16 c0
       -1.9168949 -1.5131694 -1.9690799 -2.350406

stage3.0.branch1.0.weight_fake_quant.activation_post_process.max_vals f4 [48]
000000 65 8c 68 bd 63 fd b0 3f 96 3a 9d 3f 07 8b 0c 40
       -0.056774516 1.3827327 1.2283504 2.1959856
000010 e8 78 ef 3f da e6 dd be b6 43 6c 3f 14 68 9c 3f
       1.8708773 -0.43340188 0.9229082 1.2219262
000020 10 be d9 3f 00 af e2 bd 5f b0 66 be da 25 9c 3f
       1.7011127 -0.11068535 -0.22528218 1.2199051
000030 b2 74 e5 3f 0c 8f bb 3f e0 77 dc 3f 8e 4e 3d be
       1.7926238 1.465303 1.7224083 -0.18486997
000040 c8 df fb 3f a9 99 ca 3f 6f cd ed 3e 21 52 ca 3f
       1.9677668 1.5828143 0.46445796 1.5806314
000050 c3 00 9f be 3e f2 9d be a3 ac c7 3f de 9a cc be
       -0.3105527 -0.3084888 1.559956 -0.39961904
000060 a6 39 3e 3f ab 0d 60 3f b5 3a 7d 3b af c4 ec 3f
       0.74306715 0.87520856 0.0038639728 1.8497523
000070 5b f7 2b be a3 b3 cb 3f 30 29 bf 3f 43 53 e9 3f
       -0.16793577 1.5914196 1.4934444 1.8228534
000080 af 5b 9a 40 6c 3a 02 40 c2 47 a9 bd b1 c1 90 be
       4.823692 2.0348158 -0.0826564 -0.28272775
000090 0a 19 95 be f0 1b df 3f 6b 7f 86 3d 61 05 b6 3f
       -0.29120666 1.7430401 0.06567272 1.4220392
0000a0 e3 e0 21 40 d9 a9 0f 3f aa be 15 be 8f 63 c2 3f
       2.529351 0.5611854 -0.14623514 1.5186633
0000b0 ab bf 82 be 15 b5 cd 3d 75 47 e2 3f 5f d8 be be
       -0.25536856 0.10044304 1.7678057 -0.37274453

stage3.0.branch1.2.weight_fake_quant.scale f4 [48]
000000 3a 46 e1 3b 9b 56 43 3c c2 75 e1 3b 39 9d b6 3b
       0.0068748267 0.011922504 0.006880493 0.0055729416
000010 da 0c cd 3b e9 f0 fa 3b 7f e6 2a 3c c3 0f b8 3b
       0.0062576355 0.0076581133 0.010430931 0.0056171133
000020 ff f8 2c 3c 03 97 cf 3b 7e 62 2e 3c ed ce 0d 3c
       0.010557412 0.0063351407 0.0106436 0.008655292
000030 a3 c7 da 3b 68 47 86 3b b8 bd e6 3b f9 b7 cb 3b
       0.0066766306 0.0040978678 0.007041659 0.0062169996
000040 00 4b d4 3b 60 62 a8 3b 53 2b a7 3b 83 a3 a7 3b
       0.0064786673 0.0051386803 0.0051016 0.0051159277
000050 ea 1e ec 3b 60 6a 78 3b 77 b7 a7 3b c2 3c ba 3b
       0.0072058337 0.0037905201 0.0051183063 0.0056835124
000060 78 4e 9a 3b 3b bd a4 3b 65 52 63 3b a3 4c 42 3b
       0.0047090612 0.005027441 0.0034686562 0.002964773
000070 dc 6a bb 3b ab dc db 3b b9 88 e9 3b 6c e5 98 3b
       0.0057195257 0.0067096553 0.0071268943 0.004666021
000080 2b 8f 68 3c 68 55 e8 3b ba b1 91 3b 8c 4d f3 3b
       0.01419429 0.0070902593 0.0044462355 0.007425016
000090 cf ec 18 3c 60 72 3e 3c d8 b9 c0 3b 3b cb 2e 3c
       0.009333803 0.011623949 0.0058815293 0.010668571
0000a0 53 31 d4 3b 63 1d 88 3b 48 11 94 3b 46 bc aa 3b
       0.0064756065 0.004153894 0.0045186616 0.005210432
0000b0 64 56 8c 3b 69 61 5c 3b 2d 46 41 3b 71 85 98 3b
       0.0042827595 0.0033627397 0.002949129 0.0046545793

stage3.0.branch1.2.weight_fake_quant.activation_post_process.min_vals f4 [48]
000000 f4 64 60 bf 44 93 c2 bf 4c 94 60 bf 9c e6 35 bf
       -0.8765404 -1.5201192 -0.87726283 -0.71055007
000010 cd 3f 4c bf c3 3a 36 bf a9 c6 89 be b3 57 37 bf
       -0.7978485 -0.71183413 -0.26909378 -0.71618193
000020 06 4c ac bf 0e e4 c9 be e0 ea 87 bf e0 53 67 bf
       -1.34607 -0.39431804 -1.0618553 -0.9036236
000030 db ec 59 bf 3a b2 04 bf 5c 47 ab be 31 fd 07 bf
       -0.8512704 -0.5183445 -0.3345288 -0.53120714
000040 04 2c c0 be fe b9 27 bf 28 84 26 bf df fb 26 bf
       -0.3753358 -0.65518177 -0.65045404 -0.65228075
000050 e1 1e 5a bf 87 02 c9 be c0 0f 27 bf 85 82 39 bf
       -0.8520337 -0.3925974 -0.6525841 -0.7246478
000060 09 f0 8a be 7e 18 24 bf 13 6f e2 be b1 af 7c be
       -0.27136257 -0.6409987 -0.44225368 -0.24676396
000070 c3 6d 2a bf ce 00 5b bf e6 61 52 be 38 88 06 bf
       -0.66573733 -0.855481 -0.20545158 -0.52551603
000080 f0 52 fb be 13 6d 67 bf 08 20 11 bf c1 d3 e8 be
       -0.49086714 -0.9040081 -0.566895 -0.45474055
000090 e2 53 98 bf ee b3 bd bf 1e f9 3f bf 70 1c ae bf
       -1.1900599 -1.4820535 -0.749895 -1.3602428
0000a0 22 5d 53 bf 46 95 07 bf 37 7d 13 bf 8a 11 2a bf
       -0.82563984 -0.5296215 -0.5761294 -0.6643301
0000b0 53 d6 9b be 08 85 db be e7 84 c0 be ec ec 17 bf
       -0.30436954 -0.42874932 -0.37601396 -0.5934589

stage3.0.branch1.2.weight_fake_quant.activation_post_process.max_vals f4 [48]
000000 3b ab 13 3f e0 e0 84 3e 78 50 37 3f 70 d7 f9 3e
       0.5768315 0.25952816 0.7160716 0.48797178
000010 ad 7e e3 3e f8 f5 79 3f 99 3b aa 3f 6f 00 0f 3f
       0.44432583 0.97640944 1.3299438 0.55860037
000020 8e a7 99 3f 6c c7 4e 3f 1c b4 ad 3f 1e 41 8d 3f
       1.2004259 0.80773044 1.357059 1.1035497
000030 96 57 20 3f 21 c1 05 3f fa d6 65 3f 41 ec 4a 3f
       0.62633646 0.52247816 0.89781153 0.79266745
000040 b5 76 53 3f b1 89 e6 3e 14 c9 1a 3f 4c 89 00 3f
       0.8260301 0.45026925 0.6046307 0.502095
000050 cb 32 6b 3f f6 71 f7 3e 2c 38 15 3f 1b e0 db 3e
       0.9187438 0.48329133 0.58288836 0.42944416
000060 2a b4 19 3f ff 54 ec 3e c6 f3 d2 3e 56 8a c1 3e
       0.60040534 0.46158597 0.4120161 0.37800854
000070 71 af 3a 3f 7a 13 41 3f 30 9f 68 3f 87 4c 18 3f
       0.7292395 0.75420344 0.908679 0.5949177
000080 9c a6 e7 3f e0 f3 f3 3e d4 56 c4 3e 3e 5a 72 3f
       1.809772 0.47647 0.38347495 0.9466895
000090 8e 6a f1 3e 6d bd 08 3f c6 78 94 3e 66 90 8d 3f
       0.47151607 0.5341404 0.28998393 1.1059692
0000a0 5f ee 22 3e 3c bc e2 3e 6d cf 0a 3f 9b b6 09 3f
       0.15911244 0.44284236 0.54222757 0.5379426
0000b0 0e ca 0b 3f d1 fe bf 3e e1 17 bf 3e a2 fa cc 3e
       0.54605186 0.37499097 0.37322906 0.40034968

stage3.0.branch2.0.weight_fake_quant.scale f4 [48]
000000 8c d0 1e 3c d9 b8 ae 3b af 3a 83 3b 29 f2 ff 3b
       0.009693276 0.005332094 0.0040047984 0.00781085
000010 de 44 aa 3b c4 5c 0d 3c 2b cc 2f 3c ab ce a5 3b
       0.005196198 0.008628074 0.01072983 0.005060037
000020 d4 f6 bc 3b 3f 19 4f 3b 08 63 ac 3b 58 28 17 3c
       0.005766729 0.0031600741 0.005260829 0.009225927
000030 41 7d 87 3b 3e 55 05 3c 39 0c 0d 3c 9d 89 0f 3c
       0.0041348045 0.008137999 0.008608871 0.008760837
000040 3d 94 c5 37 88 30 b4 3b 54 1d 94 3b ab 29 a6 3b
       2.3553259e-05 0.0054989494 0.0045200977 0.005070885
000050 ad 68 e2 3b c3 05 a8 3b 9e ee ae 3b 32 d9 9c 3b
       0.006909451 0.00512764 0.005338504 0.004786634
000060 86 cc 06 3c de ae 0d 3c ce b2 d0 3b db ec 85 3b
       0.008227473 0.008647649 0.0063689714 0.0040870733
000070 8d 79 ce 3b de 5d 7e 3b 55 7d 61 3c 60 a2 3f 3b
       0.006301111 0.0038813273 0.013762792 0.002924107
000080 0b cc bb 3b 4c 22 86 3b f7 38 29 3c d0 a2 36 3c
       0.005731111 0.004093444 0.010328523 0.011147216
000090 99 f0 e4 3b 3d 1a 78 3b 86 f4 22 3c 37 be 03 3c
       0.0069866893 0.0037857436 0.009945994 0.008040956
0000a0 9c 93 d9 3b dd 77 83 3b a6 64 ad 3b 04 c0 1c 3c
       0.006639911 0.0040120916 0.0052915392 0.0095672645
0000b0 5d 7e cb 3b e0 7c 2b 3c fc 63 ca 3b 06 9b d3 3b
       0.006210132 0.010466784 0.00617647 0.006457689

stage3.0.branch2.0.weight_fake_quant.activation_post_process.min_vals f4 [48]
000000 0a 46 99 be 11 95 1d bf f0 55 02 be 37 f2 7e bf
       -0.29936248 -0.6155558 -0.12728095 -0.9958834
000010 99 9a 29 bf 01 a1 cb be 5f 1c af bf 9b 15 f5 be
       -0.6625152 -0.39771274 -1.3680533 -0.47868046
000020 29 f3 8f be 18 09 96 be a5 b6 2b bf 9c dd 92 be
       -0.28115204 -0.29303813 -0.6707557 -0.286847
000030 e6 6c 04 bf e9 cf 84 bf 2d 7f 8c bf 03 39 3d bf
       -0.51728666 -1.0375949 -1.0976311 -0.7391512
000040 4b bd 82 ba 57 7c 33 bf ab f5 ab be 81 83 25 bf
       -0.0009974627 -0.701116 -0.33585867 -0.64653784
000050 0a 46 1b bf 4d a1 a4 be 6e ae 05 bf 85 22 a9 be
       -0.60653746 -0.32154313 -0.52219284 -0.3303415
000060 b9 45 86 bf a6 fc 82 bf 1b e2 4f bf 11 05 df be
       -1.0490028 -1.0233352 -0.81204385 -0.43558553
000070 13 ab 4d bf 80 5f fd be d4 af 8e be 79 4e 5e be
       -0.80339164 -0.49486923 -0.2786852 -0.21709622
000080 3f 10 3b bf 21 3e 04 be be 8f a8 bf 2d ec b5 bf
       -0.73071665 -0.12914325 -1.3168867 -1.42127
000090 18 7f 05 bf 8b d1 f6 be 91 51 a2 bf a1 dc 90 be
       -0.52147055 -0.48206744 -1.2681142 -0.28293326
0000a0 08 ba 58 bf 51 c3 cb be d8 40 e1 be 44 23 9c bf
       -0.8465886 -0.39797452 -0.43994784 -1.2198262
0000b0 1b 67 0a bf c7 e6 1a bf 98 99 49 bf 6b c7 52 bf
       -0.54063576 -0.6050839 -0.7874999 -0.8233554

stage3.0.branch2.0.weight_fake_quant.activation_post_process.max_vals f4 [48]
000000 bb 31 9e 3f 20 0a 2e 3f 74 b7 02 3f 52 44 01 3f
       1.2358927 0.679842 0.5106118 0.50494874
000010 bb 7c 06 3f 67 cf 8c 3f c0 4b f2 3e dc 28 25 3f
       0.52534074 1.1000794 0.47323418 0.6451547
000020 dd 39 3c 3f 26 4a ce 3e 2f ca a4 3e 30 91 96 3f
       0.7352579 0.40290946 0.32185504 1.1763058
000030 c4 f5 06 3f fb f6 44 3f 1e 43 6c 3f 13 fa 8e 3f
       0.5271876 0.7693936 0.9228991 1.1170067
000040 a9 ce 44 3b f4 80 23 3f 37 89 13 3f 0e 0e da 3e
       0.0030030406 0.6386864 0.5763125 0.42588848
000050 44 86 61 3f bd 5d 27 3f af 3f 2e 3f 59 3c 1c 3f
       0.880955 0.6537741 0.68065923 0.61029583
000060 af 1a d7 3e 2f 21 8d 3f 43 34 bf 3e ee 66 05 3f
       0.42012545 1.1025752 0.3734456 0.52110183
000070 b6 d8 01 3f a4 df 9d 3e d8 9b e0 3f be e2 be 3e
       0.507213 0.30834687 1.754756 0.37282366
000080 46 85 a4 3e 2a 9c 05 3f b1 b3 54 3e ea a4 c8 3e
       0.3213293 0.5219141 0.20771672 0.3918832
000090 a8 0b 64 3f 23 22 f7 3e f0 5e b6 3e 79 3a 83 3f
       0.89080286 0.48268232 0.35619307 1.025222
0000a0 fc f8 2c 3f 65 f4 02 3f 41 b7 2c 3f 30 ff 3c 3f
       0.6756742 0.51154166 0.67467123 0.73826885
0000b0 df b2 4a 3f 63 d1 aa 3f 58 a1 94 3e 68 76 1c 3f
       0.79179186 1.334515 0.29029346 0.61118174

stage3.0.branch2.3.weight_fake_quant.scale f4 [48]
000000 98 9c 35 3c 74 6b 04 3c 2c 31 d7 3b b0 6a 03 3c
       0.011084698 0.008082259 0.006567141 0.008021042
000010 e1 ce 82 3c fb 84 22 3c e3 c3 3a 3c b1 0f 59 3c
       0.015967788 0.0099194 0.011399242 0.01324837
000020 99 ab 38 3c 2d 50 45 3c 2d 90 05 3c a6 bf b6 3c
       0.011271381 0.012043041 0.00815205 0.022308182
000030 9e d9 27 3c b8 11 25 3c 83 c6 7c 3c 06 e7 2e 3c
       0.010244755 0.010075025 0.015428188 0.0106751975
000040 0a fa f9 3b bc 6a 33 3c 22 2b 32 3c 55 05 00 3c
       0.007628684 0.01095074 0.0108745415 0.007813771
000050 aa 80 6b 3c b3 7d 45 3c 97 85 0b 3c f7 8d 41 3c
       0.014373938 0.012053895 0.008515737 0.011813632
000060 7c cd 16 3c 7e e9 79 3c 65 f1 0c 3c c7 65 0f 3c
       0.009204265 0.015253423 0.008602475 0.008752293
000070 56 70 59 3c 9b d2 02 3c 43 4c 72 3c 89 5c 14 3c
       0.013271412 0.007984783 0.01478869 0.009055265
000080 21 51 f7 3b a0 58 6c 3c d0 01 17 3c b3 29 1d 3c
       0.007547513 0.014425427 0.009216741 0.009592461
000090 bd 21 53 3c 0d 3c 4b 3c e3 b4 65 3c 07 ab 23 3c
       0.012886462 0.012404454 0.014020178 0.009989507
0000a0 00 2e 1f 3c 53 63 1a 3c b7 99 52 3c 29 1a 80 3c
       0.009715557 0.009423095 0.012854031 0.015637474
0000b0 24 98 4e 3c e4 34 4c 3c a9 fc 00 3c 2a 88 2e 3c
       0.012609515 0.012463782 0.007872739 0.010652581

stage3.0.branch2.3.weight_fake_quant.activation_post_process.min_vals f4 [48]
000000 30 53 28 3d ac ee ad 3e c4 d0 83 3d 45 e7 82 bf
       0.04109496 0.33971155 0.06436303 -1.0226828
000010 de 41 e6 3e 57 97 8d 3e 00 c7 8b bd a1 36 d8 bf
       0.44972128 0.27654526 -0.068250656 -1.6891671
000020 78 03 d9 3e dd 8a c4 bf 9d 0a 85 bf b0 5a f4 bf
       0.4238546 -1.5354878 -1.0393864 -1.9090176
000030 ac e4 bd 3e a6 6c a4 bf bc c9 fb bf 1f 38 ae bf
       0.37088525 -1.2845657 -1.967094 -1.3610877
000040 af e8 8e 3e 51 b7 b2 bf c8 29 28 3e 9f 0a 7f bf
       0.27911898 -1.3962194 0.16422188 -0.9962558
000050 a1 a7 e1 3e b9 24 af 3e 11 fa 8a bf 69 cc c0 bf
       0.44073203 0.34207705 -1.0857564 -1.5062381
000060 af 36 96 bf 97 46 45 3e 56 af 3a 3e 61 d6 8e bf
       -1.1735438 0.19265209 0.18230948 -1.1159173
000070 e6 96 d8 bf a6 01 98 3e 26 5a 72 be 2c c8 93 bf
       -1.692105 0.29688758 -0.23667201 -1.1545463
000080 9f 09 3c 3e af b8 a3 bf 79 f6 1f 3e 89 8c 9c bf
       0.18363045 -1.2790736 0.15621366 -1.2230388
000090 9b 4e d2 bf d1 70 ca bf c7 71 bb bd 33 3a 5c 3e
       -1.6430238 -1.5815679 -0.09152561 0.21506576
0000a0 d2 8e 9e bf f0 c8 99 bf 1d c7 d1 bf c3 c7 2e be
       -1.2387335 -1.2014446 -1.638889 -0.1706839
0000b0 c9 3b 69 3e af 68 cb bf ac 7b 80 bf a2 d9 ad bf
       0.22776712 -1.5891322 -1.0037742 -1.3582041

stage3.0.branch2.3.weight_fake_quant.activation_post_process.max_vals f4 [48]
000000 fb e6 b4 3f 09 e7 83 3f fb 59 56 3f a8 4a a4 be
       1.413299 1.0304881 0.8373105 -0.32088208
000010 12 4c 02 40 76 e2 a1 3f 1f 09 ba 3f 53 f9 ba 3f
       2.035893 1.2647235 1.4534034 1.4607338
000020 ed f2 b7 3f 52 da 87 3f 2a ec 68 3f e6 08 36 40
       1.437101 1.0613501 0.9098536 2.844293
000030 c4 31 a7 3f 1c 80 4d be fc a5 e4 be 22 28 c4 bd
       1.3062062 -0.20068401 -0.44657886 -0.09577967
000040 10 00 79 3f cb 66 4c be f7 78 b1 3f 71 19 5c be
       0.9726572 -0.19961087 1.386504 -0.2149408
000050 29 95 ea 3f 35 b8 c4 3f ba 7e 50 be 25 33 9e be
       1.832677 1.5368716 -0.20360842 -0.30898395
000060 ed 56 6d be 95 ef f8 3f 74 64 8c 3f cb cc 6c be
       -0.23177691 1.9448115 1.0968156 -0.23124997
000070 d7 8b f4 bd c8 4f 82 3f f7 59 f1 3f 87 f3 92 3f
       -0.11940735 1.0180597 1.885558 1.1480569
000080 d0 59 76 3f 47 6c eb 3f ce 6a 96 3f cb 6c 4a be
       0.96230793 1.8392419 1.1751344 -0.19768064
000090 4f 48 e2 be 37 25 cd be 2e cf e4 3f 5c 07 a3 3f
       -0.44195792 -0.40067455 1.7875726 1.2736621
0000a0 57 8d d4 bd 74 91 9a be 3b ba 9b be 1e 34 ff 3f
       -0.10378521 -0.30189097 -0.3041552 1.993778
0000b0 8c c9 cd 3f e6 d0 3d 3d cc 22 3a be 03 9c 11 be
       1.6077132 0.0463418 -0.18177336 -0.1421967

stage3.0.branch2.5.weight_fake_quant.scale f4 [48]
000000 ae c7 d3 3b 5c ed ad 3b 9b f4 dc 3b 05 04 c5 3b
       0.0064630127 0.0053078365 0.0067430264 0.006012442
000010 ec 5e 59 3c 4f e4 b9 3b d4 b3 a6 3b 51 b8 a9 3b
       0.01326726 0.0056729685 0.005087355 0.005179443
000020 97 b4 e5 3b 8b 82 08 3c 69 da ea 3b ef df be 3b
       0.0070100534 0.008331905 0.00716715 0.005825035
000030 f2 d8 5f 3b 8f c0 91 3b ad f4 93 3b fe 6a 9f 3b
       0.003415641 0.0044480036 0.0045152516 0.0048650494
000040 b6 90 ab 3b 90 f6 9d 3b a2 e6 a0 3b dd c7 33 3b
       0.0052357567 0.0048206523 0.004910306 0.002743236
000050 eb 7d 10 3c 8c 4e d1 3b af 3c bd 3b 85 27 8d 3b
       0.008819084 0.0063875373 0.0057750563 0.0043076896
000060 97 fa bf 3b 8d 47 b1 3b ea ac b8 3b f2 20 e5 3b
       0.00585873 0.005410141 0.0056358473 0.006992453
000070 dc 26 fb 3b 42 c5 f3 3b 9b 7e 4f 3b 0e b9 06 3c
       0.0076645445 0.0074392864 0.0031661156 0.008222831
000080 26 70 a1 3b 6f 27 70 3b ec df 1e 3b 54 89 d1 3b
       0.004926699 0.0036644598 0.0024242355 0.0063945446
000090 14 61 a7 3b 47 33 02 3c ae 45 eb 3b ff b1 02 3c
       0.005108008 0.007946796 0.0071799373 0.007977008
0000a0 29 41 d5 3b d4 b5 bc 3b 3f 80 4a 3b 58 32 b4 3b
       0.006508012 0.0057589803 0.0030899195 0.0054991655
0000b0 15 46 9c 3b 28 c3 d9 3b f1 83 b2 3b 64 73 e1 3b
       0.0047690966 0.006645579 0.0054478575 0.0068802107

stage3.0.branch2.5.weight_fake_quant.activation_post_process.min_vals f4 [48]
000000 b3 7d 1b bf 83 64 1c bf a6 17 5c bf 01 3f 44 bf
       -0.60738677 -0.6109087 -0.85973585 -0.76658636
000010 8d 85 d8 bf 24 bc 27 bf 20 0d 26 bf 99 0e 29 bf
       -1.6915756 -0.65521455 -0.6486378 -0.660379
000020 b6 be cf be 08 fa 87 bf 8f ef 69 bf 8b b8 1e bf
       -0.40575188 -1.0623178 -0.9138116 -0.6200034
000030 04 83 d4 be 04 d6 04 bf a7 2f ea be 93 cb 1e bf
       -0.41506207 -0.5188906 -0.4573948 -0.6202938
000040 25 e5 2a bf 99 58 1d bf bb 45 20 bf 15 14 b3 be
       -0.66755897 -0.61463314 -0.626064 -0.3497626
000050 6d ed 8f bf 05 3a 76 be 72 7f 3c bf 5d 9a 0c bf
       -1.1244332 -0.2404557 -0.73631966 -0.5492304
000060 dc 68 3a bf 45 96 30 bf 3d f4 37 bf d1 3b 64 bf
       -0.7281625 -0.68979293 -0.71857053 -0.8915377
000070 7d f2 2c bf 7d d1 72 bf 62 8a 92 be de d3 71 be
       -0.6755751 -0.94850904 -0.28621203 -0.23615977
000080 b6 ce 20 bf 48 37 ef be 61 51 7a be ff b7 f6 be
       -0.62815416 -0.46721864 -0.24445106 -0.48187253
000090 6f cf 0b bf e1 5b 3b bf 72 82 32 bf 4d 2f 82 bf
       -0.54613394 -0.7318707 -0.69730294 -1.0170685
0000a0 0f 05 e8 be 5a a0 2c bf bf b5 c9 be 26 7e 33 bf
       -0.4531636 -0.6743218 -0.39396474 -0.7011436
0000b0 cf a9 1b bf 65 e9 58 bf 6d d1 31 bf f1 91 60 bf
       -0.6080598 -0.8473113 -0.69460183 -0.8772269

stage3.0.branch2.5.weight_fake_quant.activation_post_process.max_vals f4 [48]
000000 e6 f3 52 3f 6f 3f 2d 3f b7 94 29 3f d6 6d 0c 3f
       0.8240341 0.67674917 0.66242546 0.54855096
000010 1d 0a 2e 3f 6b 2a 39 3f 29 6e b4 3e 9a 36 1d 3f
       0.6798418 0.7233035 0.35240296 0.6141144
000020 e2 ce 64 3f 0f c8 69 3e bb 43 2c 3f 0f 21 3e 3f
       0.8937818 0.22830223 0.6729085 0.74269193
000030 19 f9 de 3e ce 2e 11 3f b8 60 13 3f 12 f6 93 3e
       0.4354942 0.56712043 0.57569456 0.28898674
000040 79 00 ea 3e 3a c8 c7 3e 76 8e f2 3e 0b 75 88 3e
       0.45703486 0.39019948 0.47374314 0.26651797
000050 51 38 49 3e 3d 7d 50 3f 5f f6 d8 3e f9 0c b9 3e
       0.19650389 0.814411 0.42375466 0.3614271
000060 9c 3a 3f 3f 0d 38 dd 3e 5a b1 0f 3f e1 e0 00 3f
       0.74698806 0.43206826 0.5612999 0.5034314
000070 b5 2b 7a 3f 27 83 a8 3e 1c af ce 3e 55 32 86 3f
       0.9772294 0.3291256 0.40367973 1.048411
000080 b6 e1 d0 3e 29 d2 95 3e 0c 41 9e 3e cb b7 50 3f
       0.40797204 0.29261902 0.30909002 0.81530446
000090 b3 b9 26 3f 14 b1 81 3f 68 5a 6a 3f c7 22 7d 3e
       0.65127105 1.0132165 0.915442 0.24720298
0000a0 e8 6b 54 3f 1e f9 3b 3f a8 91 98 3e 89 4f 1a 3f
       0.8297715 0.73427 0.29798627 0.6027761
0000b0 7e 39 01 3f 3e 5a 1f 3f 9f a2 1f 3f 3d 98 3a 3f
       0.5047835 0.62247074 0.62357515 0.7288855

stage3.1.branch2.0.weight_fake_quant.scale f4 [48]
000000 9a e7 90 3b 7d 07 8b 3b 04 b4 9e 3b 15 6d ea 3b
       0.0044221403 0.004242836 0.004843237 0.007154117
000010 51 2a 7d 3b ad 18 be 3b 93 56 c1 3b a1 8d 82 3b
       0.003862996 0.0058012814 0.005900213 0.0039841686
000020 63 73 8d 3b 74 cf 8d 3b f1 50 94 3b bb de 88 3b
       0.0043167337 0.004327709 0.0045262505 0.004176942
000030 a1 90 0e 3c 0f 1c 9e 3b 2e 04 ef 3b f0 e1 ac 3b
       0.008701474 0.004825122 0.0072941994 0.0052759573
000040 1d 28 84 3b f5 72 83 3b 1c 17 9c 3b ce 99 b0 3b
       0.004033102 0.0040115067 0.004763497 0.0053894287
000050 f6 bd 12 3c 5d cb d3 3b 2e 01 f1 3b 99 57 7c 3b
       0.008956423 0.006463452 0.007354877 0.003850436
000060 40 9e b6 3b 4c ca 9b 3b 5f e0 84 3b 1f 75 92 3b
       0.005573064 0.0047543403 0.0040550674 0.0044695283
000070 83 2a 31 3b 1a 02 71 3b 0f 35 a9 3b bb fa 93 3b
       0.0027033396 0.0036774934 0.005163796 0.0045159734
000080 d9 82 ca 3b 99 6b b4 3b b6 e5 9b 3b bf 19 ab 3b
       0.006180149 0.0055059907 0.0047576083 0.005221575
000090 7d 66 a2 3b 9f ba bc 3b 73 44 96 3b 19 12 dd 3b
       0.004956065 0.0057595517 0.0045857965 0.006746542
0000a0 f2 9a 9b 3b be f2 be 3b 36 30 fa 3b f7 c5 81 3b
       0.0047486955 0.005827277 0.0076351417 0.003960367
0000b0 89 dd 34 3b 66 39 8e 3b 60 2c 6f 3b 8d 9f 8a 3b
       0.0027597866 0.0043403385 0.0036494955 0.0042304457
