linearcode/quants/squeezenet.pth (torch, 203115 bytes, 78 tensors)

features.0.weight_fake_quant.scale f4 [64]
0	0x3b5f631c	0.0034086173
1	0x3b762f3c	0.0037564775
2	0x3be250b7	0.0069065946
3	0x3ba66630	0.0050780997
4	0x3b930c10	0.004487522
5	0x3b250b18	0.0025183614
6	0x3bb1ce0d	0.0054261745
7	0x3b0de7fb	0.0021653164
8	0x3be161cd	0.006878114
9	0x3b8cdbc3	0.0042986586
10	0x3bcdb755	0.0062779584
11	0x3a8ab52f	0.0010582561
12	0x3b2ac797	0.0026058906
13	0x3b7aedcd	0.0038288713
14	0x3ba8ab8e	0.005147404
15	0x3bcb775c	0.006209297
16	0x3ada7af8	0.0016668728
17	0x3bc0ed1d	0.005887641
18	0x3b9f6221	0.004863993
19	0x3b9334bb	0.00449237
20	0x3baf284f	0.0053453813
21	0x3b75bdda	0.0037497194
22	0x3bbe26ff	0.0058029885
23	0x3b8e814c	0.0043489095
24	0x3b101266	0.0021983623
25	0x3bb4df4d	0.0055197836
26	0x3afbb139	0.0019202597
27	0x3bef6e85	0.007306876
28	0x3bb63351	0.0055603166
29	0x3bc9f495	0.0061631897
30	0x3ae625aa	0.0017558832
31	0x3bb659cd	0.0055649043
32	0x3bc047ac	0.005867919
33	0x3bb790ff	0.0056020017
34	0x3b68f47b	0.0035546112
35	0x3b885b44	0.0041612703
36	0x3b859be7	0.004077423
37	0x3b13be21	0.0022543746
38	0x3be676c7	0.0070332023
39	0x3ae438dd	0.0017411966
40	0x3ba0e792	0.004910418
41	0x3bbfc166	0.0058519123
42	0x3b2a45d7	0.002598157
43	0x3b3497bf	0.0027556268
44	0x3b199217	0.0023433024
45	0x3b44b205	0.0030013334
46	0x3b0cb771	0.0021471644
47	0x3ba0bd01	0.0049053435
48	0x3b2e9787	0.002664061
49	0x3b9e5601	0.00483203
50	0x3b839e2a	0.0040166574
51	0x3b67fbc2	0.0035397862
52	0x3a8e17b3	0.0010840803
53	0x3b8ea288	0.0043528713
54	0x3b560457	0.0032656395
55	0x3b8cf9bf	0.004302233
56	0x3b35734e	0.0027687135
57	0x3b4292a8	0.0029689465
58	0x3b85e4c8	0.0040861107
59	0x3b2e4a27	0.0026594491
60	0x3ba030ef	0.004888646
61	0x3b9a7c1b	0.0047145016
62	0x3ac4fd92	0.0015029183
63	0x3b1735bb	0.0023072797

features.0.weight_fake_quant.activation_post_process.min_vals f4 [64]
0	0xbede83b9	-0.4345987
1	0xbef5390d	-0.4789509
2	0xbf0bec73	-0.5465767
3	0xbf25bfca	-0.6474577
4	0xbf127904	-0.57215905
5	0xbe91b638	-0.28459334
6	0xbf0b16e4	-0.54331803
7	0xbe854641	-0.26030162
8	0xbf1cc9d8	-0.6124549
9	0xbf0c4ee7	-0.54807895
10	0xbf4ce99e	-0.8004397
11	0xbe0a2a7a	-0.13492766
12	0xbe71c192	-0.23608997
13	0xbef0c811	-0.4702764
14	0xbf24ad59	-0.6432701
15	0xbf4aabe5	-0.7916854
16	0xbe59a07d	-0.21252628
17	0xbf402c30	-0.75067425
18	0xbf075005	-0.52856475
19	0xbf12a186	-0.57277715
20	0xbf2e7927	-0.68153614
21	0xbecfd79b	-0.4059418
22	0xbf17634f	-0.5913591
23	0xbf0b4127	-0.5439629
24	0xbe8f8254	-0.2802912
25	0xbf342a6e	-0.7037724
26	0xbe6a54fb	-0.2288398
27	0xbf100f4d	-0.5627335
28	0xbf357d1e	-0.7089404
29	0xbf492aa0	-0.78580666
30	0xbe653f84	-0.2238751
31	0xbf35a373	-0.7095253
32	0xbf3f8764	-0.74815965
33	0xbf36d96e	-0.7142552
34	0xbee6a31e	-0.45046324
35	0xbea5e504	-0.32401288
36	0xbf05164b	-0.5198714
37	0xbe81ae41	-0.25328258
38	0xbf26f5c0	-0.65218735
39	0xbe6354a4	-0.22200257
40	0xbf1dc081	-0.6162186
41	0xbf3f01a5	-0.74611884
42	0xbea99b91	-0.331265
43	0xbeb3e327	-0.3513424
44	0xbda2fec6	-0.079587504
45	0xbde7d5f3	-0.113201044
46	0xbe75971f	-0.2398343
47	0xbf201c44	-0.6254313
48	0xbe996bc9	-0.29965046
49	0xbf1db7ab	-0.6160838
50	0xbea3307f	-0.31872937
51	0xbee6aab1	-0.45052102
52	0xbdede216	-0.11615388
53	0xbf0e13e5	-0.55499107
54	0xbe86cc47	-0.26327726
55	0xbf0c6cc5	-0.5485347
56	0xbeb133ec	-0.34609926
57	0xbec1d015	-0.37854066
58	0xbf055ee3	-0.5209791
59	0xbdbb2f77	-0.091399126
60	0xbf16efad	-0.58959466
61	0xbf19e19f	-0.60109895
62	0xbe443894	-0.19162208
63	0xbe969e85	-0.29417816

features.0.weight_fake_quant.activation_post_process.max_vals f4 [64]
0	0x3eae2070	0.34009123
1	0x3eeb852d	0.46000043
2	0x3f616e66	0.8805908
3	0x3f1599f7	0.58438057
4	0x3f0d9851	0.5531054
5	0x3ea4660d	0.3210911
6	0x3f311c3f	0.69183725
7	0x3e8d5a13	0.27607784
8	0x3f60806b	0.8769595
9	0x3f00df42	0.50340664
10	0x3ee9cd94	0.45664656
11	0x3e01cf22	0.12676671
12	0x3eaa1ccf	0.33225104
13	0x3ef9f2df	0.48818108
14	0x3f2802e2	0.656294
15	0x3f0bd9c5	0.54629165
16	0x3e38e0de	0.1805453
17	0x3ed5c3d2	0.41750962
18	0x3f1ec2bf	0.6201591
19	0x3f0c9f78	0.5493083
20	0x3f14ee4d	0.5817612
21	0x3ef4c81c	0.4780892
22	0x3f3d68d8	0.73988104
23	0x3f0df2cb	0.554486
24	0x3e44c345	0.19215114
25	0x3f2e0597	0.6797728
26	0x3e7ab588	0.24483311
27	0x3f6e7f16	0.9316267
28	0x3f13b11c	0.5769212
29	0x3ef55c54	0.47922003
30	0x3d8b14d9	0.06791086
31	0x3f2e1d20	0.6801319
32	0x3f2fc3f1	0.6865836
33	0x3ed6713b	0.41883263
34	0x3ee80b87	0.45321295
35	0x3f07d2e9	0.530562
36	0x3ecab90f	0.39594314
37	0x3e932a63	0.28743276
38	0x3f659050	0.8967333
39	0x3e4c543b	0.19954006
40	0x3f2046aa	0.62607825
41	0x3f13613c	0.5757024
42	0x3e1baf85	0.15203674
43	0x3ea92be2	0.33041292
44	0x3e98f885	0.29877105
45	0x3ec3ed53	0.38267002
46	0x3e8c2aba	0.27376348
47	0x3f10f040	0.5661659
48	0x3eade8ef	0.33966777
49	0x3ef6c357	0.48195907
50	0x3f031a8c	0.5121238
51	0x3ee713c6	0.45132273
52	0x3e0d899b	0.13822024
53	0x3f052777	0.52013344
54	0x3ed52e53	0.41636905
55	0x3ec5b118	0.38611674
56	0x3eb4bddb	0.35301098
57	0x3eb2cf99	0.3492401
58	0x3f000f7d	0.50023633
59	0x3ead9bdd	0.33907977
60	0x3f1f90be	0.62330234
61	0x3f11fbe9	0.5702501
62	0x3e2e1cab	0.17003123
63	0x3e4c4f15	0.19952042

features.3.squeeze.weight_fake_quant.scale f4 [16]
0	0x3c3e7a34	0.011625815
1	0x3bd5072c	0.006501099
2	0x3c02bc9d	0.007979539
3	0x3b9be41b	0.004757417
4	0x3be71429	0.007051964
5	0x3c1b45c9	0.009477087
6	0x3ba0f879	0.0049124327
7	0x3c171b21	0.009222777
8	0x3c12578a	0.008932004
9	0x3bfb0f73	0.007661754
10	0x3c2e1d09	0.01062704
11	0x3bea5afe	0.0071519604
12	0x3bc1f4e9	0.005919088
13	0x3bc77e06	0.006088021
14	0x3be4ee6c	0.00698643
15	0x3c27cd29	0.010241785

features.3.squeeze.weight_fake_quant.activation_post_process.min_vals f4 [16]
0	0xbfbdbbba	-1.4822915
1	0xbf088b32	-0.53337395
2	0xbf5d2829	-0.86389405
3	0xbf1a5352	-0.60283387
4	0xbf662d15	-0.8991254
5	0xbf9aaa83	-1.2083286
6	0xbeee45ae	-0.46537536
7	0xbf22e519	-0.63630825
8	0xbf91c532	-1.1388304
9	0xbe8491fa	-0.2589262
10	0xbee623c4	-0.44949162
11	0xbf6970a3	-0.91187495
12	0xbe99967a	-0.29997617
13	0xbf0216f2	-0.5081626
14	0xbf32098b	-0.6954581
15	0xbfa7255c	-1.3058276

features.3.squeeze.weight_fake_quant.activation_post_process.max_vals f4 [16]
0	0x3e978572	0.29593998
1	0x3f543225	0.82889014
2	0x3f8239e0	1.0173912
3	0x3f1b4837	0.60657066
4	0x3f12ca43	0.57339877
5	0x3f2ed053	0.6828663
6	0x3f205781	0.6263352
7	0x3f968406	1.175904
8	0x3e9ba503	0.3039933
9	0x3f7a1464	0.97687364
10	0x3fad6eec	1.3549476
11	0x3f1a7849	0.6033979
12	0x3f4132f4	0.75468373
13	0x3f46b688	0.7762227
14	0x3f64097e	0.89076984
15	0x3ea6d274	0.32582438

features.3.expand1x1.weight_fake_quant.scale f4 [64]
0	0x3b53be8e	0.0032309624
1	0x3b2e7918	0.002662247
2	0x3b121faf	0.0022296717
3	0x3b10b65b	0.0022081349
4	0x3b4c93cc	0.0031216023
5	0x3b46b98f	0.0030323004
6	0x3bac80bc	0.00526437
7	0x3b7ffeae	0.0039061713
8	0x3b54b1c5	0.0032454592
9	0x3ba1a5a3	0.0049330755
10	0x3b289f74	0.0025729807
11	0x3ba2ee03	0.004972221
12	0x3b947c92	0.0045314515
13	0x3b580cd2	0.0032966626
14	0x3b90cf38	0.0044192336
15	0x3bfed48d	0.007776803
16	0x3b75ca54	0.003750463
17	0x3b57ddcc	0.0032938598
18	0x3b4acd1a	0.0030945004
19	0x3bb3fffa	0.0054931613
20	0x3b71d376	0.0036899722
21	0x3b5c2f3f	0.0033597497
22	0x3b2b0315	0.0026094366
23	0x3b56b3a0	0.0032760873
24	0x3b3c82db	0.002876452
25	0x3b2c78d2	0.0026317132
26	0x3b301688	0.0026868898
27	0x3b5db78f	0.0033831333
28	0x3b39bb94	0.0028340565
29	0x3b4f4ab8	0.003163023
30	0x3b9a7b24	0.0047143865
31	0x3b39879c	0.002830959
32	0x3bbb360b	0.0057132295
33	0x3b6ae8ae	0.0035844254
34	0x3b966f59	0.0045909104
35	0x3b9a7fdf	0.0047149505
36	0x3b53206c	0.003221537
37	0x3c0dd701	0.008657218
38	0x3bdcaf90	0.006734796
39	0x3baf0c60	0.0053420514
40	0x3697002b	4.5001702e-06
41	0x3b9a80f2	0.0047150785
42	0x3b6b0ebf	0.0035866944
43	0x3b9179f9	0.004439589
44	0x3b39431b	0.0028268758
45	0x3bbfc251	0.0058520217
46	0x3b8f33dc	0.004370196
47	0x3b5362bd	0.0032254898
48	0x3bb16647	0.0054138037
49	0x3b89772d	0.004195115
50	0x3b8ed23d	0.0043585584
51	0x3b207f1f	0.0024489833
52	0x3ba0e06e	0.0049095666
53	0x3bdc6da3	0.006726937
54	0x3c16a58b	0.009194742
55	0x3b7e3c08	0.0038793106
56	0x3becf98b	0.0072318963
57	0x3b924ab6	0.0044644726
58	0x3c049098	0.008091114
59	0x3bad878a	0.0052956985
60	0x3b74b7a1	0.0037340897
61	0x3b801d3f	0.0039097364
62	0x3b67a986	0.0035348847
63	0x3bd65cb1	0.0065418114

features.3.expand1x1.weight_fake_quant.activation_post_process.min_vals f4 [64]
0	0xbe48f242	-0.19623664
1	0xbeadca9f	-0.3394365
2	0xbe87bd9d	-0.2651185
3	0xbe9025a5	-0.2815372
4	0xbe9b63c3	-0.3034955
5	0xbe874a41	-0.2642384
6	0xbf2bd43b	-0.67120713
7	0xbefefeaf	-0.49803683
8	0xbed3dd13	-0.41379604
9	0xbf2103fd	-0.6289671
10	0xbe9948d5	-0.2993838
11	0xbf0ff2e1	-0.5622998
12	0xbedf4d17	-0.43613502
13	0xbed734c5	-0.42032447
14	0xbf103e69	-0.5634523
15	0xbf7dd5b8	-0.99154234
16	0xbef4d48a	-0.47818404
17	0xbed33bfd	-0.41256705
18	0xbe070c1e	-0.13188216
19	0xbf334bfa	-0.70037806
20	0xbef0e1a3	-0.47047147
21	0xbedb5310	-0.4283681
22	0xbe8a349a	-0.26993257
23	0xbed5dcec	-0.41770113
24	0xbebbc658	-0.36674762
25	0xbea3d413	-0.31997737
26	0xbeaf6671	-0.34257844
27	0xbe8a2245	-0.2697927
28	0xbeb901d8	-0.3613422
29	0xbe0f7036	-0.14007649
30	0xbeb65610	-0.35612535
31	0xbe86530b	-0.26235232
32	0xbeeb0597	-0.45902702
33	0xbed15a95	-0.4088942
34	0xbf15d8ea	-0.5853411
35	0xbf19e55f	-0.6011562
36	0xbed24d4c	-0.41074598
37	0xbedf09c4	-0.43562138
38	0xbe980216	-0.2968909
39	0xbf2e5d54	-0.6811116
40	0xba16692b	-0.0005737717
41	0xbf19e671	-0.6011725
42	0xbedc05b0	-0.4297309
43	0xbf10e87f	-0.5660476
44	0xbe998b23	-0.29988965
45	0xbf036a04	-0.5133364
46	0xbf0ea4a8	-0.55719995
47	0xbe3bd198	-0.18341672
48	0xbea983ce	-0.33108371
49	0xbf08edb6	-0.5348772
50	0xbef4d1ed	-0.4781641
51	0xbe2c795d	-0.16843171
52	0xbe8f133d	-0.27944365
53	0xbf5b9135	-0.85768443
54	0xbeaa3953	-0.3324686
55	0xbe2e9e22	-0.1705251
56	0xbf6c0c91	-0.92206675
57	0xbf11b86b	-0.56922024
58	0xbec4d2e9	-0.38442162
59	0xbec4bb44	-0.38424122
60	0xbef3c2e9	-0.47609642
61	0xbeff3a43	-0.49849138
62	0xbee6c1dc	-0.45069778
63	0xbe8975c7	-0.2684767

features.3.expand1x1.weight_fake_quant.activation_post_process.max_vals f4 [64]
0	0x3ed2eacf	0.4119477
1	0x3e771343	0.24128442
2	0x3e918d8f	0.28428313
3	0x3e6c55e4	0.2307964
4	0x3ecbc738	0.3980043
5	0x3ec5f2d5	0.3866183
6	0x3efbeaf7	0.492027
7	0x3eafcc70	0.3433566
8	0x3e87f15f	0.2655134
9	0x3f0085fc	0.50204444
10	0x3ea7f6d5	0.32805505
11	0x3f224b15	0.63395816
12	0x3f13e815	0.57776004
13	0x3e8be392	0.2732206
14	0x3ed25f1a	0.41088182
15	0x3ea33725	0.3187801
16	0x3eb178c1	0.3466244
17	0x3ed705ee	0.41996711
18	0x3eca024d	0.3945488
19	0x3f1d887e	0.61536396
20	0x3e60e246	0.21961316
21	0x3ed78608	0.42094445
22	0x3eaa5812	0.33270317
23	0x3e9cd247	0.3062918
24	0x3e6bab9b	0.23014681
25	0x3eabcc59	0.33554342
26	0x3e42c2bd	0.190196
27	0x3edcd9d7	0.4313495
28	0x3e6623c6	0.22474584
29	0x3ece7b6d	0.4032854
30	0x3f19e0a9	0.6010843
31	0x3eb8ce14	0.36094725
32	0x3f3a7ad5	0.72843677
33	0x3ee9fdc5	0.45701423
34	0x3e9276e1	0.28606322
35	0x3eb56200	0.3542633
36	0x3eb02f58	0.3441112
37	0x3f8d492a	1.1037953
38	0x3f5bd2e0	0.85868645
39	0x3ee785a4	0.45219147
40	0x398ac6c0	0.0002646949
41	0x3ed21a85	0.41035858
42	0x3eea23b0	0.45730352
43	0x3f03076e	0.5118321
44	0x3eb889d8	0.36042666
45	0x3f3f028f	0.7461328
46	0x3ee9daf6	0.45674866
47	0x3ed28f5a	0.41124994
48	0x3f30b4e1	0.69026
49	0x3ee27594	0.4423033
50	0x3f0e436b	0.5557162
51	0x3e9fdea0	0.31224537
52	0x3f203f8e	0.62596977
53	0x3eaec1d9	0.3413227
54	0x3f960ee5	1.1723295
55	0x3efd3dcc	0.4946121
56	0x3f240ce3	0.64082164
57	0x3ee68d4e	0.45029682
58	0x3f840c07	1.031617
59	0x3f2cda02	0.67520154
60	0x3ebd7320	0.37001896
61	0x3efd3ac0	0.49458885
62	0x3e59683e	0.21231171
63	0x3f558654	0.83408093

features.3.expand3x3.weight_fake_quant.scale f4 [64]
0	0x3b322efb	0.0027188647
1	0x3b8c15a2	0.00427504
2	0x3ae5d8f9	0.0017535976
3	0x3b10b1ed	0.0022078708
4	0x3b3fe099	0.0029278158
5	0x3aa95663	0.0012919422
6	0x3b613582	0.0034364169
7	0x3b5634d4	0.0032685297
8	0x3ae7554c	0.0017649322
9	0x3b49770e	0.0030741128
10	0x3b599dab	0.003320555
11	0x3b25217e	0.0025196965
12	0x3b9679ac	0.004592141
13	0x3adeff79	0.0017013393
14	0x3af9bbee	0.00190532
15	0x3b60d28b	0.003430518
16	0x3b8bde45	0.00426844
17	0x3b439729	0.0029844737
18	0x3b3ea43c	0.002908959
19	0x3ba1d27b	0.0049384213
20	0x3c04d129	0.008106508
21	0x3b83908c	0.004015034
22	0x3b954397	0.0045551765
23	0x3b60745c	0.0034249043
24	0x3b4d2659	0.0031303375
25	0x3b3f1f3c	0.0029162904
26	0x3ba2a1b6	0.004963125
27	0x3bad57a5	0.005289989
28	0x3b6134c8	0.0034363735
29	0x3b1484d1	0.0022662173
30	0x3b54018c	0.0032349555
31	0x3b36ff77	0.0027923265
32	0x3b4b3626	0.0031007617
33	0x3b19f2df	0.002349071
34	0x3b154298	0.0022775289
35	0x3ba850ca	0.005136584
36	0x3b64b779	0.0034899397
37	0x3b995358	0.004679125
38	0x3b2ed61c	0.0026677912
39	0x3b060f16	0.002045577
40	0x3b72a49c	0.0037024384
41	0x3b4896c7	0.0030607448
42	0x3b2ba00c	0.0026187925
43	0x3ad8abb6	0.0016530666
44	0x3b066652	0.0020507765
45	0x3b13ba70	0.0022541545
46	0x3af71e5f	0.0018853656
47	0x3b87504b	0.0041294447
48	0x3aed0251	0.0018082355
49	0x3ac1b7e6	0.0014779537
50	0x3b566b20	0.003271766
51	0x3aff9840	0.001950033
52	0x3b8cb1f1	0.004293673
53	0x3b76db14	0.0037667202
54	0x3b1c68ab	0.0023866098
55	0x3b4b3b59	0.0031010716
56	0x3b3ba676	0.0028633154
57	0x3b0bfeba	0.0021361546
58	0x3b3b638d	0.0028593272
59	0x3b110d01	0.0022132995
60	0x3b78b53d	0.0037949823
61	0x3b5c415c	0.0033608293
62	0x3aba5429	0.0014215756
63	0x3b27fc39	0.0025632514

features.3.expand3x3.weight_fake_quant.activation_post_process.min_vals f4 [64]
0	0xbeb17ccc	-0.34665525
1	0xbee0ad3d	-0.4388217
2	0xbe64f320	-0.2235837
3	0xbe589491	-0.21150424
4	0xbebf20b8	-0.3732965
5	0xbe28ad0d	-0.16472264
6	0xbeb98fc9	-0.36242512
7	0xbed55e9f	-0.41673753
8	0xbe312244	-0.17298228
9	0xbea20917	-0.3164756
10	0xbed8c40d	-0.42337075
11	0xbea47c5d	-0.32126132
12	0xbe8dedd6	-0.27720517
13	0xbe5e207a	-0.21692076
14	0xbe161c69	-0.14659275
15	0xbedff1b8	-0.43739104
16	0xbe5a19cf	-0.21298908
17	0xbea25f56	-0.3171336
18	0xbe0994f6	-0.1343573
19	0xbebf7612	-0.37394768
20	0xbf303d24	-0.68843293
21	0xbf030cfb	-0.5119168
22	0xbf14ae53	-0.580785
23	0xbea2c766	-0.31792754
24	0xbeab73bf	-0.33486745
25	0xbea5c2b4	-0.3237511
26	0xbf100405	-0.56256133
27	0xbe9d677d	-0.30743018
28	0xbe4d6334	-0.20057374
29	0xbe5e23ba	-0.21693316
30	0xbecbcfc2	-0.39806944
31	0xbe7c7388	-0.24653447
32	0xbeca6af0	-0.39534712
33	0xbe9958ec	-0.29950655
34	0xbe94ad55	-0.29038492
35	0xbf014321	-0.50493056
36	0xbebcba54	-0.36860907
37	0xbebc56c3	-0.36784944
38	0xbe4441e8	-0.19165766
39	0xbe858907	-0.26081106
40	0xbec63c01	-0.38717654
41	0xbebbbb76	-0.3666646
42	0xbeaaf46c	-0.33389604
43	0xbe3e20a0	-0.18567133
44	0xbe85dfec	-0.261474
45	0xbe238010	-0.1596682
46	0xbe762741	-0.24038412
47	0xbe2f606f	-0.1712663
48	0xbe5d5120	-0.21612978
49	0xbe2ecc87	-0.17070208
50	0xbebad5b7	-0.36491176
51	0xbe60e66b	-0.21962897
52	0xbf0c253f	-0.54744333
53	0xbead10fb	-0.33802018
54	0xbe868e16	-0.26280278
55	0xbead73e2	-0.33877474
56	0xbebaead0	-0.36507273
57	0xbe8b72bb	-0.2723597
58	0xbebaa829	-0.3645642
59	0xbe907bf4	-0.2821957
60	0xbef7bc88	-0.48386025
61	0xbe59d34a	-0.21272007
62	0xbe3999d5	-0.18125089
63	0xbe6adb82	-0.22935298

features.3.expand3x3.weight_fake_quant.activation_post_process.max_vals f4 [64]
0	0x3ea4c715	0.32183138
1	0x3f0b898c	0.54506755
2	0x3e5b9cd4	0.21446544
3	0x3e90213b	0.28150353
4	0x3e96bc13	0.29440364
5	0x3e021645	0.12703808
6	0x3ee0544c	0.43814313
7	0x3ecd86f2	0.40142018
8	0x3e666df7	0.22502886
9	0x3ec8ad97	0.3919494
10	0x3e8ddcbf	0.27707478
11	0x3e37664f	0.17910121
12	0x3f15e332	0.585498
13	0x3e3aa373	0.18226413
14	0x3e78c232	0.2429283
15	0x3e5e58c2	0.21713546
16	0x3f0b5267	0.5442261
17	0x3ec2d392	0.3805204
18	0x3ebde598	0.3708923
19	0x3f2130a9	0.62964875
20	0x3f844c58	1.0335798
21	0x3e863044	0.262087
22	0x3ef0d004	0.47033703
23	0x3edf93e8	0.4366753
24	0x3ecc5933	0.39911804
25	0x3ebe601d	0.37182704
26	0x3f21ff14	0.63279843
27	0x3f2caa4d	0.6744736
28	0x3ee05393	0.43813762
29	0x3e93f04c	0.2889427
30	0x3ed32d8a	0.4124568
31	0x3eb64878	0.35602164
32	0x3e81e18d	0.25367394
33	0x3e84ac2b	0.25912604
34	0x3e3f6dd7	0.18694244
35	0x3f27a879	0.65491444
36	0x3ee3d2c2	0.44496733
37	0x3f18ba05	0.59658843
38	0x3eae2746	0.34014338
39	0x3e62c2c3	0.22144608
40	0x3ef1b1f7	0.4720609
41	0x3ec7ce30	0.39024496
42	0x3e9e0be3	0.30868444
43	0x3e57d30a	0.21076599
44	0x3e6c8044	0.23095804
45	0x3e9326b6	0.28740472
46	0x3e52c4ff	0.2058296
47	0x3f06c8fb	0.5265042
48	0x3e6c154f	0.23055004
49	0x3e40f62e	0.1884391
50	0x3ed594b5	0.41715017
51	0x3e7e98a8	0.24862921
52	0x3e82c5c3	0.25541505
53	0x3ef5e439	0.48025683
54	0x3e9bcc42	0.30429274
55	0x3eca701e	0.39538664
56	0x3ea3ff7f	0.32030866
57	0x3e830d72	0.25596195
58	0x3e6e3bf4	0.23265058
59	0x3e887e28	0.2665875
60	0x3e66ba33	0.22531967
61	0x3edb651b	0.42850575
62	0x3e369e83	0.17833905
63	0x3ea7543d	0.32681456

features.4.squeeze.weight_fake_quant.scale f4 [16]
0	0x3bae42b4	0.00531801
1	0x3b9633ac	0.0045837965
2	0x3b70defa	0.0036753998
3	0x3ba8b3e9	0.0051484
4	0x3bbd8f2f	0.005784891
5	0x3bc049bf	0.005868166
6	0x3b97fd55	0.004638354
7	0x3ba1b663	0.0049350723
8	0x3b88a4cd	0.0041700364
9	0x3b9d5c20	0.004802242
10	0x3bfa0bb7	0.007630791
11	0x3bc1fb08	0.005919818
12	0x3bb9fa46	0.005675587
13	0x3be461fd	0.006969689
14	0x3ba32c24	0.004979627
15	0x3bbaddf9	0.0057027307

features.4.squeeze.weight_fake_quant.activation_post_process.min_vals f4 [16]
0	0xbf07e07c	-0.5307691
1	0xbef05206	-0.4693758
2	0xbeaf82bc	-0.3427943
3	0xbf280b35	-0.656421
4	0xbf280700	-0.6563568
5	0xbf24dcf5	-0.64399654
6	0xbeb61512	-0.3556295
7	0xbe9fe543	-0.312296
8	0xbf081c28	-0.53167963
9	0xbf01bfab	-0.5068309
10	0xbeedcfbe	-0.46447557
11	0xbf41390d	-0.7547768
12	0xbf129a70	-0.572669
13	0xbf2012e7	-0.6252884
14	0xbef6be9f	-0.48192307
15	0xbf3a231b	-0.72709817

features.4.squeeze.weight_fake_quant.activation_post_process.max_vals f4 [16]
0	0x3f2d9471	0.6780463
1	0x3f159d78	0.58443403
2	0x3eefee1b	0.46861348
3	0x3f1c5c5c	0.6107843
4	0x3f3cd1a0	0.7375736
5	0x3f3f8975	0.7481912
6	0x3f176558	0.59139013
7	0x3f2114ad	0.62922174
8	0x3ef84ec2	0.48497587
9	0x3f1cbec4	0.61228585
10	0x3f7911ab	0.97292584
11	0x3f3e1ed5	0.74265796
12	0x3f39404c	0.72363734
13	0x3f637d9b	0.88863534
14	0x3f2288f8	0.6349025
15	0x3f2a5fd4	0.6655247

features.4.expand1x1.weight_fake_quant.scale f4 [64]
0	0x3ba16d85	0.004926386
1	0x3b91eb4e	0.0044530993
2	0x3b98fb78	0.0046686493
3	0x3b8bafff	0.0042629237
4	0x3bd9ba98	0.006644558
5	0x3b2a5452	0.00259902
6	0x3b88f53d	0.0041796253
7	0x3c0f1327	0.008732594
8	0x3ba63787	0.0050725373
9	0x3aed5903	0.0018108193
10	0x3b82dcce	0.003993607
11	0x3b688b7c	0.003548353
12	0x3bbc8c9a	0.0057540657
13	0x3b541d25	0.0032366004
14	0x3bc1db11	0.0059160073
15	0x3b35eecd	0.0027760745
16	0x3c07dc61	0.0082922885
17	0x3881930e	6.1785904e-05
18	0x3b92f1e5	0.0044844025
19	0x3b56659d	0.0032714375
20	0x3b416166	0.0029507517
21	0x3b5ccce6	0.0033691465
22	0x3bc74f79	0.006082472
23	0x3b9c39c6	0.0047676293
24	0x3b637720	0.0034708455
25	0x3b88b424	0.004171865
26	0x3b9d027e	0.004791557
27	0x3bd53f69	0.006507803
28	0x3b44553c	0.002995803
29	0x3ba4fe58	0.005035203
30	0x3bc04447	0.0058675143
31	0x3b6ce293	0.003614579
32	0x3b3fc77e	0.0029263194
33	0x3bd2f677	0.0064380723
34	0x3b5cca69	0.0033689982
35	0x3ba1b9a3	0.0049354597
36	0x3b9ba493	0.0047498434
37	0x3b457861	0.0030131566
38	0x3c07eea4	0.008296642
39	0x3c0fb1ae	0.0087703895
40	0x3b29d401	0.0025913718
41	0x3b4477df	0.0029978675
42	0x3bb7a98e	0.0056049293
43	0x3be115db	0.0068690605
44	0x3bcc3943	0.006232412
45	0x3af2c29e	0.0018521135
46	0x3b20094a	0.00244196
47	0x3b4f9698	0.0031675454
48	0x3b240756	0.0025028787
49	0x3b5d317d	0.003375142
50	0x3b50f5e4	0.0031884843
51	0x3b750cd5	0.0037391682
52	0x3b8e40a2	0.004341201
53	0x3b8b68ef	0.0042544524
54	0x3b2583f1	0.0025255645
55	0x3bb9abda	0.0056662383
56	0x3b9d06dd	0.004792078
57	0x3b5013fc	0.0031750193
58	0x3b835575	0.00400799
59	0x3b5a5da2	0.003331997
60	0x3b2ddcfe	0.0026529427
61	0x3af6e53a	0.0018836625
62	0x3b51b5a5	0.0031999138
63	0x3b37c59c	0.0028041368

features.4.expand1x1.weight_fake_quant.activation_post_process.min_vals f4 [64]
0	0xbe9f5efe	-0.3112716
1	0xbea7a770	-0.32744932
2	0xbe7eea25	-0.24894007
3	0xbeb603ef	-0.35549876
4	0xbeb6d47f	-0.35708997
5	0xbea9a9fe	-0.33137506
6	0xbe8f89e6	-0.28034896
7	0xbe2ef296	-0.17084727
8	0xbef26aeb	-0.47347197
9	0xbe6c6baa	-0.23087946
10	0xbe415e96	-0.18883738
11	0xbe9b6816	-0.3035285
12	0xbea0dc4a	-0.31418067
13	0xbeb051fc	-0.3443755
14	0xbe4bc23b	-0.19898312
15	0xbeb538de	-0.3539495
16	0xbf0e0cbc	-0.5548818
17	0xbb86bddd	-0.004111989
18	0xbedc3dce	-0.43015903
19	0xbe8e1b78	-0.27755332
20	0xbe9147f3	-0.28375205
21	0xbeaec47b	-0.34134278
22	0xbf3622c7	-0.71146816
23	0xbeba23e7	-0.36355516
24	0xbe8c5e2b	-0.27415594
25	0xbe80e3dc	-0.25173843
26	0xbf1c657c	-0.6109235
27	0xbe86f726	-0.26360434
28	0xbe72b966	-0.23703536
29	0xbf088383	-0.5332567
30	0xbe73dcd4	-0.23814708
31	0xbee40c31	-0.4454055
32	0xbe5541d7	-0.20825897
33	0xbee2ef38	-0.44323134
34	0xbe7b6b99	-0.24552764
35	0xbf2117e9	-0.6292711
36	0xbe9d1f4c	-0.3068794
37	0xbe5443d3	-0.20728998
38	0xbe2cffd3	-0.16894464
39	0xbdb80f65	-0.08987311
40	0xbea92a2d	-0.3303999
41	0xbeb94394	-0.3618437
42	0xbe462de1	-0.19353439
43	0xbe9ec4fc	-0.31009662
44	0xbe8afa7c	-0.2714423
45	0xbe13ed21	-0.14445926
46	0xbe986b68	-0.29769444
47	0xbeac234c	-0.3362068
48	0xbe91de8c	-0.28490102
49	0xbecc04b1	-0.3984733
50	0xbe7b9263	-0.24567561
51	0xbeb4e733	-0.3533264
52	0xbe8afef6	-0.27147645
53	0xbeb64630	-0.35600424
54	0xbe562bc9	-0.2091514
55	0xbe7ea6d4	-0.24868327
56	0xbe8883f3	-0.2666317
57	0xbebd5428	-0.3697827
58	0xbef55545	-0.47916618
59	0xbea58a0e	-0.3233189
60	0xbe3e1fca	-0.18566814
61	0xbce96e72	-0.028495047
62	0xbe3f70b4	-0.18695337
63	0xbe86ad9e	-0.26304334

features.4.expand1x1.weight_fake_quant.activation_post_process.max_vals f4 [64]
0	0x3f20cc17	0.62811416
1	0x3f115963	0.5677702
2	0x3f18627d	0.5952528
3	0x3f0b244f	0.5435228
4	0x3f58e0dd	0.84718114
5	0x3e64ada8	0.2233187
6	0x3f086c48	0.53290224
7	0x3f8e8414	1.1134057
8	0x3f25914f	0.6467485
9	0x3e6a7973	0.22897892
10	0x3f0259f1	0.5091849
11	0x3ee7a2f1	0.45241502
12	0x3f3bd00d	0.73364335
13	0x3ed34908	0.41266656
14	0x3f411936	0.75429094
15	0x3e9d5afa	0.30733472
16	0x3f875485	1.0572668
17	0x3c01117b	0.007877703
18	0x3f125ef3	0.5717613
19	0x3ed58f37	0.41710827
20	0x3ec0a005	0.37622085
21	0x3edbf019	0.42956617
22	0x3f46882a	0.7755152
23	0x3f1b9d8c	0.6078727
24	0x3ee293a9	0.4425328
25	0x3f082b70	0.5319128
26	0x3ebd0155	0.3691508
27	0x3f546a2a	0.82974494
28	0x3ec390e7	0.3819649
29	0x3f24595a	0.6419884
30	0x3f3f8403	0.7481081
31	0x3eebf5b0	0.46085882
32	0x3ebf07b7	0.37310573
33	0x3f522381	0.82085425
34	0x3edbed9f	0.42954728
35	0x3f10e79f	0.56603426
36	0x3f1b08ee	0.605605
37	0x3ec4b2e9	0.38417748
38	0x3f8766b5	1.0578219
39	0x3f8f21fc	1.1182246
40	0x3e9e788e	0.3095135
41	0x3ec3b367	0.3822281
42	0x3f36f1e4	0.71462846
43	0x3f6034c5	0.8758052
44	0x3f4b6d0a	0.79463255
45	0x3e71cfdb	0.23614447
46	0x3e9f6941	0.3113499
47	0x3ecec701	0.40386203
48	0x3ea3634f	0.31911704
49	0x3edc544c	0.43033063
50	0x3ed024ee	0.40653175
51	0x3ef417c8	0.47674394
52	0x3f0db261	0.5535031
53	0x3f0add86	0.5424427
54	0x3ea4de6d	0.32200947
55	0x3f38f22e	0.72244537
56	0x3f1c69d6	0.6109899
57	0x3ecf43e8	0.40481496
58	0x3f02d220	0.51101875
59	0x3ed98344	0.4248296
60	0x3ead2f21	0.3382502
61	0x3e75ee55	0.24016698
62	0x3ed0e3ef	0.407989
63	0x3eb70dd6	0.35752743

features.4.expand3x3.weight_fake_quant.scale f4 [64]
0	0x3b74815d	0.0037308552
1	0x3b318ad9	0.0027090816
2	0x3b32a15e	0.0027256827
3	0x3b3f070c	0.0029148487
4	0x3b68d433	0.0035526871
5	0x3b697737	0.0035624036
6	0x3b45adbe	0.0030163373
7	0x3b3a06c2	0.0028385376
8	0x3b30ac16	0.002695804
9	0x3b79e68c	0.0038131801
10	0x3b16a18f	0.002298448
11	0x3b0a317f	0.002108663
12	0x3b483f3f	0.0030555276
13	0x3b57e4de	0.0032942812
14	0x3b068e97	0.0020531768
15	0x3b4268ae	0.0029664445
16	0x3ab7b5f8	0.0014016023
17	0x3b6af3c8	0.0035850871
18	0x3b373fdb	0.0027961645
19	0x3b20a927	0.0024514885
20	0x3b6ed747	0.0036444233
21	0x3b509796	0.0031828634
22	0x3b688e93	0.0035485371
23	0x3b430f8e	0.002976391
24	0x3b562b9a	0.0032679797
25	0x3b2951e8	0.0025836173
26	0x3b21c0e2	0.0024681618
27	0x3b053ad8	0.0020329263
28	0x3b626ef2	0.0034550992
29	0x3b5f8286	0.0034104898
30	0x3b198db9	0.002343042
31	0x3b250665	0.0025180813
32	0x3ba4ec53	0.005033055
33	0x3b070dad	0.0020607517
34	0x3b24179f	0.0025038493
35	0x3abe66a1	0.0014526435
36	0x3b6178c1	0.003440425
37	0x3b625407	0.0034534947
38	0x3b3f0836	0.0029149181
39	0x3bac406c	0.005256703
40	0x3b20ce68	0.002453709
41	0x3b2fa6be	0.0026802267
42	0x3b36f51a	0.0027917088
43	0x3b113318	0.0022155698
44	0x3b357a04	0.0027691135
45	0x3b3d814a	0.0028916174
46	0x3b311cce	0.0027025226
47	0x3b066d56	0.0020511947
48	0x3b5a810c	0.0033341078
49	0x3b48e846	0.0030656024
50	0x3b106dd7	0.0022038126
51	0x3b324ec9	0.0027207604
52	0x3b3517f8	0.0027632695
53	0x3b2776eb	0.0025553058
54	0x3b08f57a	0.0020898269
55	0x3b40a372	0.0029394296
56	0x3b38e077	0.0028209963
57	0x3b3516c9	0.002763199
58	0x3b438bbc	0.0029837927
59	0x3b6f0015	0.0036468555
60	0x3b88a34d	0.0041698576
61	0x3b153054	0.0022764402
62	0x3b3e4b06	0.0029036417
63	0x3acaa092	0.0015459231

features.4.expand3x3.weight_fake_quant.activation_post_process.min_vals f4 [64]
0	0xbeb7aa24	-0.35871994
1	0xbe95cd5d	-0.29258242
2	0xbeb1eebd	-0.34752455
3	0xbebe4805	-0.37164322
4	0xbeb3a61c	-0.3508767
5	0xbee88dc0	-0.45420647
6	0xbec4e810	-0.384583
7	0xbe892b81	-0.26791003
8	0xbe56fb7c	-0.20994371
9	0xbeccd723	-0.40007886
10	0xbe89a8f3	-0.2688671
11	0xbe896cd4	-0.26840842
12	0xbe7773a5	-0.24165209
13	0xbec4b538	-0.3841951
14	0xbe4ce8d3	-0.2001069
15	0xbebe9af7	-0.37227604
16	0xbe35079a	-0.17678681
17	0xbeea08d4	-0.4570986
18	0xbe99f9e0	-0.30073452
19	0xbe5f6466	-0.21815643
20	0xbe9f7611	-0.31144765
21	0xbe9e24eb	-0.3088754
22	0xbee7a604	-0.45243847
23	0xbec24c7e	-0.37948984
24	0xbed5556e	-0.4166674
25	0xbea8a896	-0.3294112
26	0xbea11f21	-0.31469062
27	0xbe508700	-0.20363998
28	0xbee18c83	-0.44052514
29	0xbe9d1a6b	-0.30684218
30	0xbe950573	-0.2910572
31	0xbe89cfda	-0.2691639
32	0xbf0fd98d	-0.5619133
33	0xbe816ef3	-0.2527996
34	0xbea37387	-0.31924078
35	0xbe395258	-0.18097818
36	0xbe9ea32c	-0.30983865
37	0xbe4ad47e	-0.19807622
38	0xbea24068	-0.31689763
39	0xbf2b942c	-0.6702297
40	0xbe8dd1e6	-0.27699202
41	0xbe5cec17	-0.21574436
42	0xbe8171ca	-0.25282127
43	0xbe90a1e5	-0.28248516
44	0xbeb4c48a	-0.35306197
45	0xbe9f1964	-0.3107406
46	0xbea390af	-0.31946322
47	0xbe85e6e9	-0.26152733
48	0xbed9a68b	-0.42509875
49	0xbec81f5e	-0.3908643
50	0xbe69ff8c	-0.2285139
51	0xbe647c47	-0.22313033
52	0xbeb462e0	-0.35231686
53	0xbea6cf74	-0.3258015
54	0xbe886c85	-0.26645294
55	0xbeb64885	-0.35602203
56	0xbea549fb	-0.32283005
57	0xbe8581a9	-0.26075485
58	0xbec2c830	-0.38043356
59	0xbed66eb5	-0.41881338
60	0xbec25011	-0.3795171
61	0xbe6f2ba7	-0.23356496
62	0xbe942308	-0.28932977
63	0xbe451b98	-0.19248807

features.4.expand3x3.weight_fake_quant.activation_post_process.max_vals f4 [64]
0	0x3ef38cdc	0.47568405
1	0x3eb0d94e	0.3454079
2	0x3e87bc4d	0.2651085
3	0x3ea524ff	0.32254788
4	0x3ee7eb5f	0.4529676
5	0x3eadb264	0.33925164
6	0x3ead03e8	0.33792043
7	0x3eb94cbb	0.36191353
8	0x3eaffb6a	0.343715
9	0x3ef8eca5	0.48618045
10	0x3e960aed	0.2930521
11	0x3e89a74e	0.26885456
12	0x3ec77700	0.38957977
13	0x3ed70cf9	0.42002085
14	0x3e860808	0.26178002
15	0x3ec1a645	0.37822166
16	0x3e36fe42	0.17870429
17	0x3ebcca7d	0.36873236
18	0x3eb6889b	0.35651097
19	0x3ea0087e	0.3125648
20	0x3eede870	0.46466398
21	0x3ecfc6fe	0.40581506
22	0x3ea645db	0.3247517
23	0x3ec081d5	0.37599054
24	0x3ed23578	0.41056418
25	0x3e96732a	0.29384738
26	0x3e8a63c2	0.27029234
27	0x3e84b59d	0.2591981
28	0x3e97b0e9	0.2962716
29	0x3edea303	0.43483743
30	0x3e98f42b	0.29873785
31	0x3ea4615f	0.32105538
32	0x3f244767	0.6417145
33	0x3e86869f	0.26274583
34	0x3e9386f8	0.2881391
35	0x3e3da83a	0.18521205
36	0x3ee09748	0.43865418
37	0x3ee171b3	0.44032058
38	0x3ebe492e	0.37165207
39	0x3f1cd095	0.6125577
40	0x3ea02d9a	0.3128479
41	0x3eaef717	0.3417289
42	0x3eb63e25	0.35594288
43	0x3e8eb422	0.27871805
44	0x3e8f713d	0.2801608
45	0x3ebcc3c9	0.36868122
46	0x3eb06bb1	0.34457162
47	0x3e74458e	0.23854658
48	0x3ec17e0f	0.37791488
49	0x3ec02412	0.3752752
50	0x3e8fdd69	0.2809861
51	0x3eb19c7a	0.34689695
52	0x3e834160	0.25635815
53	0x3e92974d	0.28631058
54	0x3e8165b0	0.25272894
55	0x3ebfe2cf	0.3747773
56	0x3eb82797	0.35967705
57	0x3eb461b2	0.35230786
58	0x3eb8a4c5	0.3606321
59	0x3eee1115	0.46497408
60	0x3f081aaa	0.53165686
61	0x3e949b24	0.29024613
62	0x3ebd8cbb	0.3702143
63	0x3e49d5f1	0.19710518

features.6.squeeze.weight_fake_quant.scale f4 [32]
0	0x3bb6fc03	0.0055842414
1	0x3b9ea87f	0.0048418636
2	0x3b9d7ee9	0.0048063886
3	0x3bb82f1e	0.005620851
4	0x3b9a60f8	0.0047112666
5	0x3bd5ed1e	0.0065285107
6	0x3bb63493	0.0055604666
7	0x3b532f98	0.0032224413
8	0x3b47be38	0.003047837
9	0x3b802da4	0.003911691
10	0x3b58bc50	0.0033071227
11	0x3b64f4b8	0.0034935903
12	0x3ba6df3b	0.005092529
13	0x3b93b02a	0.0045070844
14	0x3bb02710	0.0053757504
15	0x3b998a3f	0.0046856697
16	0x3bab8116	0.005233894
17	0x3bc3b713	0.005972752
18	0x3bb83d15	0.005622516
19	0x3be4bdb1	0.006980621
20	0x3bda4bd3	0.006661871
21	0x3b95766b	0.0045612357
22	0x3bb17f18	0.005416762
23	0x3c104cc5	0.008807366
24	0x3b6dae7e	0.0036267336
25	0x3bc86394	0.0061153863
26	0x3c26d111	0.010181681
27	0x3bbc1b3a	0.0057405503
28	0x3b9fc6a7	0.004875976
29	0x3baa53e7	0.00519799
30	0x3ba9c023	0.005180375
31	0x3beebad4	0.0072854552

features.6.squeeze.weight_fake_quant.activation_post_process.min_vals f4 [32]
0	0xbed6cd85	-0.41953674
1	0xbf1e09d7	-0.61733764
2	0xbef0c916	-0.47028416
3	0xbef71104	-0.4825517
4	0xbee57fde	-0.44824117
5	0xbf26c494	-0.65143704
6	0xbefe9239	-0.49720934
7	0xbe7a31f2	-0.24433115
8	0xbec6f67a	-0.38859922
9	0xbeb9b228	-0.36268735
10	0xbeb222cc	-0.34792173
11	0xbe9c0b02	-0.30477148
12	0xbeadff75	-0.3398396
13	0xbe9df147	-0.30848143
14	0xbeda6417	-0.42654487
15	0xbec7bcc2	-0.39011198
16	0xbea3f7dc	-0.3202504
17	0xbf42f35c	-0.76152587
18	0xbeba82e7	-0.36427996
19	0xbf63d8f3	-0.89002913
20	0xbe4d0633	-0.20021896
21	0xbf14e0f5	-0.5815576
22	0xbea25c82	-0.31711203
23	0xbec5706e	-0.3856234
24	0xbeb9a466	-0.3625824
25	0xbedbdb25	-0.42940632
26	0xbed569f8	-0.4168241
27	0xbf3b5f1f	-0.7319202
28	0xbe9d7118	-0.30750346
29	0xbecf2ba4	-0.40462983
30	0xbea89d9d	-0.3293275
31	0xbee6e9b5	-0.4510018

features.6.squeeze.weight_fake_quant.activation_post_process.max_vals f4 [32]
0	0x3f364507	0.7119908
1	0x3eef50d5	0.46741357
2	0x3f1ce16a	0.61281455
3	0x3f3776ef	0.71665853
4	0x3f19c697	0.6006865
5	0x3f551731	0.8323851
6	0x3f357e5e	0.70895946
7	0x3ed25c68	0.41086125
8	0x3ec562d1	0.38551953
9	0x3eff5aed	0.49874058
10	0x3ed7e394	0.42165816
11	0x3ee40fc3	0.44543275
12	0x3f26385c	0.6492975
13	0x3f131c7a	0.57465327
14	0x3f2f76e9	0.6854082
15	0x3f18f0b5	0.5974229
16	0x3f2ad595	0.6673215
17	0x3f09ec17	0.5387587
18	0x3f3784d8	0.7168708
19	0x3eec4c88	0.4615214
20	0x3f597187	0.84938854
21	0x3ecb0778	0.39654136
22	0x3f30cd99	0.6906372
23	0x3f8fbc78	1.1229391
24	0x3eecc0d0	0.46240854
25	0x3f479b30	0.7797117
26	0x3fa62a40	1.2981644
27	0x3ecee30b	0.40407595
28	0x3f1f26e0	0.62168694
29	0x3f29a993	0.66274375
30	0x3f291663	0.66049784
31	0x3f6dcc19	0.92889553

features.6.expand1x1.weight_fake_quant.scale f4 [128]
0	0x3b8664d9	0.0041013774
1	0x3b07464b	0.0020641263
2	0x3ba9aba1	0.0051779305
3	0x3b2db16f	0.0026503464
4	0x3b472a73	0.0030390292
5	0x3b02b977	0.0019946971
6	0x3b4664fd	0.0030272596
7	0x3af18cb0	0.0018428769
8	0x3b736726	0.0037140339
9	0x3ad02531	0.0015880225
10	0x3b5bbdc4	0.0033529857
11	0x3ac69697	0.001515108
12	0x3b2f3186	0.00267324
13	0x3b13e3ae	0.0022566128
14	0x39c0481d	0.00036674822
15	0x3b4e9fd3	0.0031528368
16	0x3b0d57c8	0.0021567214
17	0x3bb08998	0.005387496
18	0x3b06c553	0.0020564392
19	0x3b30b0e6	0.0026960908
20	0x3b534e70	0.0032242797
21	0x3b2ac61e	0.0026058028
22	0x3b26cbcf	0.002545107
23	0x3b50dba7	0.0031869204
24	0x3b0cfb7e	0.0021512206
25	0x3af0d772	0.0018374755
26	0x3af9e36e	0.0019064972
27	0x3b00a57c	0.0019629886
28	0x3b652c5a	0.0034969063
29	0x3b6dad06	0.003626646
30	0x3b326898	0.0027222987
31	0x3b0bb5d9	0.0021318106
32	0x3b234511	0.0024912993
33	0x3b127df1	0.00223529
34	0x3af78206	0.0018883354
35	0x39840806	0.0002518298
36	0x3b387e6a	0.002815152
37	0x3af343a7	0.0018559591
38	0x3aa00b7b	0.0012210453
39	0x3b36bebd	0.0027884685
40	0x3b2ed51f	0.0026677323
41	0x3b38a728	0.0028175805
42	0x3b246288	0.0025083143
43	0x3b067474	0.0020516189
44	0x3b4f89da	0.003166786
45	0x3ba1aaea	0.0049337046
46	0x3b4573ae	0.0030128765
47	0x3b3df5b8	0.002898557
48	0x3ae26459	0.0017272338
49	0x3b136fe7	0.002249712
50	0x3b75d498	0.003751075
51	0x3b652c3b	0.003496899
52	0x3b1150f5	0.0022173498
53	0x3b153933	0.002276969
54	0x3b2b22f2	0.0026113358
55	0x3af2c81c	0.0018522772
56	0x3b11c8f4	0.0022245022
57	0x3b388f85	0.0028161716
58	0x3b175966	0.0023094057
59	0x3b2b1908	0.002610745
60	0x3af7f385	0.0018917179
61	0x3b34c38f	0.0027582382
62	0x3b311741	0.0027021917
63	0x3aff3820	0.0019471683
64	0x3b1bcc43	0.0023772873
65	0x3677619d	3.6862687e-06
66	0x3b6d84bd	0.0036242448
67	0x3b5333c4	0.00322269
68	0x3b1635a9	0.0022920168
69	0x3b17f9f1	0.0023189748
70	0x3b1f8d38	0.0024345648
71	0x3b55c2f5	0.0032617424
72	0x3b07033f	0.00206013
73	0x3b2ab2be	0.002604648
74	0x3a47df56	0.0007624527
75	0x3b14cd70	0.0022705458
76	0x3b1040d3	0.0022011294
77	0x3bc2af47	0.005941305
78	0x3afde7ce	0.0019371451
79	0x3b1b6dcd	0.002371657
80	0x3b1a69bf	0.0023561565
81	0x3adb9dcd	0.0016755402
82	0x3b2aa8fd	0.0026040666
83	0x3b65d016	0.0035066656
84	0x3b2af4cc	0.0026085852
85	0x3b70cd58	0.0036743488
86	0x3b2ed436	0.002667678
87	0x3af75ea6	0.0018872812
88	0x3b314ad4	0.0027052658
89	0x3b77d992	0.003781889
90	0x3ae79ca9	0.001767059
91	0x3b2ea59c	0.0026649004
92	0x3b5e9376	0.0033962405
93	0x3bbef658	0.0058277063
94	0x3b28e1b3	0.0025769293
95	0x3b337b6a	0.0027386793
96	0x3b144a1b	0.0022627178
97	0x3ae2fe94	0.0017318302
98	0x3b386faf	0.002814274
99	0x3b66cfe3	0.0035219125
100	0x3b57db4f	0.0032937115
101	0x3b4b40ee	0.0031014043
102	0x3b5a835e	0.003334246
103	0x3b31be53	0.0027121499
104	0x3b7fb098	0.003901517
105	0x3b1c5e58	0.0023859944
106	0x3b25945f	0.0025265438
107	0x3ae7f273	0.0017696157
108	0x3b660cb4	0.0035102786
109	0x3b27e248	0.0025617052
110	0x3b2257c9	0.0024771562
111	0x3afcd7f6	0.0019290436
112	0x3b4080f7	0.0029373744
113	0x3b57b0a6	0.0032911687
114	0x3b1234f2	0.002230939
115	0x3b180696	0.0023197285
116	0x3b32ccf3	0.0027282804
117	0x3b89b48f	0.0042024325
118	0x3b8a549c	0.004221512
119	0x3b781194	0.0037852274
120	0x3b9e5db2	0.0048329467
121	0x3ae5dbc9	0.0017536815
122	0x3b0389c7	0.0020071135
123	0x3b50c584	0.003185601
124	0x39fb4fde	0.00047933956
125	0x3b16a40f	0.002298597
126	0x39237aaf	0.00015590595
127	0x3aeeb07a	0.0018210553

features.6.expand1x1.weight_fake_quant.activation_post_process.min_vals f4 [128]
0	0xbf05de74	-0.5229256
1	0xbe710820	-0.23538256
2	0xbf2901f5	-0.6601861
3	0xbe886d8c	-0.26646078
4	0xbec66349	-0.38747624
5	0xbe63a504	-0.22230917
6	0xbeb39fe8	-0.35082936
7	0xbe5ffcd1	-0.21873786
8	0xbef273bf	-0.47353932
9	0xbe4f550c	-0.20247287
10	0xbedae206	-0.42750567
11	0xbe45d000	-0.19317627
12	0xbe570994	-0.20999748
13	0xbe57f136	-0.21088108
14	0xbd326421	-0.04355252
15	0xbe521a68	-0.20517886
16	0xbe8cca70	-0.27498198
17	0xbf2fd90e	-0.68690574
18	0xbe843315	-0.25820222
19	0xbeb00035	-0.34375158
20	0xbe9a1527	-0.30094263
21	0xbeaa1b58	-0.33223987
22	0xbe86e621	-0.2634745
23	0xbed00acb	-0.40633234
24	0xbe8c6e83	-0.27428064
25	0xbe6fe69b	-0.23427813
26	0xbe78e98b	-0.2430784
27	0xbe8024d7	-0.25028107
28	0xbe8d19d6	-0.27558774
29	0xbeecbf59	-0.46239737
30	0xbeb1b62f	-0.34709308
31	0xbe2c64d3	-0.16835336
32	0xbe97426f	-0.29542872
33	0xbe9066e3	-0.28203496
34	0xbe768a84	-0.24076277
35	0xbc75618a	-0.014976868
36	0xbeb7c5ec	-0.3589319
37	0xbe725063	-0.23663478
38	0xbe1d62bc	-0.15369695
39	0xbeb607fe	-0.35552973
40	0xbeae264a	-0.34013587
41	0xbeb7ee81	-0.35924152
42	0xbe716a19	-0.2357563
43	0xbe85ee00	-0.26158142
44	0xbeceba50	-0.4037652
45	0xbf21093f	-0.62904733
46	0xbec4ae3a	-0.38414174
47	0xbe4341e3	-0.19068103
48	0xbe6181f5	-0.22022231
49	0xbe92dc77	-0.28683826
50	0xbe87f7d9	-0.2655628
51	0xbee4470f	-0.44585463
52	0xbe8a4116	-0.27002782
53	0xbe94a3fa	-0.29031354
54	0xbe3da175	-0.18518622
55	0xbe71d554	-0.23616534
56	0xbe91372b	-0.28362402
57	0xbea668a1	-0.325017
58	0xbe96c20d	-0.29444924
59	0xbeaa6def	-0.33286998
60	0xbe1dd170	-0.15411925
61	0xbe9d94b0	-0.30777502
62	0xbe61905e	-0.22027728
63	0xbe38e5d2	-0.1805642
64	0xbe9b3077	-0.30310413
65	0xb9f66a3b	-0.00046999924
66	0xbe864575	-0.26224867
67	0xbed26090	-0.41089296
68	0xbe80303e	-0.25036806
69	0xbe71aa2d	-0.23600073
70	0xbe55f802	-0.20895389
71	0xbec8db52	-0.39229828
72	0xbe7b0ea6	-0.24517307
73	0xbeaa080b	-0.3320926
74	0xbd6e9e6f	-0.058256563
75	0xbe8143d4	-0.2524706
76	0xbe452bdf	-0.19255017
77	0xbeaea6a5	-0.34111515
78	0xbe660e71	-0.22466446
79	0xbe7e3143	-0.2482348
80	0xbe99cf55	-0.30040994
81	0xbe5a8cc3	-0.21342759
82	0xbdffdbbb	-0.12493082
83	0xbe7ac620	-0.24489641
84	0xbe9b8a8c	-0.3037914
85	0xbe6e3d67	-0.2326561
86	0xbe2c7f25	-0.16845377
87	0xbe766747	-0.24062835
88	0xbe8e0fc6	-0.2774641
89	0xbe5bccd3	-0.21464853
90	0xbe66b50c	-0.22530001
91	0xbe95f25f	-0.29286477
92	0xbe900b31	-0.28133538
93	0xbf3e3762	-0.7430326
94	0xbe3821dc	-0.17981666
95	0xbe955c65	-0.29172054
96	0xbe93b5d1	-0.28849652
97	0xbe621b95	-0.22080834
98	0xbeb7b73f	-0.35881993
99	0xbee5e913	-0.44904384
100	0xbe9e743b	-0.30948052
101	0xbec336da	-0.38127786
102	0xbe8b0df3	-0.2715908
103	0xbeb10c95	-0.34579912
104	0xbe369319	-0.17829551
105	0xbe9bc1fa	-0.3042143
106	0xbe430dbe	-0.19048211
107	0xbe670a81	-0.225626
108	0xbee526a7	-0.44756052
109	0xbe807922	-0.25092417
110	0xbea1b571	-0.3158374
111	0xbe7bdb1e	-0.24595305
112	0xbe2bed11	-0.16789652
113	0xbe65cc36	-0.22441182
114	0xbe4fa0e0	-0.20276213
115	0xbe976e8f	-0.29576537
116	0xbeb21a26	-0.34785575
117	0xbe95529d	-0.2916459
118	0xbf09ca47	-0.53824276
119	0xbe46bcf0	-0.19408011
120	0xbe4d838a	-0.2006971
121	0xbe4c573f	-0.19955157
122	0xbe76f8f4	-0.24118406
123	0xbecff4be	-0.4061641
124	0xbd1416a4	-0.036154404
125	0xbe960d6b	-0.29307112
126	0xbc2684ed	-0.010163528
127	0xbdd4c59b	-0.10389253

features.6.expand1x1.weight_fake_quant.activation_post_process.max_vals f4 [128]
0	0x3ecbd5b3	0.39811477
1	0x3e86bf05	0.2631761
2	0x3e370361	0.17872383
3	0x3ead03be	0.33791918
4	0x3e95deeb	0.29271635
5	0x3e8236be	0.2543239
6	0x3ec59e98	0.3859756
7	0x3e709b23	0.2349668
8	0x3e9d30d6	0.3070132
9	0x3e3ddb59	0.18540706
10	0x3ea3707b	0.31921753
11	0x3e18898e	0.14896223
12	0x3eae8254	0.34083807
13	0x3e934fca	0.28771812
14	0x3d3f87d5	0.0467604
15	0x3ecdd133	0.4019867
16	0x3e74771a	0.23873559
17	0x3ea0c6fb	0.3140181
18	0x3e863e8e	0.262196
19	0x3e8e6b8d	0.2781643
20	0x3ed27b22	0.41109568
21	0x3e8c2ec4	0.2737943
22	0x3ea62503	0.32450113
23	0x3e87b0d8	0.2650211
24	0x3e60de41	0.21959783
25	0x3e5c194a	0.21494022
26	0x3e6fd04b	0.23419301
27	0x3e27fa1d	0.16404004
28	0x3ee4472e	0.44585556
29	0x3ebe541e	0.3717355
30	0x3ea956b9	0.33073977
31	0x3e8b2a23	0.27180585
32	0x3ea2a1cc	0.31764066
33	0x3e91eb73	0.28499946
34	0x3e6ec581	0.2331753
35	0x3d0383fe	0.0321083
36	0x3e94fc77	0.29098865
37	0x3e507324	0.20356423
38	0x3e1f6b70	0.15568328
39	0x3e87b483	0.26504907
40	0x3e87768e	0.26457638
41	0x3e33814f	0.17529796
42	0x3ea3be25	0.31981006
43	0x3e6477c4	0.22311312
44	0x3e44b276	0.19208702
45	0x3e4847e1	0.1955867
46	0x3e9a2a3d	0.3011035
47	0x3ebd37c2	0.36956602
48	0x3e60edc0	0.21965694
49	0x3e61640e	0.22010824
50	0x3ef4dec3	0.47826204
51	0x3e4c2227	0.19934903
52	0x3e90bfa4	0.2827121
53	0x3e7a9257	0.24469887
54	0x3eaa77cf	0.33294532
55	0x3e437440	0.19087315
56	0x3e8568ae	0.26056427
57	0x3eb7d6f5	0.35906187
58	0x3e90f7ec	0.2831415
59	0x3e851f99	0.2600067
60	0x3e76fb91	0.24119402
61	0x3eb40ecb	0.35167536
62	0x3eb0662a	0.34452945
63	0x3e7e38e8	0.24826396
64	0x3e392651	0.18081023
65	0x39d42d05	0.00040469333
66	0x3eec9738	0.4620912
67	0x3ea0e454	0.314242
68	0x3e959f73	0.29223213
69	0x3e9761f7	0.2956693
70	0x3e9eedab	0.310407
71	0x3ed4ed32	0.41587216
72	0x3e867c3c	0.26266658
73	0x3e69679c	0.2279343
74	0x3dc71777	0.097212724
75	0x3e9438a3	0.2894946
76	0x3e8fb092	0.280644
77	0x3f41ec98	0.7575164
78	0x3e7ce9e6	0.246986
79	0x3e9ad25f	0.30238625
80	0x3e40bff1	0.1882322
81	0x3e5ac22f	0.21363138
82	0x3ea9fe54	0.3320185
83	0x3ee4ea46	0.44709986
84	0x3eaa49d7	0.3325946
85	0x3eefdc8b	0.46847948
86	0x3eae2562	0.34012896
87	0x3e72c0c0	0.23706341
88	0x3eb09989	0.34492138
89	0x3ef6e1b8	0.48219085
90	0x3e5ac8d2	0.2136567
91	0x3eadf6f6	0.3397748
92	0x3eddb4e3	0.43302068
93	0x3f1df56d	0.61702615
94	0x3ea838d1	0.32855847
95	0x3eb2c7ef	0.34918162
96	0x3e38d62c	0.1805045
97	0x3e5ec492	0.21754673
98	0x3e75ff2d	0.24023123
99	0x3e97e967	0.2967026
100	0x3ed70374	0.41994822
101	0x3eca75ad	0.39542904
102	0x3ed9a8db	0.4251164
103	0x3eabf6b1	0.33586648
104	0x3efeb0e7	0.4974434
105	0x3e7381d3	0.23779993
106	0x3ea4eecb	0.32213435
107	0x3e5942ac	0.2121684
108	0x3e984207	0.29737875
109	0x3ea73a66	0.32661742
110	0x3e7a40ab	0.24438731
111	0x3e78fa9e	0.24314353
112	0x3ebfc076	0.37451524
113	0x3ed6d8f5	0.419624
114	0x3e91a2bd	0.28444472
115	0x3e3f611d	0.1868939
116	0x3e85ad42	0.26108748
117	0x3f092ada	0.5358101
118	0x3e873aa2	0.2641192
119	0x3ef71982	0.48261648
120	0x3f1dbf54	0.6162007
121	0x3e64f5ed	0.22359438
122	0x3e83063d	0.25590697
123	0x3e52f21d	0.20600171
124	0x3d7a548e	0.061115794
125	0x3e67483d	0.2258615
126	0x3ca2d734	0.019878007
127	0x3e6dc1ca	0.23218456

features.6.expand3x3.weight_fake_quant.scale f4 [128]
0	0x3b4073fa	0.0029366002
1	0x3aec0846	0.0018007837
2	0x3b3703fc	0.002792596
3	0x3ac0e584	0.0014716838
4	0x3ba7e10a	0.0051232623
5	0x3b0561f7	0.002035258
6	0x3afecf77	0.0019440491
7	0x3b3ad0eb	0.0028505872
8	0x3b807622	0.0039203325
9	0x3b098f6c	0.0020990027
10	0x3b16cf8e	0.0023011896
11	0x3aecf922	0.0018079618
12	0x3a9bcc6d	0.0011886485
13	0x3b096052	0.0020961952
14	0x3ab798c8	0.0014007324
15	0x3b1c43d0	0.002384413
16	0x3b5197e0	0.0031981394
17	0x3b0345de	0.0020030658
18	0x3a89e962	0.0010521824
19	0x3b492ba8	0.0030696187
20	0x3ae7917d	0.001766726
21	0x3b298755	0.0025868018
22	0x3abbde7b	0.0014333272
23	0x3acccfb2	0.0015625863
24	0x3b7fd4f5	0.0039036844
25	0x3ab9aceb	0.0014165913
26	0x3acac668	0.0015470507
27	0x3b1e21bb	0.0024128992
28	0x3acfe70b	0.0015861703
29	0x3b34a12d	0.0027561889
30	0x3a9d51b4	0.0012002499
31	0x3adb67b1	0.0016739276
32	0x3b1496a6	0.0022672801
33	0x3b37ce6a	0.0028046616
34	0x3ab57aee	0.001384584
35	0x3aa1ede9	0.0012354228
36	0x3b2ad954	0.002606948
37	0x3b302faa	0.0026883879
38	0x3a95aa46	0.0011418543
39	0x3ad3b5b0	0.001615217
40	0x3a90e4ea	0.001105455
41	0x3b406cb4	0.0029361667
42	0x3b73b6a0	0.003718771
43	0x3b0209da	0.0019842298
44	0x3abc417e	0.001436278
45	0x3afc4591	0.0019246807
46	0x3b3c3dcf	0.0028723364
47	0x3b0ed5d1	0.0021794925
48	0x3ae26df0	0.0017275196
49	0x3a92bba0	0.0011194833
50	0x3b12aebf	0.0022381989
51	0x3b50917f	0.0031825004
52	0x3b35fa6e	0.0027767676
53	0x3aec0e9d	0.0018009726
54	0x3aa93875	0.0012910502
55	0x3aee6a27	0.0018189595
56	0x3ab1b715	0.0013558591
57	0x3ab97d96	0.0014151807
58	0x3b2be662	0.0026229848
59	0x3b0f1e58	0.0021838155
60	0x3aa1e3eb	0.001235125
61	0x3b228dbd	0.002480372
62	0x3ab24bbc	0.0013602893
63	0x3ab0f502	0.0013500752
64	0x3abced98	0.001441407
65	0x3b5de327	0.0033857317
66	0x3b8a5bf7	0.004222389
67	0x3ad2066b	0.0016023641
68	0x3afaf17e	0.0019145457
69	0x3afe80fd	0.0019417104
70	0x3b005a7d	0.0019585185
71	0x3aa47f07	0.0012550064
72	0x3aca031b	0.0015412302
73	0x3ac24661	0.0014822
74	0x3a9c9474	0.0011946098
75	0x3ae98ce0	0.0017818473
76	0x3b1d93fc	0.0024044504
77	0x3b081df3	0.0020769804
78	0x3b180c28	0.0023200605
79	0x3b4c4331	0.003116798
80	0x3aeaec82	0.0017923268
81	0x3a890b3c	0.0010455619
82	0x3aacd558	0.001318614
83	0x3b05eca3	0.0020435236
84	0x3ad4297c	0.001618668
85	0x3acdf336	0.0015712741
86	0x3b01845c	0.001976273
87	0x3b4f48de	0.0031629126
88	0x3b36c883	0.002789051
89	0x3b0f682a	0.0021882155
90	0x3ae1499c	0.0017188075
91	0x3ac4fdb8	0.0015029227
92	0x3aeaa9b7	0.0017903362
93	0x3b3ecca9	0.0029113686
94	0x3ac71067	0.0015187383
95	0x3abfc308	0.0014630267
96	0x3b260624	0.002533325
97	0x3a8df3a3	0.0010830056
98	0x3b0b0970	0.0021215342
99	0x3acd46ad	0.0015661322
100	0x3b1d5760	0.0024008378
101	0x3af23060	0.0018477552
102	0x3ac279a5	0.0014837278
103	0x3a9b4670	0.0011846554
104	0x3aa91ee2	0.001290288
105	0x3ba8b58b	0.0051485947
106	0x3ad100f7	0.0015945722
107	0x3ac841fb	0.0015278453
108	0x3af68cc7	0.0018810265
109	0x3a7add90	0.00095697585
110	0x3a9c92aa	0.0011945565
111	0x3afa21e3	0.0019083585
112	0x3ad05ce3	0.0015896823
113	0x3b3cb4a1	0.0028794187
114	0x3ad98da7	0.0016598002
115	0x3ad8256b	0.0016490644
116	0x3aa9444f	0.0012914034
117	0x3ab08641	0.0013467745
118	0x3a9a7203	0.0011783246
119	0x3b1a4281	0.0023538175
120	0x3b3316a4	0.0027326727
121	0x3aa3c79d	0.0012495402
122	0x3b76537e	0.0037586386
123	0x3b06a51e	0.0020545195
124	0x3a93fccf	0.0011290553
125	0x3adfe1f1	0.0017080886
126	0x3b0e9b4b	0.0021760042
127	0x3b000466	0.0019533872

features.6.expand3x3.weight_fake_quant.activation_post_process.min_vals f4 [128]
0	0xbea56d3c	-0.32309902
1	0xbe5af1aa	-0.2138125
2	0xbe663684	-0.22481734
3	0xbe40249e	-0.18763968
4	0xbeb770a6	-0.3582813
5	0xbe03d190	-0.1287291
6	0xbe05b00c	-0.13055438
7	0xbeba161a	-0.36344987
8	0xbeffeb58	-0.4998424
9	0xbe410d6e	-0.1885278
10	0xbe5d24cc	-0.21596068
11	0xbe275980	-0.16342735
12	0xbe07fe68	-0.13280642
13	0xbe4936a6	-0.19649753
14	0xbe278abd	-0.16361518
15	0xbe9ba78c	-0.30401266
16	0xbed0c648	-0.40776277
17	0xbe71c692	-0.23610905
18	0xbdd30e09	-0.10305411
19	0xbe65d8d5	-0.22445996
20	0xbe4f8c4b	-0.20268361
21	0xbe89862c	-0.26860178
22	0xbe044631	-0.12917401
23	0xbe067306	-0.13129815
24	0xbedd129b	-0.43178257
25	0xbe1f4523	-0.15553717
26	0xbe08e177	-0.13367258
27	0xbe948479	-0.2900732
28	0xbe2c12f7	-0.1680411
29	0xbeb3ec8c	-0.35141408
30	0xbe1cb462	-0.15303186
31	0xbe427723	-0.1899076
32	0xbe94020f	-0.2890782
33	0xbeb7169c	-0.35759437
34	0xbe34c573	-0.17653446
35	0xbe1a3a5e	-0.15061328
36	0xbea284d7	-0.31741974
37	0xbe6f7245	-0.23383434
38	0xbe15149c	-0.14558643
39	0xbe181cc5	-0.14854725
40	0xbde9c258	-0.11414021
41	0xbea882ac	-0.32912195
42	0xbe0fa356	-0.14027151
43	0xbe2c7ce1	-0.16844513
44	0xbe3b853d	-0.18312545
45	0xbdc3e0ec	-0.09564385
46	0xbe9cc700	-0.30620575
47	0xbe735f6f	-0.23766874
48	0xbdeb9f79	-0.11505026
49	0xbdbaff1b	-0.09130689
50	0xbe157bcc	-0.14598006
51	0xbe963caf	-0.29343173
52	0xbeb5328b	-0.35390124
53	0xbe355425	-0.1770788
54	0xbe138edb	-0.14409964
55	0xbdfb40b9	-0.12268204
56	0xbe11a2d5	-0.14222272
57	0xbe0b87dd	-0.13626046
58	0xbeab3a7c	-0.33443058
59	0xbe804e6f	-0.2505984
60	0xbe0fa8ef	-0.14029287
61	0xbe9d43c8	-0.30715775
62	0xbe1cbc18	-0.15306127
63	0xbe25a16b	-0.16174857
64	0xbe3c30aa	-0.18377939
65	0xbebebdfb	-0.3725432
66	0xbf0825b6	-0.5318254
67	0xbe05cf10	-0.1306727
68	0xbe3d48a5	-0.18484743
69	0xbe7b162a	-0.24520174
70	0xbe286c85	-0.16447647
71	0xbe0e3527	-0.13887464
72	0xbe493918	-0.19650686
73	0xbe41841b	-0.1889805
74	0xbdfd40fd	-0.12365911
75	0xbe1d5769	-0.15365376
76	0xbe7e58ad	-0.24838515
77	0xbe8795d5	-0.264815
78	0xbe5b83b3	-0.21436958
79	0xbeb6cd16	-0.35703343
80	0xbe6a0195	-0.22852166
81	0xbe088231	-0.13330914
82	0xbe27f717	-0.16402851
83	0xbe6cb944	-0.23117548
84	0xbe535553	-0.20638017
85	0xbe4d2543	-0.20033745
86	0xbe3e8adc	-0.18607658
87	0xbece7995	-0.40327135
88	0xbeb611ba	-0.355604
89	0xbe0e038c	-0.1386854
90	0xbe4ea2ce	-0.20179293
91	0xbe375883	-0.17904858
92	0xbe223cc5	-0.15843494
93	0xbebe0ddc	-0.3711995
94	0xbe352f43	-0.1769381
95	0xbe3f0345	-0.18653591
96	0xbe9bae16	-0.30406255
97	0xbe0d65af	-0.1380832
98	0xbe8a7e67	-0.27049562
99	0xbe4a72e9	-0.19770397
100	0xbe9cba09	-0.30610684
101	0xbe126bd3	-0.14298944
102	0xbe41b72b	-0.1891753
103	0xbe1aab2a	-0.15104356
104	0xbe2875c3	-0.16451173
105	0xbf0fa025	-0.56103736
106	0xbe3f85ec	-0.18703431
107	0xbe06c187	-0.13159762
108	0xbe2ab0ff	-0.16669081
109	0xbdb1de21	-0.08684946
110	0xbe0a5394	-0.13508445
111	0xbe14ce3b	-0.14531796
112	0xbe4f8c86	-0.20268449
113	0xbe6b234d	-0.22962685
114	0xbe58b419	-0.21162452
115	0xbe2700e8	-0.1630894
116	0xbe0e3233	-0.13886337
117	0xbe255593	-0.16145925
118	0xbe1106c2	-0.14162734
119	0xbe99a83e	-0.3001117
120	0xbe07d6f8	-0.13265598
121	0xbe04061b	-0.12892954
122	0xbe3fd421	-0.18733265
123	0xbe2ef166	-0.17084274
124	0xbe1368d2	-0.14395455
125	0xbe5f020f	-0.21778129
126	0xbe8e0cb0	-0.27744055
127	0xbe1ff058	-0.15619028

features.6.expand3x3.weight_fake_quant.activation_post_process.max_vals f4 [128]
0	0x3ebfb386	0.37441653
1	0x3e6b1c3e	0.22959992
2	0x3eb64cf8	0.35605597
3	0x3e1dd07b	0.1541156
4	0x3f273929	0.65321594
5	0x3e84dc95	0.2594954
6	0x3e7dd0a8	0.24786627
7	0x3e601ffe	0.21887204
8	0x3ee34c61	0.4439421
9	0x3e8905dd	0.26762286
10	0x3e9638be	0.29340166
11	0x3e6c0c29	0.23051514
12	0x3e1b30a1	0.15155269
13	0x3e88d6f2	0.2672649
14	0x3e36e12f	0.17859338
15	0x3e459fac	0.19299191
16	0x3ec5dc37	0.38644573
17	0x3e82c298	0.25539088
18	0x3e095f79	0.13415326
19	0x3ec8627c	0.39137638
20	0x3e66a9ec	0.22525758
21	0x3ea8ddce	0.32981724
22	0x3e3b229d	0.18274923
23	0x3e4c02e2	0.19922975
24	0x3efed520	0.49771976
25	0x3e38f33e	0.1806154
26	0x3e49fba2	0.19724897
27	0x3e9d8399	0.30764464
28	0x3e4f1724	0.20223671
29	0x3ea00dd7	0.3126056
30	0x3e103ae6	0.14084968
31	0x3e5a8c49	0.21342577
32	0x3e5e142b	0.21687381
33	0x3e73870b	0.23781984
34	0x3e063e77	0.13109766
35	0x3e214bfb	0.1575164
36	0x3eaa2e7b	0.33238587
37	0x3eaf7f7a	0.34276944
38	0x3e0851bd	0.1331243
39	0x3e52e1fa	0.20594016
40	0x3e105405	0.14094551
41	0x3ebfac47	0.37436125
42	0x3ef2c2e9	0.4741433
43	0x3e8187d0	0.2529893
44	0x3e262ebf	0.1622877
45	0x3e7b494b	0.24539678
46	0x3ebb8191	0.3662229
47	0x3e8e46fb	0.2778853
48	0x3e618b82	0.22025874
49	0x3e1228e4	0.14273411
50	0x3e921c10	0.28537035
51	0x3ecfc0ee	0.4057688
52	0x3eb54474	0.35403788
53	0x3e6b228e	0.229624
54	0x3e288f3d	0.16460891
55	0x3e6d7bbd	0.23191734
56	0x3e31055e	0.17287204
57	0x3e38c418	0.18043554
58	0x3e18a8db	0.14908163
59	0x3e8e8f3a	0.27843648
60	0x3e214207	0.15747844
61	0x3ea1eb2f	0.31624743
62	0x3e319970	0.17343688
63	0x3e30440d	0.1721346
64	0x3e242467	0.16029511
65	0x3edd0544	0.4316808
66	0x3f09d19b	0.5383546
67	0x3e513465	0.20430143
68	0x3e79f68d	0.24410458
69	0x3e7d827c	0.24756807
70	0x3e7fb445	0.24971111
71	0x3e23da88	0.16001332
72	0x3e3aec17	0.18254124
73	0x3e24271a	0.16030541
74	0x3e1bf7e0	0.15231276
75	0x3e68a353	0.22718553
76	0x3e9cf668	0.30656743
77	0x3e2219bc	0.1583013
78	0x3e97741c	0.29580772
79	0x3ecb76ee	0.39739174
80	0x3e417f11	0.18896128
81	0x3dcb7a8a	0.09935482
82	0x3e2c2883	0.16812329
83	0x3e8566b6	0.26054925
84	0x3e4349b4	0.19071084
85	0x3e290f2a	0.16509691
86	0x3e8102d8	0.25197482
87	0x3ebc2bd7	0.36752197
88	0x3e8a1057	0.2696559
89	0x3e8ed8c2	0.27899748
90	0x3e606852	0.21914795
91	0x3e4438ba	0.19162264
92	0x3e69bf0d	0.22826786
93	0x3eb23388	0.3480494
94	0x3e464957	0.19363914
95	0x3e0e6080	0.13904
96	0x3ea5601e	0.32299894
97	0x3e08a72a	0.13345018
98	0x3e6626aa	0.22475687
99	0x3e4c7966	0.19968185
100	0x3e1bbe19	0.15209235
101	0x3e713e30	0.23558879
102	0x3e2390c6	0.15973195
103	0x3e0c9262	0.13727716
104	0x3e1fe503	0.15614705
105	0x3f280cd5	0.6564458
106	0x3e502ff6	0.20330796
107	0x3e4779b9	0.19480027
108	0x3e75963a	0.23983088
109	0x3df9e2b2	0.12201442
110	0x3e1bf617	0.15230595
111	0x3e7927c1	0.24331571
112	0x3e4a4b51	0.19755293
113	0x3ebbf7ec	0.36712587
114	0x3e47611d	0.1947064
115	0x3e574d46	0.21025571
116	0x3e289b0b	0.16465394
117	0x3e2fd5bb	0.17171375
118	0x3e19d791	0.15023638
119	0x3e40a6a6	0.18813571
120	0x3eb2638d	0.34841576
121	0x3e2323d5	0.15931638
122	0x3ef55d2b	0.47922644
123	0x3e861e79	0.26195124
124	0x3e07c7c7	0.13259803
125	0x3e1e3259	0.15448894
126	0x3e85253c	0.2600497
127	0x3e7f08c4	0.24905688
