linearcode/quants/vgg19.pth (torch, 382553 bytes, 57 tensors)

features.0.weight_fake_quant.scale f4 [64]
0.0017808011 0.0046094484 0.0029593834 0.0037011318 0.0025620076 0.0026178206 0.0056441627 0.0025529591
0.004039154 0.0016406727 0.003875627 0.0067302375 0.004535676 0.004156947 0.002456801 0.0048239967
0.0064580296 0.003343477 0.0045938664 0.005588951 0.007185365 0.008009873 0.0034498859 0.0027501218
0.0033514486 0.002906479 0.0032742391 0.0048768176 0.006734702 0.008934936 0.008450856 0.0053864717
0.0077873287 0.0070929755 0.005574858 0.0057483283 0.006066727 0.004031969 0.00731608 0.0039450144
0.0030601905 0.005025584 0.0021661997 0.003382101 0.0028706985 0.001990056 0.0027505823 0.0017851844
0.0022127333 0.0018000294 0.0040094787 0.0077161933 0.0019985829 0.0019492686 0.002680177 0.007428462
0.001697014 0.0023896398 0.005358828 0.0030730388 0.0022079502 0.0022580565 0.0039247703 0.0075285197
00000000: c569 e93a db0a 973b 37f2 413b b08e 723b
00000010: 5be7 273b be8f 2b3b abf2 b83b 8c4f 273b
00000020: e15a 843b d70b d73a 3bfe 7d3b 5389 dc3b
00000030: 02a0 943b 0037 883b 4802 213b 9e12 9e3b
00000040: e19d d33b 3c1e 5b3b 2588 963b 8523 b73b
00000050: 3673 eb3b d83b 033c 7b17 623b 633b 343b
00000060: faa3 5b3b a07a 3e3b 9e94 563b b6cd 9f3b
00000070: c6ae dc3b d663 123c 7675 0a3c 0081 b03b
00000080: d92c ff3b 316c e83b 4cad b63b 795c bc3b
00000090: 65cb c63b 9b1e 843b babb ef3b 2e45 813b
000000a0: 7a8d 483b a7ad a43b cdf6 0d3b 3da6 5d3b
000000b0: 5422 3c3b 996b 023b 1d43 343b d9fc e93a
000000c0: 8103 113b f7ee eb3a f261 833b 1fd8 fc3b
000000d0: a8fa 023b 9a7e ff3a e9a5 2f3b 756a f33b
000000e0: 576e de3a 819b 1c3b 1c99 af3b 0965 493b
000000f0: 42b3 103b e7fb 133b 5c9b 803b cdb1 f63b

features.0.weight_fake_quant.activation_post_process.min_vals f4 [64]
-0.06794177 -0.50151926 -0.14334984 -0.4344606 -0.32500544 -0.33377212 -0.7196307 -0.32550228
-0.5149921 -0.20918576 -0.3611915 -0.8581053 -0.5782987 -0.49409047 -0.17876056 -0.61505955
-0.82339877 -0.4262933 -0.585718 -0.48506036 -0.7298127 -0.56502146 -0.43986046 -0.35064054
-0.28285575 -0.37057605 -0.41746548 -0.6217942 -0.85867447 -0.6660741 -0.98657227 -0.5299143
-0.52982605 -0.6504223 -0.28735384 -0.7329119 -0.62629503 -0.36241424 -0.9328002 -0.50298935
-0.35524708 -0.6307301 -0.27619046 -0.43121788 -0.31635967 -0.25373212 -0.17606868 -0.21646556
-0.19805908 -0.22950375 -0.45072824 -0.98381466 -0.2548193 -0.23946437 -0.34172258 -0.94712895
-0.16915214 -0.30467907 -0.54243195 -0.3334908 -0.20838684 -0.2632855 -0.50040823 -0.81056273
00000000: 0e25 8bbd 9163 00bf 4dca 12be 9f71 debe
00000010: 1d67 a6be 2ee4 aabe b839 38bf 3ca8 a6be
00000020: 86d6 03bf cb34 56be 18ee b8be caac 5bbf
00000030: 620b 14bf 6df9 fcbe 020d 37be 8b74 1dbf
00000040: 43ca 52bf 1e43 dabe 9df1 15bf d559 f8be
00000050: 01d5 3abf 3fa5 10bf 6435 e1be 2887 b3be
00000060: 78d2 90be 25bc bdbe 09be d5be e82d 1fbf
00000070: 17d2 5bbf d583 2abf 0090 7cbf 77a8 07bf
00000080: aea2 07bf 1382 26bf 0b20 93be 1da0 3bbf
00000090: df54 20bf 5c8e b9be fecb 6ebf e9c3 00bf
000000a0: f2e2 b5be 8777 21bf d668 8dbe 97c8 dcbe
000000b0: e5f9 a1be 2de9 81be 594b 34be 26a9 5dbe
000000c0: 00d0 4abe 0803 6bbe dac5 e6be 47db 7bbf
000000d0: ad77 82be 2636 75be 43f6 aebe 0b77 72bf
000000e0: 3836 2dbe e5fe 9bbe d2dc 0abf 4ebf aabe
000000f0: 5c63 55be 5bcd 86be c11a 00bf 0a81 4fbf

features.0.weight_fake_quant.activation_post_process.max_vals f4 [64]
0.22705214 0.58770466 0.3773214 0.4718943 0.32665598 0.24823077 0.6367849 0.27406788
0.41310003 0.1793923 0.49414244 0.8543836 0.5062208 0.53001076 0.31324214 0.56120116
0.76549655 0.29094747 0.53584737 0.71259123 0.91613406 1.0212588 0.33817074 0.16615741
0.4273097 0.16378173 0.27852285 0.38013062 0.54436904 1.1392043 1.0774843 0.68677515
0.9928844 0.9043544 0.7107944 0.5485222 0.7735077 0.514076 0.64054227 0.46423298
0.3901743 0.6407619 0.18391952 0.2378695 0.36601406 0.14222158 0.35069925 0.227611
0.28212348 0.18403162 0.51120853 0.32162544 0.2185735 0.24853174 0.33832648 0.33126706
0.21636929 0.24318105 0.6832506 0.39181244 0.28151366 0.2879022 0.38770288 0.95988625
00000000: 5b80 683e d073 163f 4530 c13e 219c f13e
00000010: 743f a73e 3530 7e3e 5604 233f a052 8c3e
00000020: d981 d33e 9db2 373e 3d00 fd3e e2b8 5a3f
00000030: b097 013f c9ae 073f 4661 a03e e1aa 0f3f
00000040: 95f7 433f 11f7 943e 4b2d 093f 616c 363f
00000050: c387 6a3f 9cb8 823f b724 ad3e 2b25 2a3e
00000060: 56c8 da3e 66b6 273e 8c9a 8e3e 7ba0 c23e
00000070: c55b 0b3f 72d1 913f 01eb 893f 7fd0 2f3f
00000080: ac2d 7e3f c583 673f 9ff6 353f f36b 0c3f
00000090: 9a04 463f 7c9a 033f 94fa 233f f2af ed3e
000000a0: edc4 c73e f908 243f 6655 3c3e 1094 733e
000000b0: 3266 bb3e 89a2 113e da8e b33e dc12 693e
000000c0: 7d72 903e c972 3c3e 90de 023f 17ac a43e
000000d0: bbd1 5f3e 1b7f 7e3e 2139 ad3e d69b a93e
000000e0: e98f 5d3e 7404 793e 83e9 2e3f a49b c83e
000000f0: 8f22 903e eb67 933e fe80 c63e 1bbb 753f

features.2.weight_fake_quant.scale f4 [64]
0.0013527889 0.0007808194 0.0020448247 0.0013536594 0.0012550469 0.0024771164 0.0023457254 0.0008660313
0.0013365352 0.0030085943 0.003325713 0.0018257608 0.0014070806 0.0015619213 0.001605005 0.0009903875
0.0021300663 0.001455607 0.0019318236 0.0015102419 0.002385195 0.00401615 0.002214063 0.002075931
0.0011004215 0.0016210913 0.0024192112 0.0013389441 0.0033150862 0.00133606 0.000893959 0.0019245677
0.0012989285 0.0010538904 0.0020542052 0.0019371434 0.001597651 0.0021316493 0.00087622803 0.0023037668
0.0039053597 0.0018730814 0.0012950839 0.0010049385 0.0014189034 0.001959325 0.0013612442 0.0016763494
0.0018354418 0.001708843 0.0014782994 0.0011182501 0.0027080576 0.0012804386 0.0020845174 0.0015977758
0.002042894 0.0038700271 0.0012597912 0.0012724451 0.0010352691 0.0032670079 0.00096042576 0.0021117732
00000000: 1050 b13a e7af 4c3a 7702 063b 466d b13a
00000010: 6380 a43a 1e57 223b beba 193b 6006 633a
00000020: ae2e af3a d62b 453b 35f4 593b 5e4e ef3a
00000030: ca6d b83a 62b9 cc3a 085f d23a e4cf 813a
00000040: 9598 0b3b 11ca be3a 3e35 fd3a 4ff3 c53a
00000050: ef50 1c3b e899 833b d019 113b 580c 083b
00000060: 053c 903a cc7a d43a a18b 1e3b 827f af3a
00000070: eb41 593b bc1e af3a 9358 6a3a c741 fc3a
00000080: cf40 aa3a b222 8a3a d89f 063b bfe7 fd3a
00000090: 4668 d13a 24b3 0b3b abb2 653a cbfa 163b
000000a0: 10f1 7f3b 2f82 f53a cebf a93a 24b8 833a
000000b0: 7ffa b93a 0568 003b c76b b23a f4b8 db3a
000000c0: 3593 f03a 42fb df3a 7fc3 c13a 3f92 923a
000000d0: ab79 313b 64d4 a73a 669c 083b 766c d13a
000000e0: 13e2 053b 48a0 7d3b 941f a53a 2cc8 a63a
000000f0: deb1 873a 4c1b 563b 15c5 7b3a ad65 0a3b

features.2.weight_fake_quant.activation_post_process.min_vals f4 [64]
-0.17159203 -0.0632516 -0.17879991 -0.15861651 -0.16001849 -0.18947262 -0.29907998 -0.044023626
-0.17040823 -0.38359576 -0.42402843 -0.20313053 -0.16910265 -0.12560807 -0.19631203 -0.1262744
-0.26848763 -0.09169487 -0.2463075 -0.14382826 -0.30411237 -0.5120591 -0.24653512 -0.14234649
-0.11839048 -0.20668913 -0.30844942 -0.17071536 -0.4226735 -0.17034765 -0.107376866 -0.24538238
-0.15044531 -0.08748985 -0.26191115 -0.24698578 -0.20370051 -0.2717853 -0.11171907 -0.16449653
-0.49793336 -0.23881789 -0.121255144 -0.116035044 -0.16457021 -0.24981393 -0.17355864 -0.21373455
-0.23401883 -0.19854568 -0.18848318 -0.14129578 -0.31028962 -0.16325593 -0.25140014 -0.20371643
-0.19143783 -0.49342847 -0.107762665 -0.14673744 -0.13199681 -0.35490215 -0.11697041 -0.26925108
00000000: d2b5 2fbe 0e8a 81bd 5317 37be 5e6c 22be
00000010: e3db 23be 1c05 42be 0321 99be 1e52 34bd
00000020: 7f7f 2ebe aa66 c4be 411a d9be 7301 50be
00000030: 3f29 2dbe 679f 00be 0506 49be 144e 01be
00000040: 3677 89be 85ca bbbd 0938 7cbe b747 13be
00000050: 9eb4 9bbe 4e16 03bf b473 7cbe 47c3 11be
00000060: b576 f2bd 51a6 53be 15ed 9dbe 02d0 2ebe
00000070: a968 d8be 9d6f 2ebe 67e8 dbbd 8545 7bbe
00000080: 560e 1abe e12d b3bd 3819 86be d7e9 7cbe
00000090: de96 50be 7127 8bbe f8cc e4bd c771 28be
000000a0: 1ff1 febe ad8c 74be 9e54 f8bd c8a3 edbd
000000b0: 1885 28be 39cf 7fbe 5bb9 31be 3bdd 5abe
000000c0: a2a2 6fbe 8f4f 4bbe bc01 41be d7af 10be
000000d0: 48de 9ebe 902c 27be 85b7 80be 0a9b 50be
000000e0: 4708 44be a8a2 fcbe acb2 dcbd 5742 16be
000000f0: 2c2a 07be bcb5 b5be 2f8e efbd 47db 89be

features.2.weight_fake_quant.activation_post_process.max_vals f4 [64]
0.17248058 0.09955447 0.26071516 0.17259158 0.15355241 0.31583235 0.28263152 0.11041899
0.14779209 0.36738324 0.31003734 0.23278451 0.17940277 0.19914497 0.20463814 0.1230424
0.27158344 0.1855899 0.24069756 0.19255584 0.19558495 0.4699512 0.28229302 0.26468122
0.14030375 0.20626687 0.20138393 0.16491738 0.379846 0.13625647 0.11397977 0.23123343
0.16561338 0.13437103 0.20351759 0.16318117 0.17114301 0.16258983 0.10567847 0.29373026
0.42303988 0.23048286 0.1651232 0.12812966 0.18091018 0.16332257 0.16388509 0.1560895
0.18979666 0.21787749 0.1449321 0.14257689 0.34527734 0.13658288 0.26577598 0.17154227
0.260469 0.30250248 0.16062337 0.16223675 0.11931486 0.4165435 0.122454286 0.19347928
00000000: c09e 303e 37e3 cb3d 757c 853e d9bb 303e
00000010: d83c 1d3e c7b4 a13e 14b5 903e 5a23 e23d
00000020: cf56 173e a819 bc3e 37bd 9e3e 105f 6e3e
00000030: 5cb5 373e a9ec 4b3e a98c 513e a7fd fb3d
00000040: fc0c 8b3e 470b 3e3e 6c79 763e 5c2d 453e
00000050: 6c47 483e 729d f03e b688 903e 4c84 873e
00000060: c9ab 0f3e 9f37 533e 9737 4e3e 1ae0 283e
00000070: 2d7b c23e d186 0b3e 3a6e e93d 75c8 6c3e
00000080: 8e96 293e 8f98 093e ea66 503e f718 273e
00000090: 1d40 2f3e f37d 263e f46d d83d d063 963e
000000a0: af98 d83e b303 6c3e 0e16 293e 6c34 033e
000000b0: 8540 393e 083e 273e 7ed1 273e edd5 1f3e
000000c0: 0e5a 423e 471b 5f3e 1569 143e adff 113e
000000d0: 31c8 b03e 62dc 0b3e ca13 883e c7a8 2f3e
000000e0: 315c 853e 9be1 9a3e 747a 243e 6421 263e
000000f0: 595b f43d 3145 d53e 50c9 fa3d 6f1f 463e

features.5.weight_fake_quant.scale f4 [128]
0.0022086499 0.0011129768 0.0019655752 0.0015758974 0.0009002393 0.0018323784 0.002119073 0.0029288987
0.0020500408 0.0019229996 0.0013664318 0.001593104 0.0014370752 0.0022785808 0.001861354 0.001312184
0.0014318706 0.0037290966 0.0020619952 0.0021630342 0.0022115363 0.0022102252 0.0026046315 0.0016070366
0.0012656379 0.0018700067 0.0017478631 0.0011048864 0.0016435722 0.0016925185 0.0008185981 0.0020133476
0.0010691936 0.0014774175 0.0019948133 0.0023325568 0.0019883218 0.0015738753 0.0023270948 0.0017225172
0.0008506553 0.0037643474 0.0018333908 0.0014046064 0.0011219858 0.0021808103 0.0010986227 0.0015839866
0.002886697 0.0009783839 0.0017372086 0.0016252536 0.001408005 0.0016998677 0.002314538 0.0014935563
0.0016970914 0.002492921 0.0011406891 0.0017073011 0.0019440602 0.0018394585 0.0011801306 0.0017611209
0.003635296 0.0033975267 0.001148965 0.0013645542 0.0021530946 0.001127115 0.001630547 0.0031709205
0.0014658947 0.00046977992 0.0014550883 0.00437111 0.002804067 0.0013450286 0.0021222231 0.0023078169
0.0018069355 0.00066344877 0.0009909855 0.0013554037 0.0014543933 0.0017799933 0.0015232903 0.0014768918
0.0014150459 0.0018157642 0.0012205918 0.00078880595 0.0016440604 0.0017754068 0.0013076853 0.0027588506
0.0015958026 0.0016278152 0.0016305498 0.0015939069 0.0016640561 0.0015627296 0.0012631081 0.001597243
0.0016143188 0.0014779804 0.0013091161 0.001730873 0.0015786691 0.003036974 0.0015602408 0.0014318482
0.0017073135 0.0013687162 0.0018679909 0.0028444147 0.0011670009 0.0014539964 0.0012527936 0.002525465
0.0013976704 0.002462801 0.002208998 0.002045518 0.0012951455 0.0026983456 0.0021179072 0.0011307767
00000000: ffbe 103b 4ee1 913a e1d0 003b 588e ce3a
00000010: 09fe 6b3a 6b2c f03a 25e0 0a3b c4f2 3f3b
00000020: fa59 063b 290d fc3a d819 b33a b3cf d03a
00000030: 3e5c bc3a 3e54 153b adf8 f33a 97fd ab3a
00000040: 9bad bb3a dc63 743b 8a22 073b b1c1 0d3b
00000050: 6cef 103b 6dd9 103b 77b2 2a3b 33a3 d23a
00000060: c3e3 a53a 031b f53a 8e18 e53a d6d1 903a
00000070: 226d d73a 7fd7 dd3a 3097 563a 5ef2 033b
00000080: 2f24 8c3a e8a5 c13a 6abb 023b cfdd 183b
00000090: 814e 023b 7e4a ce3a 2c82 183b 16c6 e13a
000000a0: 83fe 5e3a 45b3 763b 634e f03a c51a b83a
000000b0: 990f 933a edeb 0e3b a9ff 8f3a c59d cf3a
000000c0: bd2e 3d3b 1e3d 803a 0cb3 e33a 7606 d53a
000000d0: cf8c b83a 18ce de3a 81af 173b 6fc3 c33a
000000e0: f070 de3a 4660 233b 2d83 953a 85c7 df3a
000000f0: d6cf fe3a fc19 f13a 9dae 9a3a 69d5 e63a
00000100: 253e 6e3b 0aa9 5e3b de98 963a d7da b23a
00000110: ef1a 0d3b b4bb 933a 14b8 d53a 38cf 4f3b
00000120: 4423 c03a cb4c f639 a9b8 be3a 873b 8f3b
00000130: 70c4 373b ac4b b03a ff14 0b3b be3e 173b
00000140: b2d6 ec3a 4beb 2d3a f5e3 813a cda7 b13a
00000150: 57a1 be3a aa4e e93a 24a9 c73a 4494 c13a
00000160: 1079 b93a f0fe ed3a 44fc 9f3a dfc7 4e3a
00000170: 837d d73a c4b4 e83a a366 ab3a d5cd 343b
00000180: 402a d13a 6a5c d53a 2cb8 d53a a4ea d03a
00000190: 751c da3a 81d4 cc3a e08e a53a 955a d13a
000001a0: 8d97 d33a cbb8 c13a a696 ab3a 76de e23a
000001b0: 58eb ce3a f807 473b fe80 cc3a daac bb3a
000001c0: efc7 df3a 7f66 b33a 60d7 f43a 5c69 3a3b
000001d0: 0df6 983a 0694 be3a c734 a43a 4682 253b
000001e0: 0932 b73a f266 213b d6c4 103b 190e 063b
000001f0: dfc1 a93a bad6 303b 96cc 0a3b 9236 943a

features.5.weight_fake_quant.activation_post_process.min_vals f4 [128]
-0.28160286 -0.14190455 -0.16147362 -0.136197 -0.10613257 -0.23362826 -0.2701818 -0.26776773
-0.20463343 -0.22534747 -0.17422006 -0.15527624 -0.18322709 -0.29051906 -0.21619877 -0.16730346
-0.1825635 -0.34485108 -0.26290438 -0.16885032 -0.2819709 -0.27222976 -0.22131778 -0.16831352
-0.14710225 -0.13912337 -0.17330545 -0.14081325 -0.19625981 -0.19969419 -0.10437126 -0.25670183
-0.13081898 -0.17787302 -0.2543387 -0.29740098 -0.20081046 -0.12178687 -0.18534319 -0.21962094
-0.10845855 -0.4799543 -0.23375733 -0.17908731 -0.14305319 -0.2780533 -0.12845816 -0.20195828
-0.36805385 -0.12474395 -0.2214941 -0.20542891 -0.17952064 -0.21673313 -0.17159396 -0.120736346
-0.18590131 -0.21266752 -0.14543787 -0.21768089 -0.24786767 -0.18616006 -0.09911014 -0.22454292
-0.44036132 -0.43318465 -0.14649303 -0.17398065 -0.27451956 -0.12627126 -0.18888071 -0.40429237
-0.09933542 -0.05333564 -0.18276206 -0.5573165 -0.35751855 -0.17149115 -0.13143964 -0.14502603
-0.23038428 -0.08458972 -0.09300489 -0.17281397 -0.18335973 -0.22694914 -0.19421951 -0.15890494
-0.18041836 -0.23150994 -0.15562546 -0.04750492 -0.17376743 -0.22636436 -0.14567457 -0.2866157
-0.20346484 -0.20754644 -0.16091429 -0.1441186 -0.13815594 -0.11249613 -0.14041024 -0.15419519
-0.16871113 -0.18561926 -0.1669123 -0.18384102 -0.13329023 -0.23436087 -0.1989307 -0.08357945
-0.21768247 -0.17451133 -0.17320855 -0.36266288 -0.14879261 -0.18372287 -0.12471275 -0.2603216
-0.17820297 -0.31400713 -0.28164724 -0.1482412 -0.12093986 -0.298641 -0.27003315 -0.14417402
00000000: 402e 90be 6d4f 11be 5759 25be 3a77 0bbe
00000010: 085c d9bd 3f3c 6fbe 4555 8abe da18 89be
00000020: 6d8b 51be 7dc1 66be be66 32be bc00 1fbe
00000030: e29f 3bbe eabe 94be 3663 5dbe 9951 2bbe
00000040: edf1 3abe 5290 b0be 679b 86be 19e7 2cbe
00000050: 7d5e 90be b361 8bbe 21a1 62be 615a 2cbe
00000060: f9a1 16be 5b76 0ebe fc76 31be 5931 10be
00000070: 55f8 48be a27c 4cbe 99c0 d5bd 6c6e 83be
00000080: 69f5 05be 5824 36be af38 82be f144 98be
00000090: 42a1 4dbe 656b f9bd 9bca 3dbe 50e4 60be
000000a0: 841f debd 92bc f5be 155e 6fbe aa62 37be
000000b0: 897c 12be 015d 8ebe 898a 03be 27ce 4ebe
000000c0: 8e71 bcbe c279 ffbd 59cf 62be f55b 52be
000000d0: 42d4 37be 4aef 5dbe 54b6 2fbe 9e44 f7bd
000000e0: ea5c 3ebe 84c5 59be aaed 14be bde7 5ebe
000000f0: 06d1 7dbe bea0 3ebe 42fa cabd 94ee 65be
00000100: 0a77 e1be 61ca ddbe 4502 16be fc27 32be
00000110: d48d 8cbe 414d 01be f269 41be 69ff cebe
00000120: 5e70 cbbd 7976 5abd fa25 3bbe 4bac 0ebf
00000130: ac0c b7be 609b 2fbe 1d98 06be b481 14be
00000140: dbe9 6bbe 603d adbd 5979 bebd 25f6 30be
00000150: a7c2 3bbe 5b65 68be 7be1 46be fab7 22be
00000160: 97bf 38be f110 6dbe 485c 1fbe 8594 42bd
00000170: 17f0 31be 0fcc 67be b72b 15be 4bbf 92be
00000180: 1659 50be 0e87 54be b7c6 24be d493 13be
00000190: c078 0dbe 5f64 e6bd b4c7 0fbe 58e5 1dbe
000001a0: 9cc2 2cbe fa12 3ebe 0feb 2abe d240 3cbe
000001b0: 3c7d 08be 4cfc 6fbe 7db4 4bbe b42b abbd
000001c0: 27e8 5ebe 19b3 32be 955d 31be f3ae b9be
000001d0: 175d 18be d921 3cbe 6669 ffbd df48 85be
000001e0: d77a 36be 8bc5 a0be 1134 90be 8bcc 17be
000001f0: 51af f7bd 79e7 98be c941 8abe 5ba2 13be

features.5.weight_fake_quant.activation_post_process.max_vals f4 [128]
0.23382124 0.12473606 0.25061083 0.20092693 0.11478051 0.22239073 0.21009581 0.37343457
0.2613802 0.24518245 0.15617265 0.20312075 0.13563207 0.18633366 0.23732263 0.1554214
0.17944735 0.4754598 0.24500628 0.27578685 0.13695858 0.28180373 0.33209053 0.20489717
0.16136883 0.23842585 0.22285254 0.14087301 0.20955546 0.21579611 0.10141854 0.17989786
0.13632219 0.18837073 0.23608942 0.15496974 0.253511 0.20066911 0.2967046 0.20484054
0.10256316 0.443715 0.19055577 0.11485384 0.118932165 0.19051626 0.14007439 0.1766907
0.26642781 0.12193574 0.17126644 0.20721984 0.1214523 0.21638787 0.29510358 0.19042844
0.21637915 0.31784743 0.1371878 0.16876262 0.16061181 0.23453096 0.15046665 0.21363577
0.46350023 0.3691489 0.14285669 0.11629116 0.20166738 0.14370716 0.20789474 0.31021768
0.18690158 0.05989694 0.18552375 0.5423707 0.17662793 0.13528527 0.27058345 0.29424664
0.19654094 0.079459526 0.12635066 0.1598338 0.18543515 0.21580507 0.12576139 0.18830371
0.10729167 0.18528166 0.1236662 0.10057276 0.20961769 0.17687893 0.16672987 0.35175344
0.17149769 0.15959455 0.2078951 0.20322312 0.21216716 0.19924802 0.16104628 0.20364848
0.20582564 0.1884425 0.12748036 0.22068632 0.20128031 0.38721418 0.13267452 0.18256064
0.19475922 0.13669884 0.23816885 0.353277 0.1358478 0.18538454 0.15973118 0.3219968
0.14566222 0.2910894 0.2784407 0.26080355 0.16513105 0.34403905 0.18765712 0.13142696
00000000: d66e 6f3e 9f75 ff3d 1050 803e cabf 4d3e
00000010: 0b12 eb3d 65ba 633e 5b23 573e d132 bf3e
00000020: a0d3 853e 1c11 7b3e b9eb 1f3e e3fe 4f3e
00000030: 22e3 0a3e 40ce 3e3e b404 733e ca26 1f3e
00000040: 0cc1 373e 786f f33e ede2 7a3e ef33 8d3e
00000050: df3e 0c3e 9448 903e c507 aa3e 90d0 513e
00000060: df3d 253e e825 743e 7533 643e 0441 103e
00000070: b595 563e a8f9 5c3e 86b4 cf3d 2537 383e
00000080: 0b98 0b3e 42e4 403e 6dc1 713e 63b0 1e3e
00000090: 32cc 813e 347c 4d3e aae9 973e b8c1 513e
000000a0: a20c d23d 9d2e e33e 0d21 433e 7d38 eb3d
000000b0: b592 f33d b216 433e a96f 0f3e 68ee 343e
000000c0: 3a69 883e 72b9 f93d 7860 2f3e 7031 543e
000000d0: fcbb f83d c894 5d3e d117 973e acff 423e
000000e0: 7f92 5d3e e6bc a23e f57a 0c3e 1cd0 2c3e
000000f0: 6c77 243e e228 703e ee13 1a3e 56c3 5a3e
00000100: e74f ed3e 1601 bd3e 0649 123e 0f2a ee3d
00000110: e581 4e3e f827 133e 5ce2 543e dad4 9e3e
00000120: 2163 3f3e 7e56 753d f0f9 3d3e ced8 0a3f
00000130: f4dd 343e 3988 0a3e ea89 8a3e 7fa7 963e
00000140: 0742 493e adbb a23d 1162 013e 79ab 233e
00000150: b6e2 3d3e 01fc 5c3e 98c7 003e b0d2 403e
00000160: bcbb db3d 7aba 3d3e b444 fd3d 17f9 cd3d
00000170: 05a6 563e c01f 353e 3cbb 2a3e 0719 b43e
00000180: 179d 2f3e c16c 233e 74e2 543e b919 503e
00000190: 5942 593e ac07 4c3e 51e9 243e 3a89 503e
000001a0: f5c3 523e 12f7 403e 368a 023e 98fb 613e
000001b0: 6d1c 4e3e f040 c63e d4db 073e 2df1 3a3e
000001c0: f66e 473e c8fa 0b3e 89e2 733e b9e0 b43e
000001d0: b01b 0b3e 72d5 3d3e 9290 233e c4dc a43e
000001e0: 7a28 153e ab09 953e c88f 8e3e 0b88 853e
000001f0: 1d18 293e e325 b03e 3029 403e ca94 063e

features.7.weight_fake_quant.scale f4 [128]
0.0043051927 0.0011936752 0.0013775912 0.0018473053 0.0014050545 0.0018868556 0.001789254 0.0012733983
0.0016104018 0.0013968574 0.0017781417 0.0015220946 0.0012904373 0.0025293499 0.001191134 0.0009780432
0.0023213392 0.0011681711 0.0012547529 0.0017265801 0.0012679514 0.0015467118 0.0016380658 0.0011022
0.0012389779 0.001337224 0.0011872348 0.00099539 0.0011507496 0.001836366 0.0010469469 0.0013313218
0.0014194804 0.0015176651 0.001275025 0.001139648 0.0013914561 0.0009959904 0.002112745 0.0010757664
0.0010719562 0.0012113244 0.00090227544 0.0017355295 0.0012438922 0.0013352698 0.0011162726 0.001084891
0.001450621 0.0023798114 0.0012702862 0.0010853962 0.0015028119 0.0016775362 0.0012341755 0.001160963
0.0016872566 0.001657244 0.0007717069 0.0019275711 0.0013119328 0.001111171 0.0010320491 0.0029195189
0.0009269265 0.0009726401 0.00068495853 0.0014277076 0.0010939246 0.0009620886 0.00140407 0.0012410646
0.0017621826 0.0012931091 0.0013334368 0.0010378931 0.0008815453 0.0024063215 0.0014896318 0.0009219065
0.0012219135 0.0014005107 0.0012004321 0.0012177059 0.0012296243 0.0014831823 0.0014759308 0.0010211681
0.0015428441 0.001626102 0.0029708587 0.0010558768 0.0010637753 0.0024262704 0.002186166 0.00128863
0.0011454804 0.0017724964 0.0014820552 0.0009454218 0.0017826722 0.0012096241 0.0012552015 0.0010586965
0.00091554626 0.0015457273 0.0013875637 0.001577381 0.0013767082 0.0017933134 0.0011721519 0.0011381737
0.0011258415 0.0010681292 0.001360144 0.0014612629 0.0011360857 0.0013041293 0.0016208462 0.0017369098
0.0017255612 0.0017952401 0.0016788965 0.0016332573 0.0016610301 0.0014883224 0.0017917958 0.0012854307
00000000: 9312 8d3b 1875 9c3a 4a90 b43a 4821 f23a
00000010: ce29 b83a 5e50 f73a 6785 ea3a 28e8 a63a
00000020: 1e14 d33a c216 b73a 8910 e93a 0581 c73a
00000030: e423 a93a 73c3 253b d31f 9c3a af31 803a
00000040: 9c21 183b 511d 993a 8576 a43a 6a4e e23a
00000050: 6431 a63a 09bb ca3a 5eb4 d63a b277 903a
00000060: 3365 a23a cb45 af3a fd9c 9b3a bf77 823a
00000070: c0d4 963a 38b2 f03a b539 893a bf7f ae3a
00000080: dc0d ba3a 64ec c63a bd1e a73a 3e60 953a
00000090: 8561 b63a e48b 823a fb75 0a3b bb00 8d3a
000000a0: e280 8c3a 4dc5 9e3a ae86 6c3a b57a e33a
000000b0: 190a a33a 3804 af3a e54f 923a e732 8e3a
000000c0: c422 be3a 9cf6 1b3b bb7f a63a da43 8e3a
000000d0: 00fa c43a c6e0 db3a 0fc4 a13a 742b 983a
000000e0: f026 dd3a e237 d93a 604c 4a3a 8ea6 fc3a
000000f0: 29f5 ab3a b6a4 913a d245 873a 6655 3f3b
00000100: fcfc 723a c6f8 7e3a ca8e 333a eb21 bb3a
00000110: 0562 8f3a ac34 7c3a c508 b83a 38ab a23a
00000120: 09f9 e63a 8b7d a93a b7c6 ae3a ea09 883a
00000130: 8117 673a 60b3 1d3b c03f c33a 19ac 713a
00000140: 9d28 a03a 5791 b73a d157 9d3a 6e9b 9f3a
00000150: 582b a13a 5767 c23a 0574 c13a b7d8 853a
00000160: 4239 ca3a ee22 d53a bdb2 423b 5965 8a3a
00000170: 606e 8b3a 1002 1f3b c745 0f3b 3fe7 a83a
00000180: f223 963a 1c53 e83a 8541 c23a 2fd6 773a
00000190: 8ea8 e93a 408c 9e3a 9385 a43a f6c3 8a3a
000001a0: 4501 703a 009a ca3a e9de b53a 20c0 ce3a
000001b0: a972 b43a 9d0d eb3a e4a2 993a c62e 953a
000001c0: f990 933a 7800 8c3a dc46 b23a d987 bf3a
000001d0: b6e8 943a 51ef aa3a 9372 d43a 06a9 e33a
000001e0: 3a2c e23a 434e eb3a 6b0e dc3a 0513 d63a
000001f0: ecb6 d93a d013 c33a b1da ea3a e67b a83a

features.7.weight_fake_quant.activation_post_process.min_vals f4 [128]
-0.4199114 -0.10691166 -0.14301819 -0.13380456 -0.16295889 -0.13714917 -0.115343645 -0.14892282
-0.14112653 -0.12523341 -0.22671306 -0.15866314 -0.13429385 -0.2002564 -0.15186958 -0.12290601
-0.15718523 -0.10592803 -0.11780245 -0.16836034 -0.12573308 -0.13641626 -0.14863445 -0.1405305
-0.14177516 -0.11855515 -0.14338583 -0.1219498 -0.09463802 -0.17459814 -0.090295926 -0.0791764
-0.15111001 -0.16416025 -0.114467576 -0.14530513 -0.15392391 -0.11818716 -0.15276271 -0.12031919
-0.10257978 -0.0973218 -0.08970067 -0.17373908 -0.1165649 -0.1702469 -0.11078614 -0.12445024
-0.15313776 -0.30342594 -0.10781198 -0.109917656 -0.12072946 -0.18057156 -0.15735738 -0.11788025
-0.154001 -0.16535106 -0.098392636 -0.21382158 -0.15520139 -0.10542545 -0.13106862 -0.37223867
-0.08987789 -0.08452301 -0.08733221 -0.16707872 -0.089131765 -0.12266629 -0.17901891 -0.091744766
-0.15722565 -0.11267175 -0.10508388 -0.09778385 -0.0872684 -0.21171378 -0.16112371 -0.093393944
-0.15579396 -0.14581919 -0.1480477 -0.14894295 -0.1332324 -0.18910575 -0.13667111 -0.10360716
-0.11838128 -0.115620315 -0.19168317 -0.10426937 -0.11156024 -0.13297321 -0.20254496 -0.0880914
-0.09001073 -0.1395221 -0.12086948 -0.12054128 -0.13067047 -0.09636245 -0.1445228 -0.11451259
-0.11054158 -0.19708022 -0.17691436 -0.17304546 -0.13816515 -0.22864746 -0.09910053 -0.12927422
-0.11933955 -0.12581669 -0.122491546 -0.097603306 -0.13936388 -0.16627648 -0.16535187 -0.16039309
-0.21980304 -0.22889312 -0.20093785 -0.15199918 -0.10708233 -0.110753015 -0.11918963 -0.11837269
00000000: a1fe d6be 80f4 dabd 5c73 12be 1004 09be
00000010: b2de 26be d570 0cbe 4a39 ecbd 397f 18be
00000020: 7983 10be 303d 00be 7827 68be 9778 22be
00000030: 5484 09be 0410 4dbe b383 1bbe 25b6 fbbd
00000040: 2af5 20be ccf0 d8bd 6942 f1bd a766 2cbe
00000050: 2cc0 00be b4b0 0bbe a133 18be 3ae7 0fbe
00000060: 822d 11be 0bcd f2bd bcd3 12be d1c0 f9bd
00000070: 94d1 c1bd dbc9 32be 12ed b8bd 3d27 a2bd
00000080: 95bc 1abe a019 28be fa6d eabd deca 14be
00000090: 3b9e 1dbe 1c0c f2bd d46d 1cbe e869 f6bd
000000a0: 5915 d2bd a750 c7bd fcb4 b7bd a8e8 31be
000000b0: 94b9 eebd 3455 2ebe d8e3 e2bd c4df febd
000000c0: 25d0 1cbe a55a 9bbe 87cc dcbd 821c e1bd
000000d0: 0241 f7bd c0e7 38be 4b22 21be 336b f1bd
000000e0: 70b2 1dbe ca51 29be 1482 c9bd 0bf4 5abe
000000f0: 1ded 1ebe 4ce9 d7bd da36 06be 1196 bebe
00000100: e611 b8bd 661a adbd 3bdb b2bd af16 2bbe
00000110: b78a b6bd 7738 fbbd bc50 37be aee4 bbbd
00000120: c3ff 20be 72c0 e6bd 3836 d7bd e642 c8bd
00000130: c6b9 b2bd 7fcb 58be 9dfd 24be 5345 bfbd
00000140: 7488 1fbe a051 15be d199 17be 8084 18be
00000150: 136e 08be f0a4 41be 83f3 0bbe fe2f d4bd
00000160: e271 f2bd 58ca ecbd 9848 44be 2e8b d5bd
00000170: b279 e4bd 212a 08be f267 4fbe 4469 b4bd
00000180: 8c57 b8bd e2de 0ebe 6b8a f7bd 59de f6bd
00000190: 7bce 05be ad59 c5bd c9fd 13be 9485 eabd
000001a0: a063 e2bd 66cf 49be 0a29 35be d432 31be
000001b0: 2a7b 0dbe 8f22 6abe 38f5 cabd 7660 04be
000001c0: 4b68 f4bd 17d6 00be d9dc fabd 3ee4 c7bd
000001d0: 68b5 0ebe 6244 2abe 0052 29be 163e 24be
000001e0: 0c14 61be f562 6abe a7c2 4dbe aca5 1bbe
000001f0: fb4d dbbd 7ad2 e2bd b119 f4bd 626d f2bd

features.7.weight_fake_quant.activation_post_process.max_vals f4 [128]
0.54891205 0.15219359 0.17564288 0.23553143 0.17914444 0.24057409 0.2281299 0.16235828
0.20532623 0.17809932 0.1766315 0.19406706 0.16453075 0.32249212 0.15102533 0.1247005
0.29597074 0.14894181 0.15998098 0.22013897 0.16166382 0.19720575 0.2088534 0.120898396
0.15796968 0.17049606 0.15137243 0.12691222 0.14672057 0.23413667 0.13348572 0.16974352
0.18098375 0.1935023 0.16256568 0.14170384 0.17741065 0.12698877 0.269375 0.13716021
0.13667442 0.15444386 0.115040116 0.22128001 0.15859626 0.13427684 0.14232476 0.1383236
0.18495418 0.28263852 0.16196148 0.13838801 0.19160852 0.21388586 0.1464236 0.14802279
0.21512522 0.21129861 0.09743878 0.24576531 0.16727144 0.1416743 0.13158625 0.28228885
0.11818313 0.12401161 0.083563514 0.18203272 0.13947539 0.09989062 0.16737984 0.15823574
0.22467828 0.16487141 0.17001319 0.13233137 0.11239702 0.306806 0.18992805 0.11754308
0.14356497 0.17856511 0.15305509 0.15525751 0.1567771 0.15431234 0.18818118 0.13019893
0.19671263 0.207328 0.37878448 0.1346243 0.13563135 0.30934948 0.27873614 0.16430032
0.14604875 0.22599329 0.18896203 0.10953295 0.2272907 0.15422708 0.16003819 0.13498381
0.11673215 0.167934 0.1507523 0.20111609 0.17553028 0.13257593 0.14944936 0.14511715
0.1435448 0.13618648 0.17341836 0.18631102 0.14485092 0.148517 0.20665789 0.221456
0.22000906 0.22191516 0.21405931 0.2082403 0.21178134 0.1897611 0.22845396 0.16389242
00000000: 8085 0c3f a3d8 1b3e badb 333e 272f 713e
00000010: a471 373e 0e59 763e e29a 693e 4041 263e
00000020: 0a41 523e ab5f 363e e3de 343e 84b9 463e
00000030: c07a 283e b01d a53e 62a6 1a3e fa62 ff3d
00000040: 7a89 973e 3484 183e 0ed2 233e 1c6c 613e
00000050: 338b 253e 4ef0 493e aadd 553e 9499 f73d
00000060: cec2 213e 8596 2e3e 6001 1b3e 47f5 013e
00000070: eb3d 163e 86c1 6f3e 7bb0 083e 3fd1 2d3e
00000080: ce53 393e 7825 463e 9e77 263e d01a 113e
00000090: 23ab 353e 5809 023e 85eb 893e ba73 0c3e
000000a0: 61f4 0b3e 8826 1e3e 279a eb3d 3a97 623e
000000b0: 0f67 223e de7f 093e 95bd 113e b4a4 0d3e
000000c0: a164 3d3e ffb5 903e 3bd9 253e 96b5 0d3e
000000d0: 0635 443e e504 5b3e 11f0 153e 4993 173e
000000e0: c949 5c3e aa5e 583e fc8d c73d e7a9 7b3e
000000f0: 3449 2b3e 1113 113e 8cbe 063e 2a88 903e
00000100: ff09 f23d cdf9 fd3d 5923 ab3d c966 3a3e
00000110: a3d2 0e3e 7493 cc3d 9f65 2b3e 8d08 223e
00000120: 1012 663e 0dd4 283e f017 2e3e e081 073e
00000130: 6930 e63d ad15 9d3e 807c 423e 6dba f03d
00000140: b202 133e c6d9 363e 79ba 1c3e d3fb 1e3e
00000150: 2d8a 203e 0e04 1e3e 91b2 403e de52 053e
00000160: 096f 493e cb4d 543e 0af0 c13e f4da 093e
00000170: f2e2 0a3e 0e63 9e3e 81b6 8e3e 583e 283e
00000180: ce8d 153e c96a 673e 437f 413e d052 e03d
00000190: e5be 683e b4ed 1d3e 0de1 233e 3239 0a3e
000001a0: 4411 ef3d e4f6 2b3e d05e 1a3e 60f1 4d3e
000001b0: 36be 333e fcc1 073e 4109 193e 9799 143e
000001c0: 68fd 123e 7874 0b3e 9594 313e 51c8 3e3e
000001d0: cd53 143e d714 183e 209e 533e 5dc5 623e
000001e0: 0e4a 613e ba3d 633e 5d32 5b3e f23c 553e
000001f0: 35dd 583e bc50 423e d6ef 693e 6ad3 273e

features.10.weight_fake_quant.scale f4 [256]
0.00086386956 0.0009400447 0.0009749352 0.002833643 0.0018409396 0.001033778 0.0010657257 0.0016975636
0.0007146217 0.001055698 0.0010869697 0.0011046034 0.00075810676 0.0008641948 0.0017708179 0.0009257949
0.0016829545 0.00096441194 0.0011201791 0.0010655225 0.0011286966 0.0013110591 0.0010991057 0.00079733634
0.00076950935 0.0008947845 0.0012576302 0.00096191716 0.0051703784 0.001235919 0.0010319162 0.0009135141
0.0026437803 0.0012913365 0.0011719243 0.00087272015 0.0008344282 0.00074628217 0.0011065877 0.0009747637
0.0012867273 0.0009897277 0.0009280966 0.0010285451 0.0013578004 0.0013459343 0.0021821016 0.00093871646
0.0010397083 0.0014157245 0.002183652 0.0017085439 0.0009517149 0.0015990158 0.0009379637 0.0011820688
0.00084768777 0.00095891993 0.0009703756 0.0009876862 0.0012662157 0.00085599883 0.0010745351 0.002122328
0.0009880249 0.001383086 0.00079749024 0.0012462647 0.0009247199 0.00087565184 0.001147318 0.0007730353
0.0011494234 0.0009455529 0.0010558822 0.0012030508 0.0023912506 0.0016293662 0.0016774012 0.0013183624
0.0006436546 0.000992102 0.0014733769 0.0035885118 0.00092153955 0.001330126 0.0008536546 0.0015377568
0.000980315 0.0017674167 0.0011050707 0.0012071213 0.00074477034 0.0008342476 0.0015367364 0.0010158583
0.001547614 0.0008775517 0.0011059368 0.0016204838 0.002030827 0.0013908261 0.0014221678 0.0011857833
0.0024901729 0.0015366804 0.0016066321 0.0010580153 0.00087561255 0.0019213785 0.0008887382 0.0007888035
0.0011995799 0.0011029149 0.0009196366 0.0009663716 0.0012818872 0.0007906779 0.00081137125 0.0014179791
0.0011588801 0.0009171782 0.0009985134 0.002558422 0.0010217471 0.0023174745 0.0017673441 0.00088863197
0.0009189003 0.0010096174 0.0011599568 0.0012024661 0.0011564764 0.0018157669 0.0011999266 0.0010200079
0.0012228676 0.0016071765 0.0013858054 0.00093499705 0.0014229068 0.0011757292 0.0008502194 0.0007913424
0.0015077044 0.00088042946 0.0013488053 0.001665307 0.0034343947 0.0010135378 0.0013334735 0.0010693755
0.0012232303 0.0011174844 0.0009789604 0.0019503897 0.00063853327 0.00071641215 0.0008522661 0.0013353396
0.00096493406 0.00076675403 0.0016439366 0.0016989893 0.00081597123 0.0011520727 0.0008229569 0.0009421531
0.0007612119 0.0013123101 0.00081959704 0.001035715 0.001235206 0.0010296707 0.0008445079 0.0013876824
0.0017580065 0.0009569912 0.0015685719 0.0015203892 0.00090102904 0.00072604517 0.0008291801 0.00079367467
0.0012630334 0.0010483565 0.0012777363 0.0011636972 0.0012869564 0.000809039 0.0011507417 0.0010572043
0.0011316136 0.0008522295 0.0009484957 0.00072276115 0.0008232996 0.0014446775 0.0010998036 0.0008187288
0.0012533767 0.0016746162 0.001019982 0.00079977734 0.0011361882 0.0012611734 0.0014211502 0.00082203926
0.0015671307 0.0021206685 0.001831358 0.000747953 0.001988548 0.00075115304 0.0014479373 0.0015053108
0.0011582841 0.001033087 0.0013953551 0.0008579271 0.001123715 0.0010747514 0.0010629499 0.0012498879
0.0014271246 0.0018482303 0.0010323136 0.0014869592 0.00090158585 0.0013335873 0.00077087205 0.0009217592
0.0018314878 0.0007367678 0.0010338987 0.0016768773 0.0010246491 0.001322641 0.0015637208 0.00075596134
0.0010952845 0.0010305301 0.0018702478 0.0013528492 0.0018358413 0.0011302318 0.0009130507 0.0008941376
0.0013235094 0.00080761284 0.001334534 0.0013546449 0.0016444903 0.0016325127 0.0016325428 0.0008571162
00000000: 4e75 623a 556d 763a cb92 7f3a a4b4 393b
00000010: af4b f13a d57f 873a d2af 8b3a c880 de3a
00000020: 7355 3b3a 595f 8a3a a778 8e3a 57c8 903a
00000030: afbb 463a 228b 623a ca1a e83a 0bb1 723a
00000040: 9596 dc3a 97d0 7c3a f9d2 923a 01a9 8b3a
00000050: c6f0 933a d8d7 ab3a de0f 903a 5604 513a
00000060: e6b8 493a f98f 6a3a 11d7 a43a 2b29 7c3a
00000070: 476c a93b 8ffe a13a 5d41 873a e578 6f3a
00000080: 4643 2d3b 1042 a93a 419b 993a 42c7 643a
00000090: 87bd 5a3a 26a2 433a ec0a 913a 4987 7f3a
000000a0: 67a7 a83a c0b9 813a 824b 733a 3fd0 863a
000000b0: 39f8 b13a 106a b03a 9701 0f3b 3214 763a
000000c0: d246 883a d58f b93a 9a1b 0f3b 38f1 df3a
000000d0: 817c 793a 1196 d13a aee1 753a a6ef 9a3a
000000e0: 5d37 5e3a 0760 7b3a ce60 7e3a 4075 813a
000000f0: 26f7 a53a 1c65 603a 6ad7 8c3a c116 0b3b
00000100: 9d80 813a aa48 b53a aa0e 513a b459 a33a
00000110: e768 723a 008c 653a 9b61 963a 85a5 4a3a
00000120: 40a8 963a fbde 773a 8765 8a3a b0af 9d3a
00000130: 87b6 1c3b 7590 d53a 3fdc db3a e7cc ac3a
00000140: eeba 283a 6b09 823a 531e c13a 3d2d 6b3b
00000150: 7993 713a 9f57 ae3a cac7 5f3a 8e8e c93a
00000160: ea7d 803a aaa8 e73a 05d8 903a 4538 9e3a
00000170: b13c 433a 69b1 5a3a 516c c93a 8c26 853a
00000180: 4fd9 ca3a 7f0b 663a 15f5 903a 6a66 d43a
00000190: a017 053b 614c b63a 0868 ba3a 496c 9b3a
000001a0: 2b32 233b 706a c93a a195 d23a 1aad 8a3a
000001b0: 5d89 653a c4d6 fb3a 36fa 683a b5c7 4e3a
000001c0: 393b 9d3a af8f 903a c413 713a 1a54 7d3a
000001d0: ff04 a83a 7f45 4f3a 34b2 543a 7cdb b93a
000001e0: 90e5 973a c96e 703a 8de0 823a 33ab 273b
000001f0: 25ec 853a c5e0 173b 3aa6 e73a 15f3 683a
00000200: 5be2 703a 2355 843a b109 983a 119c 9d3a
00000210: e994 973a 07ff ed3a db46 9d3a c9b1 853a
00000220: a148 a03a e5a7 d23a eaa3 b53a 971a 753a
00000230: d480 ba3a ed1a 9a3a 42e1 5e3a 1772 4f3a
00000240: 2a9e c53a 9fcc 663a 65ca b03a 6e46 da3a
00000250: 9513 613b afd8 843a f2c7 ae3a 4a2a 8c3a
00000260: cc54 a03a 8e78 923a 7650 803a 38a4 ff3a
00000270: 3e63 273a 9bcd 3b3a 9c6a 5f3a 9006 af3a
00000280: a1f3 7c3a feff 483a 5c79 d73a 9fb0 de3a
00000290: e7e6 553a 2501 973a b4bb 573a d3fa 763a
000002a0: 118c 473a d201 ac3a 3ada 563a d4c0 873a
000002b0: a3e6 a13a 04f6 863a f761 5d3a e5e2 b53a
000002c0: e96c e63a 98de 7a3a 8a98 cd3a cc47 c73a
000002d0: 0933 6c3a 1154 3e3a 565d 593a 9b0e 503a
000002e0: 5e8c a53a 0269 893a b779 a73a 3387 983a
000002f0: 17af a83a b015 543a 7cd4 963a e491 8a3a
00000300: a752 943a 2768 5f3a 78a4 783a ae77 3d3a
00000310: b3d2 573a 555b bd3a 4927 903a f69f 563a
00000320: 5848 a43a cc7e db3a ebb0 853a 26a8 513a
00000330: 26ec 943a f54d a53a e345 ba3a 1f7e 573a
00000340: 2e68 cd3a eafa 0a3b 2d0a f03a 4712 443a
00000350: 4d52 023b 07e9 443a b7c8 bd3a d94d c53a
00000360: 91d1 973a a668 873a 59e4 b63a 83e6 603a
00000370: 9e49 933a acde 8c3a ae52 8b3a 47d3 a33a
00000380: 5b0e bb3a 5140 f23a b24e 873a 12e6 c23a
00000390: 6758 6c3a c4cb ae3a 5914 4a3a 36a2 713a
000003a0: 880e f03a a623 413a e283 873a aaca db3a
000003b0: 854d 863a 785c ad3a c3f5 cc3a b52b 463a
000003c0: a68f 8f3a da12 873a 1a23 f53a 1652 b13a
000003d0: 9da0 f03a 4924 943a cc59 6f3a 8f64 6a3a
000003e0: 9b79 ad3a fbb5 533a 88eb ae3a 578e b13a
000003f0: f08b d73a 09fa d53a 0cfb d53a 18b0 603a

features.10.weight_fake_quant.activation_post_process.min_vals f4 [256]
-0.095812075 -0.0802756 -0.076880306 -0.106848784 -0.14036927 -0.123605974 -0.09604802 -0.21643935
-0.09111427 -0.12573716 -0.12968655 -0.09907355 -0.09665861 -0.07740186 -0.10204226 -0.11461079
-0.21457669 -0.12101785 -0.14282283 -0.13462159 -0.114491105 -0.10406014 -0.09193589 -0.08498072
-0.08900168 -0.093985036 -0.16034785 -0.12015615 -0.13074705 -0.07804601 -0.11446971 -0.08889528
-0.111091614 -0.10555668 -0.14942035 -0.10522821 -0.089037895 -0.084032066 -0.084624015 -0.07096743
-0.14358354 -0.0918891 -0.10426864 -0.1311395 -0.099680334 -0.1386362 -0.15188898 -0.08179151
-0.1325628 -0.18050487 -0.1028523 -0.13020973 -0.12134364 -0.20387451 -0.09231918 -0.1068178
-0.10808019 -0.08785699 -0.10696053 -0.09558532 -0.1614425 -0.10189997 -0.08245124 -0.13003093
-0.08210047 -0.10065731 -0.077388994 -0.15889874 -0.117248006 -0.11164561 -0.14628305 -0.09597874
-0.09218637 -0.12055799 -0.10954579 -0.13274772 -0.16873029 -0.16618428 -0.21386866 -0.15813918
-0.08206596 -0.126493 -0.1717724 -0.118252315 -0.11636531 -0.13122857 -0.10884096 -0.1545602
-0.09437404 -0.12524408 -0.10794612 -0.15390797 -0.07720305 -0.08572364 -0.0822807 -0.12952192
-0.19732079 -0.11188784 -0.14100695 -0.2066117 -0.17970856 -0.09630381 -0.18132639 -0.15118738
-0.16325524 -0.18079086 -0.20484559 -0.10034059 -0.1116406 -0.10523692 -0.11331412 -0.100572444
-0.15294644 -0.14062165 -0.07589961 -0.09584374 -0.15918878 -0.06986134 -0.091955766 -0.11086472
-0.097163975 -0.116940215 -0.07848426 -0.1352008 -0.060904168 -0.2454498 -0.109586045 -0.11330058
-0.060329884 -0.12872621 -0.14789449 -0.1056846 -0.14745075 -0.16777852 -0.09741971 -0.130051
-0.07998531 -0.16050303 -0.0836529 -0.08179771 -0.13632397 -0.11340064 -0.08286666 -0.10089616
-0.19223231 -0.11225475 -0.090215005 -0.1428575 -0.10195229 -0.1051639 -0.17001787 -0.11868151
-0.15596186 -0.10124264 -0.0836039 -0.1552969 -0.070898205 -0.08790039 -0.10376318 -0.15733336
-0.12302909 -0.09776114 -0.10691002 -0.21662113 -0.10403633 -0.13403153 -0.0911233 -0.078590125
-0.08291864 -0.16731954 -0.095317975 -0.13205366 -0.1352118 -0.11943712 -0.107674755 -0.106043
-0.09308127 -0.07566769 -0.15523493 -0.11769317 -0.10745514 -0.08990805 -0.10502536 -0.090477236
-0.16103676 -0.09585496 -0.16291137 -0.10905893 -0.16408694 -0.07739802 -0.14528826 -0.12155945
-0.14428073 -0.091328345 -0.120933205 -0.053011462 -0.10497069 -0.18419638 -0.10736104 -0.066141635
-0.13301149 -0.21351357 -0.09482116 -0.098811515 -0.13390987 -0.16079961 -0.11932995 -0.09091658
-0.19980916 -0.16149247 -0.19970298 -0.08675846 -0.17835268 -0.08189658 -0.18245241 -0.11385787
-0.13064414 -0.08474078 -0.096745245 -0.0887158 -0.14327365 -0.1068053 -0.08734115 -0.14158955
-0.1424508 -0.23564936 -0.13161997 -0.08460726 -0.10885306 -0.13458858 -0.08829808 -0.09672696
-0.16261066 -0.09393789 -0.13182208 -0.106454864 -0.10088321 -0.16863674 -0.1993744 -0.078464314
-0.12606314 -0.10133402 -0.23845659 -0.15791629 -0.23406976 -0.14410456 -0.0794555 -0.10594615
-0.1116487 -0.09920309 -0.13590224 -0.15042856 -0.20967251 -0.18435206 -0.13013811 -0.09946032
00000000: 1f39 c4bd 8967 a4bd 6c73 9dbd 89d3 dabd
00000010: f6bc 0fbe 2125 fdbd d3b4 c4bd 47a2 5dbe
00000020: 1e9a babd 3ec1 00be 8dcc 04be 13e7 cabd
00000030: f3f4 c5bd de84 9ebd 88fb d0bd 10b9 eabd
00000040: feb9 5bbe 35d8 f7bd 2640 12be 3eda 09be
00000050: 507a eabd 7c1d d5bd e248 bcbd 5f0a aebd
00000060: 8346 b6bd 3a7b c0bd 3a32 24be 6d14 f6bd
00000070: 8ee2 05be 96d6 9fbd 186f eabd bb0e b6bd
00000080: 0084 e3bd 1a2e d8bd a601 19be e381 d7bd
00000090: 8059 b6bd 0119 acbd 5b4f adbd 5f57 91bd
000000a0: 9007 13be 5a30 bcbd cc8a d5bd 6f49 06be
000000b0: 3425 ccbd a6f6 0dbe c988 1bbe 4f82 a7bd
000000c0: 8bbe 07be 45d6 38be 3aa4 d2bd b355 05be
000000d0: 0483 f8bd 7bc4 50be d711 bdbd 4ac3 dabd
000000e0: 2659 ddbd 5eee b3bd 1f0e dbbd 3cc2 c3bd
000000f0: 2f51 25be eeb0 d0bd 32dc a8bd d426 05be
00000100: 4b24 a8bd 6b25 cebd 1f7e 9ebd 5ab6 22be
00000110: b91f f0bd 74a6 e4bd 39cb 15be 8090 c4bd
00000120: 35cc bcbd 1ce7 f6bd 8b59 e0bd 05ef 07be
00000130: a2c7 2cbe 362c 2abe 6300 5bbe 3def 21be
00000140: 3312 a8bd 6287 01be 1be5 2fbe 452e f2bd
00000150: f050 eebd c860 06be 02e8 debd 0745 1ebe
00000160: 2d47 c1bd fc3f 00be db12 ddbd 0d9a 1dbe
00000170: a21c 9ebd e08f afbd c982 a8bd 65a1 04be
00000180: 760e 4abe 7425 e5bd 2064 10be 0492 53be
00000190: 8505 38be ef3a c5bd a0ad 39be ddd0 1abe
000001a0: 622c 27be 3d21 39be 0bc3 51be 5e7f cdbd
000001b0: d4a3 e4bd 7486 d7bd 3c11 e8bd edf8 cdbd
000001c0: fe9d 1cbe 1fff 0fbe 4171 9bbd b949 c4bd
000001d0: 6202 23be 7613 8fbd 4e53 bcbd 0b0d e3bd
000001e0: e8fd c6bd 5a7e efbd 5bbc a0bd 1472 0abe
000001f0: a676 79bd 3157 7bbe a66e e0bd 220a e8bd
00000200: 781c 77bd ced0 03be a771 17be 2b71 d8bd
00000210: 54fd 16be 22ce 2bbe fc83 c7bd 172c 05be
00000220: 57cf a3bd e85a 24be 3652 abbd 8f85 a7bd
00000230: 8398 0bbe 983e e8bd ffb5 a9bd a5a2 cebd
00000240: 8cd8 44be d2e5 e5bd a5c2 b8bd 3d49 12be
00000250: 5dcc d0bd 2c60 d7bd 2a19 2ebe 4b0f f3bd
00000260: 77b4 1fbe 4d58 cfbd 8638 abbd 2706 1fbe
00000270: 1433 91bd 1f05 b4bd ca81 d4bd ff1b 21be
00000280: adf6 fbbd fe36 c8bd a4f3 dabd eed1 5dbe
00000290: 0011 d5bd 903f 09be da9e babd dcf3 a0bd
000002a0: 3fd1 a9bd d055 2bbe 1236 c3bd 1339 07be
000002b0: f674 0abe 739b f4bd 9584 dcbd 132d d9bd
000002c0: 65a1 bebd a9f7 9abd e8f5 1ebe 1e09 f1bd
000002d0: 7111 dcbd b621 b8bd 8917 d7bd 214c b9bd
000002e0: d2e6 24be 9b4f c4bd 3dd2 26be 4a5a dfbd
000002f0: 6806 28be da82 9ebd 72c6 14be 29f4 f8bd
00000300: 54be 13be 5b0a bbbd d4ab f7bd 8c22 59bd
00000310: e0fa d6bd fa9d 3cbe 1be0 dbbd 4475 87bd
00000320: 2a34 08be 4da3 5abe 9931 c2bd b15d cabd
00000330: ab1f 09be a7a8 24be 4363 f4bd 7932 babd
00000340: c69a 4cbe 485e 25be f07e 4cbe 6bae b1bd
00000350: 16a2 36be 65b9 a7bd ced4 3abe 512e e9bd
00000360: 94c7 05be 938c adbd 5f22 c6bd a1b0 b5bd
00000370: 54b6 12be bdbc dabd ebdf b2bd dafc 10be
00000380: 9fde 11be 114e 71be 63c7 06be 9246 adbd
00000390: 5aee debd 97d1 09be a0d5 b4bd c918 c6bd
000003a0: 6983 26be 8262 c0bd 5efc 06be 0205 dabd
000003b0: db9b cebd 1caf 2cbe cd28 4cbe e6b1 a0bd
000003c0: b216 01be 3688 cfbd f72d 74be cfb4 21be
000003d0: fcaf 6fbe 2590 13be 91b9 a2bd 4cfa d8bd
000003e0: 13a8 e4bd fd2a cbbd f529 0bbe f209 1abe
000003f0: 64b4 56be c9c6 3cbe ed42 05be dab1 cbbd

features.10.weight_fake_quant.activation_post_process.max_vals f4 [256]
0.11014337 0.1198557 0.124304235 0.36128947 0.2347198 0.13180669 0.13588002 0.109635994
0.080093674 0.1346015 0.13858864 0.14083694 0.08960044 0.11018484 0.22577928 0.11803885
0.099136055 0.12296252 0.11322759 0.13585413 0.14390881 0.16716003 0.14013597 0.101660386
0.09811244 0.114085026 0.14200905 0.12264444 0.65922326 0.15757966 0.13156933 0.11647305
0.337082 0.1646454 0.12848225 0.11127182 0.10638959 0.09515098 0.14108993 0.124282375
0.16405773 0.12619027 0.11833231 0.10936925 0.17311956 0.17160663 0.27821794 0.11968635
0.11621009 0.10465259 0.27841562 0.21783935 0.09214572 0.18761696 0.11959037 0.15071377
0.09752901 0.12226229 0.12372289 0.12593 0.105712414 0.10913985 0.13700323 0.2705968
0.12597317 0.17634346 0.10168 0.1216352 0.11790179 0.09276383 0.124112405 0.098561995
0.14655149 0.1023614 0.13462497 0.15338898 0.30488443 0.2077442 0.1973716 0.16809121
0.07357334 0.113056816 0.18785556 0.45753527 0.1174963 0.16959105 0.10741736 0.19606398
0.12499017 0.22534563 0.14089651 0.11113003 0.094958216 0.106366575 0.1959339 0.11291931
0.108098745 0.10909787 0.110111915 0.13197677 0.25893044 0.17733033 0.14460649 0.15073563
0.31749704 0.19592676 0.07091834 0.13489695 0.09779487 0.24497576 0.097535305 0.0808346
0.14596009 0.11280521 0.11725366 0.12321238 0.16344061 0.10081144 0.10344984 0.18079235
0.1477572 0.09521194 0.12731045 0.32619882 0.13027276 0.295478 0.22533637 0.085980706
0.11715979 0.09280016 0.12672018 0.15331443 0.08849194 0.23151028 0.15299064 0.10856613
0.15591562 0.204915 0.17669019 0.11921212 0.18142061 0.14990547 0.108402975 0.08802124
0.1057589 0.09870646 0.17197268 0.21232665 0.4378853 0.12922606 0.16086487 0.13634539
0.0991395 0.14247926 0.12481746 0.24867469 0.08141299 0.091342546 0.108663924 0.1702558
0.11318749 0.07762029 0.20960192 0.14698951 0.094132155 0.14688927 0.104927 0.12012452
0.09705452 0.13553399 0.104498625 0.1277484 0.15748876 0.13128302 0.102832034 0.1769295
0.22414583 0.12201638 0.19999291 0.19384962 0.1148812 0.09257076 0.10572047 0.10119352
0.12557581 0.13366546 0.12733454 0.1483714 0.15064809 0.10315247 0.14671957 0.13479355
0.08457021 0.10865926 0.08771908 0.092152044 0.09623385 0.11764911 0.14022496 0.104387924
0.15980554 0.1415238 0.13004771 0.10197161 0.144864 0.10122978 0.18119664 0.10481001
0.11536386 0.27038524 0.23349814 0.09536401 0.2535399 0.09577201 0.184612 0.19192712
0.14768122 0.13171859 0.17790778 0.1093857 0.12500124 0.1370308 0.1355261 0.1593607
0.18195839 0.16927797 0.08650098 0.1895873 0.1149522 0.17003238 0.09828619 0.117524296
0.23351468 0.08928916 0.11922426 0.21380185 0.13064276 0.11341304 0.12527566 0.09638507
0.13964877 0.13139258 0.08457064 0.17248827 0.1849661 0.11938137 0.116413966 0.11400254
0.16874744 0.10297064 0.17015308 0.17271723 0.08993972 0.20814537 0.20814921 0.109282315
00000000: d992 e13d e876 f53d 3893 fe3d effa b83e
00000010: 635a 703e 55f8 063e 2224 0b3e d688 e03d
00000020: 2708 a43d fad4 093e 2eea 0d3e 8f37 103e
00000030: 6f80 b73d 97a8 e13d af32 673e 5abe f13d
00000040: d807 cb3d c6d3 fb3d dee3 e73d 581d 0b3e
00000050: d55c 133e 002c 2b3e ce7f 0f3e 5233 d03d
00000060: 2def c83d 69a5 e93d d26a 113e 022d fb3d
00000070: dbc2 283f 905c 213e 1cba 063e 6c89 ee3d
00000080: 0396 ac3e ce98 283e da90 033e 7be2 e33d
00000090: c9e2 d93d 84de c23d e179 103e c287 fe3d
000000a0: c0fe 273e 0638 013e 3658 f23d fcfc df3d
000000b0: 4146 313e a6b9 2f3e 9572 8e3e 1e1e f53d
000000c0: 8eff ed3d 1954 d63d 7e8c 8e3e 4711 5f3e
000000d0: e5b6 bc3d a91e 403e cceb f43d b654 1a3e
000000e0: 4abd c73d a764 fa3d 6d62 fd3d cbf3 003e
000000f0: c07f d83d b784 df3d 934a 0c3e aa8b 8a3e
00000100: 1cff 003e 6193 343e 9b3d d03d e01b f93d
00000110: 7e76 f13d f7fa bd3d a52e fe3d dfda c93d
00000120: 9811 163e dba2 d13d 21db 093e 0012 1d3e
00000130: d019 9c3e e5ba 543e c81b 4a3e 1a20 2c3e
00000140: 9fad 963d 558a e73d 355d 403e 1042 ea3e
00000150: e6a1 f03d 47a9 2d3e a2fd db3d ffc4 483e
00000160: d9fa ff3d 01c1 663e 2d47 103e 2498 e33d
00000170: 7479 c23d b8d6 d93d e5a2 483e 3d42 e73d
00000180: e062 dd3d b46e df3d 5b82 e13d eb24 073e
00000190: 8892 843e 1596 353e b913 143e 715a 1a3e
000001a0: f98e a23e 06a1 483e a23d 913d 6d22 0a3e
000001b0: ad48 c83d edda 7a3e 97c0 c73d 9c8c a53d
000001c0: 9076 153e 6b06 e73d b022 f03d c656 fc3d
000001d0: fa5c 273e 3a76 ce3d 82dd d33d a121 393e
000001e0: aa4d 173e 7afe c23d ac5d 023e 8803 a73e
000001f0: 3966 053e e448 973e 94be 663e a716 b03d
00000200: 79f1 ef3d 030e be3d efc2 013e 75fe 1c3e
00000210: 433b b53d 0811 6d3e 94a9 1c3e eb57 de3d
00000220: 58a8 1f3e 3dd5 513e 46ee 343e 7c25 f43d
00000230: 53c6 393e d280 193e 6102 de3d 7b44 b43d
00000240: 1f98 d83d 9d26 ca3d 9b19 303e 286c 593e
00000250: 8132 e03e d653 043e c3b9 243e 209e 0b3e
00000260: a609 cb3d 15e6 113e 4ca0 ff3d 94a4 7e3e
00000270: dbbb a63d cd11 bb3d 318b de3d 8957 2e3e
00000280: d8ce e73d 63f7 9e3d e3a1 563e 6b84 163e
00000290: 5cc8 c03d 246a 163e f8e3 d63d d803 f63d
000002a0: 85c4 c63d 6cc9 0a3e 6003 d63d 7ad0 023e
000002b0: bc44 213e 0e6f 063e 9a99 d23d 022d 353e
000002c0: 7c86 653e b9e3 f93d f1ca 4c3e 8480 463e
000002d0: d646 eb3d bd95 bd3d f983 d83d 8c3e cf3d
000002e0: f296 003e 99df 083e fc63 023e acee 173e
000002f0: 7e43 1a3e 9a41 d33d a83d 163e 5207 0a3e
00000300: 2533 ad3d bf88 de3d 10a6 b33d 36ba bc3d
00000310: 4116 c53d 04f2 f03d 2297 0f3e 56c9 d53d
00000320: 10a4 233e 9deb 103e 3a2b 053e 7ed6 d03d
00000330: 3a57 143e 8f51 cf3d 9d8b 393e a1a6 d63d
00000340: e343 ec3d ef6f 8a3e 231a 6f3e 354e c33d
00000350: fbcf 813e 1e24 c43d ee0a 3d3e 8b88 443e
00000360: bf39 173e 3de1 063e 752d 363e 9c05 e03d
00000370: 5300 003e cd51 0c3e 5bc7 0a3e 742f 233e
00000380: 4d53 3a3e 3457 2d3e 6d27 b13d 2c23 423e
00000390: 0f6c eb3d f81c 2e3e 454a c93d 94b0 f03d
000003a0: 791e 6f3e 3cdd b63d d92b f43d dfee 5a3e
000003b0: 37c7 053e 1945 e83d 4348 003e 8965 c53d
000003c0: 1600 0f3e c78b 063e 5f33 ad3d c4a0 303e
000003d0: c167 3d3e 387e f43d 726a ee3d 2a7a e93d
000003e0: 21cc 2c3e 45e2 d23d 9c3c 2e3e c9dc 303e
000003f0: 5132 b83d 0f24 553e 1125 553e 68cf df3d
